classification/LSTM/net/best_model_epoc2.pth (torch, 675170 bytes, 56 tensors)

conv1.conv_1.weight f4 [128, 1, 3]
0	0xbed3ef7a	-0.41393644
1	0x3cdc94fc	0.02692651
2	0x3e964939	0.2935274
3	0x3e84e0e2	0.25952822
4	0x3dbf33f6	0.09336083
5	0xbec04403	-0.3755189
6	0xbf077001	-0.5290528
7	0x3f082fdc	0.5319803
8	0xbe7770ee	-0.24164173
9	0xbeef1210	-0.46693468
10	0x3eb69713	0.35662135
11	0xbf0fed77	-0.5622172
12	0x3ebcadda	0.36851388
13	0xbedf5982	-0.43622977
14	0x3e93828b	0.28810534
15	0xbe31f166	-0.17377242
16	0x3b897af6	0.0041955663
17	0xbe80b0f8	-0.25135016
18	0x3ea5307c	0.32263553
19	0x3e8c355b	0.27384457
20	0x3eb20e11	0.34776357
21	0xbe681dd0	-0.22667623
22	0x3f110a0b	0.5665595
23	0xba87d3be	-0.0010362787
24	0xbe047e4e	-0.12938806
25	0xbf0356aa	-0.51304114
26	0x3ecffce2	0.40622622
27	0xbefe99bb	-0.49726662
28	0xbec17248	-0.37782502
29	0xbe50b95e	-0.20383212
30	0x3e580439	0.21095361
31	0x3e66651e	0.2249951
32	0x3ebf7c76	0.37399644
33	0x3cad9f34	0.021194078
34	0x3e8ed3a6	0.2789585
35	0x3ebfb428	0.37442136
36	0xbf0c7b75	-0.5487588
37	0xbef7fab8	-0.4843347
38	0xbf0c8a4e	-0.54898536
39	0xbed2cbea	-0.411712
40	0x3e91dd89	0.2848933
41	0x3f0291dc	0.51003814
42	0x3e49c49a	0.19703904
43	0xbee5b8ea	-0.4486764
44	0x3e8e2072	0.2775913
45	0x3ea3eba6	0.32015723
46	0x3f025b26	0.5092033
47	0xbf07e267	-0.5307984
48	0xbdb33800	-0.087509155
49	0xbe9a8f0a	-0.30187255
50	0x3eff8748	0.499079
51	0x3ea1a9c4	0.31574833
52	0x3d932bcf	0.0718609
53	0x3d2d56ae	0.042318992
54	0x3e84163c	0.25798213
55	0xbee3f00f	-0.44519088
56	0xbd3a4825	-0.04547896
57	0xbeddec63	-0.4334441
58	0x3e50cc77	0.20390497
59	0x3e372469	0.17884983
60	0xbefee8df	-0.49787042
61	0xbcbfde17	-0.02342133
62	0x3e8b139a	0.27163392
63	0x3e93fa83	0.28902063
64	0x3f0ab1ef	0.54177755
65	0xbf063055	-0.524175
66	0xbe422852	-0.18960693
67	0xbe7824c5	-0.24232776
68	0xbefbb494	-0.49161208
69	0xbf0db153	-0.553487
70	0xbeda022b	-0.4257978
71	0x3e89246e	0.26785606
72	0xbf008693	-0.50205344
73	0xbe8af750	-0.2714181
74	0xbec7a54f	-0.38993308
75	0xbee6d729	-0.4508603
76	0x3f039e59	0.51413494
77	0xbd8f20a3	-0.06988647
78	0xbe47c52d	-0.1950881
79	0x3f06022a	0.5234705
80	0xbeac0b30	-0.33602285
81	0xbe7215f9	-0.23641194
82	0xbe383a0b	-0.17990892
83	0xbec63d5a	-0.38718683
84	0xbe8d4141	-0.27588847
85	0xbe0b03dd	-0.13575692
86	0x3d40a397	0.04703101
87	0xbeaf7d18	-0.34275126
88	0xbce4c7bb	-0.02792727
89	0x3f10d422	0.5657369
90	0x3b970584	0.004608812
91	0xbd9bc266	-0.07605438
92	0xbf11ad44	-0.5690501
93	0xbed7fd5d	-0.42185488
94	0x3e96a90a	0.29425842
95	0x3eb06d7b	0.34458527
96	0xbf0afae2	-0.54289067
97	0x3e05fa0e	0.1308367
98	0x3e097468	0.13423312
99	0xbe756c61	-0.23967125
100	0x3ee0a7cf	0.43878028
101	0x3d9a2252	0.07526077
102	0xbee63df8	-0.44969153
103	0x3ef26c9e	0.47348493
104	0x3e84dfba	0.2595194
105	0xbe8cd856	-0.275088
106	0x3d383623	0.044973504
107	0x3ed636ca	0.41838676
108	0x3ee2ef95	0.44323412
109	0x3e8b35c8	0.2718947
110	0x3e2001cc	0.15625685
111	0xbce8c370	-0.028413504
112	0x3dc9e39a	0.09857865
113	0xbed63a63	-0.4184142
114	0x3c900836	0.01758204
115	0xbf0f3f5b	-0.5595605
116	0x3eaf969e	0.342946
117	0xbeccd182	-0.40003592
118	0xbec6b587	-0.3881037
119	0x3eedc7e1	0.46441558
120	0xbe38cdf8	-0.18047321
121	0xbec85b56	-0.39132184
122	0xbeee8992	-0.46589333
123	0x3e87c469	0.26517037
124	0xbf019387	-0.50615734
125	0x3ee591da	0.44837838
126	0x3e42a2db	0.19007437
127	0x3f0c10b5	0.5471299
128	0xbe5d5b5b	-0.2161688
129	0xbefaf929	-0.4901822
130	0xbd3571bd	-0.044297922
131	0x3ef11f95	0.47094408
132	0xbe8fe867	-0.28106996
133	0xbf0a8ef8	-0.54124403
134	0x3ee0bff2	0.43896443
135	0x3ecdf74f	0.40227744
136	0x3ef42447	0.47683927
137	0x3ebfbd2d	0.37449017
138	0x3cc44ec9	0.023963349
139	0xbef05190	-0.46937227
140	0xbecc3c29	-0.3988965
141	0xbe884473	-0.26614723
142	0xbebe2f35	-0.3714539
143	0xbee8dbb4	-0.4548012
144	0x3edd977c	0.43279636
145	0x3edb4aed	0.428306
146	0xbec0a918	-0.37629008
147	0xbd25b88c	-0.0404592
148	0x3f0cd6d2	0.5501529
149	0x3e911834	0.28338778
150	0xbdf357be	-0.1188197
151	0xbe29d0ad	-0.1658351
152	0x3e94b079	0.29040888
153	0xbe707e28	-0.23485625
154	0xbee1979a	-0.44060975
155	0xbe1d9230	-0.15387797
156	0x3ec062d5	0.37575403
157	0xbe6670c4	-0.22503954
158	0xbecb3395	-0.3968779
159	0xbe61a3d8	-0.22035158
160	0xbe5f3978	-0.21799266
161	0xbed6a045	-0.4191915
162	0xbca31a4d	-0.019910002
163	0x3e972c4a	0.29525977
164	0x3f0723fd	0.5278929
165	0x3e1faf01	0.15594102
166	0x3ee8c3d9	0.4546192
167	0x3e699e91	0.22814395
168	0xbe1509a7	-0.14554463
169	0xbede288f	-0.4339032
170	0xbe0f4122	-0.1398969
171	0x3e8af06d	0.27136555
172	0x3df55a8b	0.1198016
173	0xbe264127	-0.16235791
174	0xbccb276a	-0.024799068
175	0x3e44b104	0.19208151
176	0xbdad57af	-0.0846399
177	0x3ed7f752	0.42180878
178	0xbebd7dcc	-0.37010038
179	0x3d8cc76c	0.06873974
180	0x3e99f17b	0.30067047
181	0x3eede19a	0.46461183
182	0x3da3a26a	0.079899624
183	0x3cf8e7a9	0.030383902
184	0x3efca572	0.49344975
185	0xbed6a29d	-0.4192094
186	0xbe87f994	-0.265576
187	0xbeabe7ab	-0.33575186
188	0x3f0e33ce	0.555478
189	0x3d0f0409	0.034915958
190	0xbeea58e1	-0.45770934
191	0x3d8e2cf8	0.06942171
192	0xbf0bd2d5	-0.5461858
193	0x3ea17c2d	0.3154005
194	0x3ee67bd4	0.45016348
195	0x3e79da8e	0.24399778
196	0xbdebf4fd	-0.11521337
197	0xbea4e3b4	-0.32204974
198	0x3f0199a0	0.5062504
199	0xbdc50960	-0.09620929
200	0x3e6fa2c9	0.23401941
201	0xbd2266fd	-0.039649
202	0x3ef185b8	0.47172332
203	0xbdd343a3	-0.10315635
204	0x3ebc7a14	0.36811888
205	0xbed93fde	-0.4243154
206	0xbef92e26	-0.4866802
207	0x3dc3f072	0.09567346
208	0x3ef7aec3	0.4837552
209	0xbec10f69	-0.3770707
210	0x3ec8ac63	0.3919402
211	0x3da14c60	0.078758955
212	0xbf008ac7	-0.5021176
213	0xbeb037bd	-0.34417525
214	0xbd9788d4	-0.07399145
215	0x3dce2963	0.10066488
216	0x3e81ebe7	0.25375292
217	0x3f04d9e0	0.5189495
218	0x3f075b81	0.52874
219	0xbef30b07	-0.4746935
220	0x3ea70560	0.32621288
221	0xbe18e0dd	-0.14929529
222	0xbd1ed09b	-0.03877316
223	0x3f0a29b5	0.5396989
224	0xbddd8c66	-0.108177945
225	0xbe724515	-0.23659165
226	0x3ea4b58b	0.32169756
227	0x3c23460d	0.009965432
228	0x3e29ca36	0.16581044
229	0x3d6360f7	0.055512395
230	0x3f096da1	0.53682905
231	0x3eebb94e	0.46039814
232	0x3e46634c	0.19373816
233	0x3d83a0f6	0.06427185
234	0x3e2faa42	0.17154792
235	0xbe6cab45	-0.23112209
236	0x3ea75f99	0.32690123
237	0x3eed1dfb	0.46311936
238	0x3ee4c91d	0.44684687
239	0xbea887e0	-0.32916164
240	0xbe8613bc	-0.2618693
241	0x3eff8688	0.49907327
242	0x3eeba716	0.46025914
243	0x3eb5a0d7	0.35474274
244	0x3ef1ecd6	0.47251004
245	0x3f07591e	0.5287036
246	0xbe9ad2e3	-0.3023902
247	0xbee7eeea	-0.45299464
248	0xbb80cb5f	-0.0039304937
249	0x3eb586b3	0.3545433
250	0xbe83600a	-0.2565921
251	0xbeb2a8ee	-0.34894508
252	0xbf10c888	-0.56555986
253	0x3daed457	0.08536594
254	0x3d993d88	0.07482439
255	0xbea0468e	-0.3130383

conv1.conv_1.bias f4 [128]
0	0xbe79876a	-0.24368063
1	0x3d9a86e7	0.07545262
2	0x3dd79dcf	0.105281465
3	0xbe5e39bc	-0.21701711
4	0x3eda3fce	0.42626804
5	0xbe34d37e	-0.17658803
6	0x3db4821d	0.0881388
7	0xbee7c74f	-0.45269248
8	0xbe2705d1	-0.16310813
9	0x3f0071b5	0.50173503
10	0x3c52830f	0.01284863
11	0x3ea337eb	0.318786
12	0x3da72f6d	0.081633426
13	0x3eec547f	0.46158215
14	0xbeaf34f2	-0.34220082
15	0x3e204c64	0.1565414
16	0xbe9f45ed	-0.31108037
17	0xbd647381	-0.055774216
18	0xbf06d07f	-0.5266189
19	0x3ed4b29b	0.41542515
20	0x3e3de620	0.18544817
21	0xbda3004d	-0.07959042
22	0xbe6a3972	-0.22873476
23	0x3ef72cb9	0.48276308
24	0xbecc20a8	-0.39868665
25	0x3edbdda3	0.42942533
26	0xbe8a870d	-0.2705616
27	0xbca5c611	-0.020236047
28	0x3f0fa4e4	0.5611098
29	0x3ebb2fc4	0.3655988
30	0xbed877b3	-0.42278823
31	0x3ebeb693	0.37248668
32	0x3afc75c3	0.001926117
33	0x3eb65ebc	0.35619152
34	0x3ea5a044	0.32348835
35	0x3d4575ee	0.04820817
36	0x3ce4e4ed	0.027941192
37	0x3e916eb7	0.2840478
38	0xbed4f852	-0.41595703
39	0x3ec7cbdc	0.3902272
40	0xbeb6f0bc	-0.3573054
41	0x3e60955f	0.2193198
42	0x3efe5fbc	0.49682415
43	0x3ed70a81	0.420002
44	0xbe82ff17	-0.25585243
45	0x3f0a04ec	0.5391376
46	0xbeac4d21	-0.33652595
47	0xbe048507	-0.12941371
48	0xbeb9ffe3	-0.3632804
49	0xbf0674ed	-0.52522165
50	0x3d8d1a82	0.068898216
51	0xbe81f783	-0.2538415
52	0xbef66f30	-0.48131704
53	0x3ed85d3f	0.4225864
54	0xbebd9b0c	-0.37032354
55	0x3deef53f	0.11667871
56	0x3f0a195a	0.53944933
57	0x3f05c997	0.52260727
58	0x3e14dab3	0.14536552
59	0x3dae35a0	0.08506322
60	0x3e318168	0.17334521
61	0x3f05bf00	0.5224457
62	0x3e88f380	0.26748276
63	0x3ee1891d	0.44049922
64	0xbebd0f32	-0.36925656
65	0x3e85ff24	0.2617122
66	0x3eba24ef	0.36356303
67	0x3eb4749d	0.3524522
68	0xbe9d03d9	-0.30666998
69	0x3ed72d64	0.42026818
70	0x3cba5b6e	0.022748675
71	0xbf0939cb	-0.5360381
72	0x3edc1703	0.42986307
73	0x3ee96ee4	0.45592415
74	0xbea6ac03	-0.3255311
75	0xbec60bcf	-0.38680884
76	0x3eb6f89a	0.35736543
77	0x3ec853f2	0.39126545
78	0xbeec3fe4	-0.46142495
79	0xbf098a10	-0.5372629
80	0xbe3ba5bf	-0.18324946
81	0xbed63f8f	-0.41845366
82	0xbe0ef884	-0.13961989
83	0x3e8cc9cb	0.27497706
84	0xbe91b86e	-0.2846102
85	0x3f080409	0.5313116
86	0xbe3f1614	-0.18660766
87	0xbe658226	-0.22412929
88	0x3f0db304	0.5535128
89	0xbe3cbe91	-0.1843207
90	0x3ed584de	0.41702932
91	0x3e2237ad	0.15841551
92	0x3ec46325	0.3835689
93	0x3f021f8a	0.50829375
94	0xbf041585	-0.51595336
95	0xbef6ecc7	-0.48227522
96	0x3d69ec04	0.057109848
97	0xbdd0c231	-0.10193289
98	0x3e4d8bad	0.20072813
99	0x3dc3be77	0.09557813
100	0x3e9fae5f	0.31187722
101	0x3e5a2eee	0.21306965
102	0x3f055cbf	0.52094644
103	0x3eb83394	0.3597685
104	0x3ed86e6e	0.4227175
105	0x3e4095e4	0.18807179
106	0x3efdab3a	0.49544698
107	0x3f03a837	0.5142855
108	0xbe825ae4	-0.2545997
109	0xbe529b1c	-0.20566982
110	0xbecf79e3	-0.4052268
111	0xbf015407	-0.5051884
112	0x3ed4ae51	0.41539243
113	0x3ea3c186	0.31983584
114	0x3ecf5b01	0.40499118
115	0x3f0f3b18	0.55949545
116	0xbef1cfa6	-0.47228736
117	0xbe1408d8	-0.14456499
118	0x3e11b530	0.14229274
119	0xbec0960a	-0.3761447
120	0xbeba336b	-0.36367354
121	0x3d6be4db	0.0575913
122	0x3e87ae95	0.26500383
123	0xbeca7514	-0.3954245
124	0x3efcb605	0.4935762
125	0x3d39bfcb	0.045348924
126	0xbca16ee3	-0.019706195
127	0x3dd308f3	0.10304441

conv1.conv_2.weight f4 [128, 128, 3]
0	0xbcf1a97d	-0.029499764
1	0xbaff9b03	-0.0019501153
2	0x3ce52b63	0.02797479
3	0x3bd46248	0.0064814426
4	0x3d0d19bd	0.034448374
5	0xbd2ee808	-0.04270175
6	0xbce432bf	-0.027856229
7	0x3c036ae0	0.008021086
8	0x3ce326b7	0.027728422
9	0x3d46b872	0.048515745
10	0x3c7e12d7	0.015507421
11	0x3d11877f	0.03552961
12	0x3c97f457	0.018549128
13	0x3d431e1a	0.04763613
14	0xbb760686	-0.003754051
15	0xbc8441b8	-0.016144618
16	0xbd40de39	-0.047086928
17	0x3d101995	0.035180647
18	0x3c320876	0.010866275
19	0x3c2debc2	0.010615291
20	0x3cd5cac6	0.026097666
21	0x3bffec26	0.0078101335
22	0x3d1c18f6	0.038109742
23	0xbd073f2a	-0.033019222
24	0xbd417dbb	-0.047239047
25	0xbd1a4de7	-0.03767195
26	0xba91e0c0	-0.0011129603
27	0x3bc57941	0.0060264175
28	0x3bf6d643	0.007532866
29	0xbcbbbce0	-0.022917211
30	0xbd37584c	-0.04476194
31	0xbd21b3ca	-0.0394781
32	0xbd07d1bd	-0.033159006
33	0x3d1d73e7	0.03844061
34	0xbb907a58	-0.0044091158
35	0x3c84d917	0.016216798
36	0x3caa5ed9	0.02079718
37	0x3d29288b	0.04129843
38	0x3c99b640	0.018763661
39	0x3d13a973	0.03605027
40	0x3b9aab4e	0.004720128
41	0xbd36626e	-0.044527464
42	0xbd356929	-0.04428974
43	0xbbeba1bd	-0.0071909116
44	0x3ca728d7	0.020405216
45	0xbd3d7ebc	-0.04626344
46	0xbbd24c5b	-0.0064177937
47	0x3d027e7b	0.031858902
48	0x3d3f19a8	0.046655327
49	0xbb6a4bf7	-0.0035750845
50	0xbcaf6311	-0.021409543
51	0x3bc492d0	0.0059989467
52	0xbd03cc85	-0.032177467
53	0x3c52a825	0.012857472
54	0xbd3be9c4	-0.045877233
55	0x3c593e46	0.013259476
56	0xbd09e76f	-0.033667978
57	0x3cb4daf2	0.022077058
58	0x3c33e431	0.010979698
59	0xbc0a02a7	-0.008423484
60	0x3cf2c3b9	0.029634343
61	0xbd3710f6	-0.04469391
62	0x3d1f2b0c	0.038859412
63	0xbd0b274b	-0.03397302
64	0x3c791116	0.0152018275
65	0x3d2de762	0.042456992
66	0x3d406bc6	0.04697778
67	0xbd33f33a	-0.04393313
68	0xbb7c8994	-0.0038534151
69	0x3c89e26c	0.0168316
70	0xbc9b15ed	-0.018931353
71	0xbcc814aa	-0.024423916
72	0x3d11c76d	0.035590578
73	0xbd26457d	-0.040593613
74	0xbd2bb27c	-0.041918263
75	0xbd533ec1	-0.05157352
76	0x3bff1832	0.0077848667
77	0x3ce0f0b0	0.027458519
78	0x3d318cec	0.043347284
79	0x3d31f878	0.04344985
80	0xbcc62714	-0.024188556
81	0xbc1ddb17	-0.009634755
82	0xbd2aa37f	-0.04165983
83	0x3b870808	0.0041208304
84	0xbd079a8e	-0.03310638
85	0x3d328882	0.043587215
86	0xbd535407	-0.051593807
87	0x3d69e4e3	0.05710305
88	0xbd486847	-0.04892757
89	0xbc378b76	-0.011202684
90	0xbcfe0610	-0.03100875
91	0x3c862c05	0.016378412
92	0xbd003339	-0.03129885
93	0xbcfbd7c1	-0.030742528
94	0xbcca328e	-0.02468231
95	0x3d184857	0.037178364
96	0x3d3dac83	0.046307098
97	0xbd206128	-0.039155155
98	0x3c476bcb	0.012171696
99	0xbc940d1f	-0.018072663
100	0x3d5c2e37	0.05375501
101	0xbd3fa41e	-0.046787374
102	0x3c6362ae	0.013878508
103	0x3cd822b3	0.026383733
104	0xbd398fb2	-0.045303054
105	0x3bf63151	0.007513203
106	0xbc5d8406	-0.013520246
107	0xbd074189	-0.033021484
108	0xbd08e48d	-0.033421088
109	0xbb62f663	-0.0034631721
110	0xbcf7549d	-0.030191714
111	0x3cae9097	0.02130918
112	0xbd2aafb3	-0.041671466
113	0xb609b043	-2.0517189e-06
114	0xbca0b838	-0.019619092
115	0xbc314179	-0.010818833
116	0x3d29aea2	0.04142631
117	0xbcf90502	-0.030397896
118	0xbd36b8a3	-0.044609677
119	0xbd2e816e	-0.042603903
120	0x3d1ed16a	0.03877393
121	0x3bb19cb6	0.0054202927
122	0xbc8dd467	-0.017313195
123	0xbc9c6fc6	-0.019096266
124	0xbd1692b8	-0.036761016
125	0xbc9bc8a0	-0.019016564
126	0x3c04f2a5	0.008114492
127	0xbc8e9b26	-0.017407965
128	0x3d4f1c66	0.050564192
129	0xbca4c98f	-0.020115642
130	0x3c0890c9	0.008335301
131	0x3cd46a8d	0.025929714
132	0x3ba430d9	0.005010706
133	0xbcf1e0df	-0.029526172
134	0xbca96f08	-0.020682827
135	0xbd0f5e2a	-0.03500191
136	0xbcbf43ed	-0.02334782
137	0x3ab0f8fd	0.0013501939
138	0xbd061777	-0.03273722
139	0x3c9c7113	0.019096887
140	0x3cc2ff90	0.023803502
141	0x3ce449e7	0.02786727
142	0x3d350066	0.044189833
143	0xbcab0cbb	-0.020880094
144	0xbb7183b3	-0.003685218
145	0xbce3af05	-0.027793417
146	0x3d2d2ed7	0.042280998
147	0xbb6960c0	-0.0035610646
148	0x3d54da23	0.051965844
149	0x3c24462a	0.010026494
150	0xbb8a8df8	-0.00422835
151	0xbd2856cf	-0.041098412
152	0xbd5538ea	-0.05205623
153	0x3c34b76f	0.011030062
154	0xbcf986fb	-0.030459872
155	0x3c48774d	0.012235475
156	0xbc15a554	-0.009133656
157	0xbd01cdd8	-0.03169045
158	0x3ce764de	0.02824634
159	0xbd092f98	-0.033492655
160	0x3bf83d3e	0.00757566
161	0xbd096548	-0.033543855
162	0x3d4cdc0c	0.05001454
163	0xbd064472	-0.03278012
164	0x3c4aa20a	0.012367735
165	0x3d264bf7	0.04059979
166	0xbd01810e	-0.031617217
167	0x3cae922f	0.02130994
168	0xbd2b44f9	-0.041813824
169	0x3d297e63	0.041380297
170	0x3d160bd3	0.03663237
171	0xbd1aaa56	-0.0377601
172	0xbc260d66	-0.01013503
173	0x3d146c6e	0.03623622
174	0x3d2049ec	0.039132997
175	0xbd0a595a	-0.03377662
176	0x3cd53868	0.026027873
177	0xbc4784f4	-0.012177695
178	0xbd095154	-0.033524826
179	0xbcfebbbe	-0.031095382
180	0x3c61f2a3	0.013790759
181	0x3cbef9bc	0.023312442
182	0xbd00fcf1	-0.031491224
183	0x3d25f6a4	0.040518418
184	0x3c88a1f1	0.016678782
185	0xbb64ebb5	-0.0034930531
186	0xbd294a87	-0.04133084
187	0xbb592023	-0.0033130727
188	0xb900640c	-0.00012244302
189	0xbb436bc7	-0.002981888
190	0xbd24fe04	-0.04028131
191	0x3c9dbf18	0.01925616
192	0x3d342896	0.04398402
193	0xbcec2f40	-0.028831124
194	0xbbea0197	-0.007141303
195	0x3b009ce0	0.0019624755
196	0x3bacdbbf	0.005275219
197	0x3c5a684c	0.01333053
198	0xbb2632f0	-0.002535995
199	0x3d38e658	0.045141548
200	0x3caece28	0.021338537
201	0x3d01402d	0.031555343
202	0x3cf8c1fb	0.030365935
203	0x3b65bd9c	0.0035055643
204	0x3900484e	0.00012233967
205	0xbc127d45	-0.008940999
206	0xbd1bf996	-0.03807982
207	0xbd1223cd	-0.035678674
208	0xbd27efac	-0.041000053
209	0xbd3118f6	-0.043236695
210	0x384ad1d0	4.8355956e-05
211	0xbcab6046	-0.02091993
212	0xbd272df1	-0.040815298
213	0x3d388f80	0.045058727
214	0x3b8d3329	0.0043090773
215	0x3c97ec36	0.018545251
216	0x3d16b207	0.036790874
217	0x39884dbd	0.0002599786
218	0xbb77cc67	-0.0037811042
219	0xbd0d9ebb	-0.034575205
220	0x3cb10718	0.021609828
221	0x3c75f74b	0.0150125725
222	0xbae75d49	-0.0017651703
223	0x3c9c23f6	0.019060116
224	0xbcc2d957	-0.023785276
225	0x3d3d9c17	0.046291437
226	0xbc5f20a2	-0.01361862
227	0x3c966981	0.018360855
228	0x3cc9f3a9	0.024652319
229	0xbc2d3ce3	-0.010573599
230	0xbd3ac069	-0.045593653
231	0xbca32d64	-0.019919105
232	0xbd22b1bb	-0.03972028
233	0xbcb77254	-0.022393383
234	0x3c79622f	0.015221163
235	0xbd145432	-0.036213107
236	0x3d014af9	0.03156564
237	0x3cd57c88	0.026060358
238	0xbccbf60a	-0.024897594
239	0x3ccb020c	0.02478125
240	0x3d275f06	0.040862106
241	0x3d3d85aa	0.04627005
242	0xbcd0107d	-0.025398487
243	0x3c9c59b0	0.019085735
244	0xbc6d3bec	-0.0144796185
245	0xbcb54a97	-0.022130294
246	0xbccc4fdd	-0.024940426
247	0x3d1a40e0	0.037659526
248	0x3caa7cb1	0.02081141
249	0x3b667330	0.0035163872
250	0xbcae7705	-0.021296987
251	0xbc01fa1a	-0.007933164
252	0x3a50e155	0.00079681474
253	0x3d373ac4	0.044733778
254	0x3cdfed27	0.027334763
255	0x3cafe255	0.021470228

conv1.conv_2.bias f4 [128]
0	0x3c12c25a	0.00895747
1	0xbd1a05c5	-0.03760316
2	0x3cd27372	0.025689814
3	0xbcd2789e	-0.02569228
4	0xbd489454	-0.04896958
5	0xbd031be6	-0.032009028
6	0xbca26be3	-0.019826835
7	0x3d271d8d	0.040799666
8	0xbd1a6536	-0.03769418
9	0x3d24d623	0.04024328
10	0x3ce9c3c8	0.028535739
11	0xbcd76578	-0.026293501
12	0xbd0716ad	-0.03298061
13	0x3d421f70	0.047393262
14	0xbd014f1c	-0.031569585
15	0x3c47295d	0.012155858
16	0xbd444812	-0.047920294
17	0xbd35428c	-0.044252917
18	0xbccc3288	-0.024926439
19	0xbd25b807	-0.040458705
20	0x3cca4a6b	0.024693688
21	0xbb775020	-0.0037736967
22	0x3d093f47	0.03350761
23	0xbd3ebe9d	-0.0465685
24	0xba73aff3	-0.0009295933
25	0x3d208842	0.039192446
26	0x3cab17b3	0.020885324
27	0xbd01ee3a	-0.03172133
28	0xba980909	-0.0011599372
29	0x3a060b77	0.0005113403
30	0x3c89df9f	0.016830264
31	0x3bc4031f	0.0059818174
32	0x3d202817	0.039100733
33	0xbc7cc501	-0.015427829
34	0x3ce1469f	0.027499495
35	0x3d2117a9	0.039329205
36	0xbcc121c8	-0.023575678
37	0xbcce4e82	-0.02518392
38	0x3cc8a12b	0.024490913
39	0x3d1ff84f	0.039055165
40	0xbd360a0f	-0.044443186
41	0x3d182fee	0.037155084
42	0x3c57f472	0.013180839
43	0xbc04e422	-0.008111032
44	0xbc9b5c21	-0.018964829
45	0xbc47869e	-0.012178091
46	0x3988d537	0.000260988
47	0x3ccd673b	0.025073638
48	0xbb2a3f00	-0.0025977492
49	0xbd159094	-0.036514834
50	0xbca11a4e	-0.019665863
51	0xbd1a08f8	-0.03760621
52	0xbc775f1c	-0.015098359
53	0x3d39f91f	0.045403596
54	0x3cea9ac1	0.028638246
55	0xbb082d38	-0.0020778906
56	0xbd0b0b36	-0.03394624
57	0x3c537be5	0.012907957
58	0xbd202a14	-0.03910263
59	0xbd1aafb0	-0.037765205
60	0x3bb75e03	0.005595924
61	0x3bb13eec	0.005409112
62	0xbcca6e35	-0.024710754
63	0x3d305139	0.04304621
64	0x3d400ca9	0.046887074
65	0x3bfa9928	0.007647652
66	0x3d4caab2	0.049967475
67	0xbc9126cc	-0.017718695
68	0xbc970623	-0.018435543
69	0xbd034e7f	-0.03205728
70	0xbcc22ff6	-0.02370451
71	0xbafc659f	-0.001925636
72	0x3d02e43f	0.031955954
73	0xbb81a14b	-0.003955995
74	0x3b7392f5	0.003716645
75	0xbcd770eb	-0.02629896
76	0x3d323af0	0.04351324
77	0xbccb0803	-0.024784094
78	0xbc2d2cca	-0.010569761
79	0xbbf2142c	-0.0073876586
80	0xbbb20e12	-0.005433806
81	0xbd3dc3bb	-0.04632924
82	0xbd23bb72	-0.039973684
83	0xbd2fd02d	-0.04292314
84	0x3d284732	0.041083522
85	0xbce03d08	-0.027372852
86	0x3d30be69	0.04315034
87	0xbbed2ca3	-0.007237987
88	0x3bf94953	0.007607618
89	0x3c865dd4	0.016402163
90	0xbbccbd1f	-0.006248131
91	0x3c61d897	0.013784549
92	0xba808a92	-0.0009806922
93	0xbcff66a8	-0.03117688
94	0xbd1480d9	-0.03625569
95	0xbc287cb6	-0.01028364
96	0x3c32becd	0.010909748
97	0xbc73d8f9	-0.014883273
98	0xbc075553	-0.008260089
99	0x3cf08497	0.029360099
100	0xbcb4f3d0	-0.022088915
101	0x3c9c4c1c	0.01907926
102	0x3ccc25d4	0.024920382
103	0x3d4bb3f0	0.04973215
104	0x3d0b50f7	0.03401276
105	0xbc9a7dea	-0.018858869
106	0xbd2dbf8e	-0.04241901
107	0x3cc3d91e	0.02390724
108	0xbd3bd9f6	-0.04586216
109	0x3c708875	0.014680971
110	0xbcfdb702	-0.030971054
111	0x3baf7253	0.0053542047
112	0xbcbed951	-0.023296984
113	0xbd3f7da4	-0.04675068
114	0xbd0bde01	-0.034147266
115	0x3c889c48	0.016676083
116	0xbcbdabc4	-0.023153193
117	0xbc95cf57	-0.018287344
118	0x3cf4a1de	0.02986234
119	0x3ba417c7	0.0050077173
120	0x3c7af2fa	0.015316719
121	0xbd1a0282	-0.037600048
122	0x3b89ae1a	0.0042016627
123	0x3d1e1ec4	0.03860356
124	0xba7c3521	-0.0009620954
125	0xbc8bfb85	-0.017087707
126	0xbbef77c8	-0.00730798
127	0x3be29156	0.006914298

conv1.conv_3.weight f4 [128, 128, 3]
0	0xbd4e03a0	-0.050296426
1	0xbd3e21a4	-0.0464188
2	0x3d435098	0.047684282
3	0xbc5ccf9e	-0.013477234
4	0x3d561a3f	0.052271124
5	0xbc3aaa8e	-0.0113932025
6	0xbd38a4cf	-0.04507905
7	0xbc7aa679	-0.015298479
8	0xbd1a1fbb	-0.037627917
9	0xb9ec3b55	-0.00045057634
10	0xba13c9f0	-0.0005637696
11	0x3d2feb76	0.042949162
12	0xbb9c5984	-0.0047714133
13	0xbc3f81da	-0.011688674
14	0xbd1d31a1	-0.038377408
15	0xbd334c9c	-0.043774232
16	0x3cc1dea1	0.023665728
17	0x3d2894a2	0.041157372
18	0x3d3acda4	0.04560627
19	0x3cabb2eb	0.020959338
20	0x3cf6df55	0.03013579
21	0x3d116d22	0.035504468
22	0x3d29817d	0.041383255
23	0x3cf6326e	0.030053344
24	0xbd31e9e9	-0.043435965
25	0x3d353c66	0.044247054
26	0x3c1b6979	0.009485596
27	0xbcc620fd	-0.024185652
28	0xbbad77d3	-0.005293825
29	0x3c4d592d	0.012533468
30	0xbcb7f250	-0.02245441
31	0xbb939e5f	-0.0045049633
32	0xbb9ba24b	-0.0047495714
33	0x393a1b9f	0.00017748632
34	0x3ca3772c	0.019954287
35	0x3d1b3565	0.037892718
36	0x3d0605ae	0.03272026
37	0x3d1a0d48	0.037610322
38	0x3d0cd6ae	0.034384422
39	0x3ca8e0d5	0.02061502
40	0x3c1a2365	0.009407853
41	0xbd0b052e	-0.033940487
42	0xbcfad307	-0.030618204
43	0xbd38bd1e	-0.04510223
44	0xbd416d1b	-0.04722319
45	0xbd338db9	-0.04383633
46	0x3b7f16ba	0.0038923458
47	0x3c26a9a6	0.010172283
48	0xbc261336	-0.010136416
49	0x3bd25095	0.0064182975
50	0x3c850bd9	0.016241001
51	0x3d4e897e	0.05042409
52	0xbc1f1723	-0.009710106
53	0x3d39011e	0.04516708
54	0xbc1ee4cb	-0.009698103
55	0x3c945e31	0.01811132
56	0x3d2061a8	0.039155632
57	0xbd46f544	-0.048573747
58	0xbab67fd0	-0.0013923589
59	0xbcda41d6	-0.026642721
60	0x3d351b48	0.04421547
61	0x3cdddfd1	0.027084263
62	0xbd2824ee	-0.041050844
63	0xbccb97be	-0.02485263
64	0xbc64884d	-0.013948512
65	0x3d1cf860	0.038322806
66	0x3cfa5faf	0.030563204
67	0x3c10fd2a	0.0088494215
68	0xbc803477	-0.015650017
69	0xb9a35c71	-0.00031158657
70	0x3b53883d	0.003227725
71	0xbaf9d41b	-0.0019060405
72	0x3cb5b8d2	0.022182856
73	0x3d2cc3ad	0.0421788
74	0x3cb1ac27	0.021688534
75	0xbbca66af	-0.0061767916
76	0xbd1644b6	-0.03668662
77	0x3cb3a5c3	0.021929627
78	0xbd35d600	-0.04439354
79	0x3b9676eb	0.004591813
80	0xbd0cc161	-0.034364108
81	0x3d21cbbc	0.039500937
82	0x3c9b583c	0.018962972
83	0xbc061f50	-0.008186176
84	0x3c60d222	0.013721975
85	0x3c4bfc43	0.012450281
86	0xbd38def4	-0.0451345
87	0xbc5d6b65	-0.013514374
88	0xbc1af576	-0.0094579365
89	0xba9cc6fe	-0.001196116
90	0xbd1efc02	-0.038814552
91	0x3ca30d9b	0.019903949
92	0xbd482730	-0.048865497
93	0x399820ae	0.00029016047
94	0x3cf1cae7	0.029515697
95	0xbd21c3c3	-0.039493334
96	0xba477024	-0.0007607958
97	0xbc55d712	-0.013051765
98	0xbbf03f56	-0.007331769
99	0x3ca8455b	0.020540884
100	0x3ca7dfad	0.0204924
101	0xbceed963	-0.029156392
102	0x3cbf0c67	0.023321344
103	0x3c0dac77	0.008647076
104	0xbac49f37	-0.0015001063
105	0x3c151740	0.0090997815
106	0x3c7912b8	0.015202217
107	0x3b714a04	0.0036817798
108	0x3d2f069f	0.042730924
109	0xbce4100b	-0.027839681
110	0x3d2452aa	0.040117897
111	0x3cbca1f8	0.023026451
112	0xbcbfd947	-0.023419036
113	0x3caf4f14	0.021400012
114	0xbcaf2411	-0.021379502
115	0x3c538060	0.012909025
116	0xbd07aa70	-0.033121526
117	0xbcc77edd	-0.024352485
118	0x3ce8cf4e	0.028419163
119	0xbd1fb4b4	-0.03899069
120	0xbd0e55d3	-0.034749817
121	0xbab69404	-0.001392961
122	0x3c21e792	0.009881871
123	0x3a95c5ed	0.0011426784
124	0xbd013940	-0.03154874
125	0xbd128613	-0.035772394
126	0xbd379247	-0.044817235
127	0x3c0d3458	0.008618437
128	0x3ca3f72c	0.020015322
129	0x3d3d5884	0.046226993
130	0x3c817b5a	0.015805889
131	0x3d2c565e	0.042074554
132	0x3b3e4452	0.0029032421
133	0xbb3f43ef	-0.0029184779
134	0xbd1ca91a	-0.038247205
135	0x3d215478	0.039387196
136	0xbd19d6b5	-0.037558276
137	0x3d514abe	0.05109667
138	0x3cd61f10	0.026137859
139	0x3c65f037	0.014034322
140	0xbd094e5f	-0.033522006
141	0x3bf60533	0.007507944
142	0x3d2ed6cd	0.04268532
143	0x3d3a66af	0.045508083
144	0xbcf8ada0	-0.030356228
145	0x3c3a4b11	0.011370436
146	0x39a6e2a4	0.00031830848
147	0xbd3bb432	-0.045826145
148	0xbbc13abb	-0.005896894
149	0xbc377575	-0.0111974375
150	0xbc0a8993	-0.008455652
151	0x3d32fe30	0.043699443
152	0xbc9affe1	-0.01892084
153	0x3c2048f7	0.009783021
154	0x3d512612	0.051061697
155	0xbce31abe	-0.027722713
156	0xbc2ccc0e	-0.010546697
157	0xbccb2659	-0.024798559
158	0x3c502d34	0.01270609
159	0xbca3f079	-0.020012127
160	0x3ccafe91	0.02477959
161	0xbc072a0f	-0.008249774
162	0x3d428d17	0.047497835
163	0x3c80c4a1	0.01571876
164	0x3c3b5d4b	0.011435817
165	0x3c69e09b	0.0142747415
166	0x3c10c55a	0.008836115
167	0xbd3ee197	-0.046601858
168	0xbc6baa13	-0.014383811
169	0x3c8aa78d	0.016925598
170	0x3cc471b2	0.023979995
171	0x3d165618	0.0367032
172	0xbd0c149c	-0.034199342
173	0x3d5db641	0.05412889
174	0x3d266067	0.04061928
175	0xbc97ed01	-0.01854563
176	0xbd2ac9ea	-0.041696467
177	0x3cc745e7	0.024325324
178	0xbcbfc829	-0.023410873
179	0xbd3ebe87	-0.04656842
180	0x3d4fb52c	0.05070989
181	0x3c13666e	0.008996589
182	0xbd2f7156	-0.042832695
183	0xbca0394b	-0.01955857
184	0x3cdba01e	0.026809748
185	0xbcbb17d9	-0.02283852
186	0xbc30661c	-0.010766532
187	0xbd27f3df	-0.041004058
188	0x3cf7f32a	0.030267317
189	0x3c8ef66f	0.017451493
190	0xbd0257e9	-0.03182212
191	0x3c775937	0.015096954
192	0x3d506b0e	0.050883345
193	0xbba314ca	-0.0049768435
194	0xbd186ddc	-0.037214145
195	0xbb2c4cbc	-0.0026290854
196	0x3d22293e	0.039590113
197	0x3b7a21d4	0.0038167136
198	0xbd2febc2	-0.042949446
199	0xbd067d91	-0.032834593
200	0x3ca41c79	0.020033108
201	0x3d0f944c	0.035053536
202	0xbd22c41c	-0.039737806
203	0x3c2e6976	0.010645261
204	0xbd2b197c	-0.04177235
205	0x3c8e817e	0.017395731
206	0x3d0d9709	0.034567866
207	0x3d1ba227	0.037996437
208	0xbc99726d	-0.01873132
209	0xbcbde6fa	-0.023181427
210	0x3d1d6be1	0.03843296
211	0xbcf5a0ad	-0.029983843
212	0x3d2336fb	0.039847355
213	0xbd498ae2	-0.049204715
214	0x3c1947e7	0.009355522
215	0xbd234110	-0.03985697
216	0x3d06dc44	0.032924905
217	0xbbad57df	-0.005290016
218	0x3c6775a8	0.0141271725
219	0xbceff20f	-0.029290227
220	0x3cd25dfd	0.025679583
221	0xbc1639fd	-0.009169099
222	0xbc9cb144	-0.019127496
223	0x3d31330b	0.04326157
224	0xbd4d2517	-0.0500842
225	0x3c25871b	0.010103012
226	0xbbc8cf65	-0.006128239
227	0x3d46ebf9	0.048564885
228	0xbd3b322a	-0.045702137
229	0xbcc624ba	-0.024187434
230	0xbc9e6bd5	-0.019338528
231	0x3ccf864b	0.02533259
232	0x3d22a817	0.039711084
233	0x3cbb7bb4	0.022886135
234	0x3d661bac	0.056178734
235	0xbc5b9b33	-0.013403702
236	0x3d478075	0.04870649
237	0x3d0dbd86	0.03460457
238	0x3ced666a	0.028979499
239	0x3d2a26f6	0.041541062
240	0x3c9ba364	0.01899881
241	0xbccc7a8b	-0.024960777
242	0xbd2e21f4	-0.04251285
243	0xbd1de051	-0.038544003
244	0xbd43f2c6	-0.04783895
245	0x3ccc90a2	0.02497131
246	0xbd5b8d61	-0.053601626
247	0xbcf1e9d8	-0.02953045
248	0x3ccebde1	0.025237026
249	0x3cba17c2	0.022716407
250	0xbd5d46c9	-0.054022584
251	0xbd2ad09c	-0.04170285
252	0x3cf676bb	0.030085912
253	0xbc467006	-0.012111669
254	0x3cce061a	0.025149394
255	0x3d1a9b63	0.037745845

conv1.conv_3.bias f4 [128]
0	0x3c6ec4d3	0.014573294
1	0x3d076ee3	0.033064734
2	0xbd439a2f	-0.047754463
3	0x3d2ac22a	0.041689076
4	0xbd142dd1	-0.036176506
5	0xbd3827a0	-0.044959664
6	0xbce70f51	-0.028205546
7	0xbd1ac214	-0.037782744
8	0xbd24faf5	-0.040278394
9	0x3d29bac3	0.041437875
10	0x3c9c4d61	0.019079866
11	0x3cd8a6d9	0.026446747
12	0xbc4c67be	-0.012475906
13	0xbd333c89	-0.043758903
14	0xbca7ea97	-0.020497603
15	0x3d305f5e	0.0430597
16	0xbd4ddd57	-0.050259914
17	0x3d01c3bc	0.031680807
18	0xbd4aa620	-0.049474835
19	0xbc517e1c	-0.0127864145
20	0xbc331ac1	-0.010931672
21	0x3c3f1321	0.0116622755
22	0xbce94ac6	-0.028478038
23	0xbc97cbe1	-0.018529834
24	0xbcd622d1	-0.026139649
25	0xbd21035b	-0.03930984
26	0x3c79476e	0.015214784
27	0xbd3facf8	-0.046795815
28	0x3a9fbf77	0.0012187798
29	0x3cf781ce	0.030213263
30	0xbbfede50	-0.0077779666
31	0x3d3cf95e	0.046136253
32	0xbb1c1c20	-0.0023820475
33	0xbcdcc859	-0.026951002
34	0x3cd3dcf9	0.025862204
35	0x3b98b731	0.00466051
36	0x3c66887a	0.0140706245
37	0xbd3c4e37	-0.04597303
38	0x3d4408af	0.047859844
39	0xbcea0e33	-0.028571224
40	0x3c4a6af5	0.012354602
41	0xbc156a92	-0.009119647
42	0x3bc0215b	0.0058633513
43	0xbcc6e031	-0.024276825
44	0xbccbe4cc	-0.024889372
45	0xbc90da3d	-0.01768219
46	0x3d191306	0.037371658
47	0xbcff1a15	-0.031140367
48	0xbc560e2f	-0.013064905
49	0x3c83a8dc	0.01607173
50	0x3d3156fb	0.04329584
51	0x3ceb24e5	0.028704116
52	0xbbead62a	-0.0071666436
53	0x3b83934b	0.0040153614
54	0x3d1108ed	0.035408903
55	0x3ccdd44a	0.025125641
56	0xbc553f4f	-0.013015582
57	0x3be09206	0.006853345
58	0xb9dc1a08	-0.00041981065
59	0xbc824138	-0.01590024
60	0xbbb7398c	-0.005591577
61	0xbc8960fc	-0.016769879
62	0xbcf63ae0	-0.03005737
63	0xbd0ea475	-0.034824807
64	0x3cc94d41	0.02457297
65	0xbcff4d36	-0.031164747
66	0xbc8fd77d	-0.017558808
67	0xbc7a2d30	-0.015269563
68	0xbc1c7cde	-0.009551255
69	0xbcddce88	-0.02707602
70	0x3cfcbb80	0.030851126
71	0xbca07fbb	-0.019592157
72	0x3d0eeaa8	0.034891754
73	0xbc2b43a8	-0.010453142
74	0xbd3084ca	-0.043095388
75	0x3d341c9a	0.04397259
76	0x3d257103	0.04039098
77	0xb9f0f111	-0.00045955976
78	0x3c9eb4d3	0.019373333
79	0xbc02c02d	-0.007980389
80	0xbcc73269	-0.02431603
81	0xbcfa7068	-0.030571178
82	0xbd404961	-0.04694498
83	0xbca7604b	-0.020431658
84	0x3bf53e16	0.007484208
85	0x3cab2cd9	0.020895408
86	0x3b6bc2ea	0.0035974332
87	0xbcb3e054	-0.021957554
88	0xbbaf2190	-0.005344577
89	0x3d4a2eb0	0.04936093
90	0x3cd6037c	0.026124708
91	0x3cbc994c	0.023022316
92	0xbd068775	-0.032844026
93	0xbd0b4768	-0.034003645
94	0x3d3f1471	0.046650354
95	0xbca520d7	-0.02015726
96	0xbbd4e016	-0.0064964397
97	0x3d39f751	0.045401875
98	0xbd3f66f6	-0.04672905
99	0xbd32f66c	-0.043692037
100	0xbd2b4f12	-0.041823454
101	0xbc989ef2	-0.018630479
102	0xbd49de4e	-0.049284272
103	0x3c4b6b6d	0.012415749
104	0x3ca7b928	0.020474032
105	0x3cc5b4d4	0.024134077
106	0xbc767c7f	-0.015044331
107	0xbd0a255c	-0.033727035
108	0x3d2e7d2d	0.042599846
109	0xbc9feeb8	-0.01952301
110	0xbcfdf9b5	-0.031002859
111	0xbccf1528	-0.025278643
112	0xbc0e3eb3	-0.008681941
113	0x3c49eb12	0.012324112
114	0xbce7baa9	-0.028287249
115	0x3cb2ff4d	0.021850253
116	0x3d338fe8	0.04383841
117	0x3c98cc2d	0.018652046
118	0x3d31c2e4	0.043398753
119	0x3c0672bd	0.008206067
120	0xbd0387cb	-0.032111924
121	0x3cb583a2	0.022157494
122	0x3adf56ec	0.0017039455
123	0xbca8a238	-0.020585164
124	0x3c5b8e51	0.01340063
125	0xbd280f8d	-0.041030455
126	0xbcaee304	-0.021348484
127	0xbbdf0593	-0.0068060844

conv1.normalization_1.weight f4 [128]
0	0x3f80c622	1.0060465
1	0x3f825dbb	1.0184854
2	0x3f7f4e6b	0.9972903
3	0x3f7fa807	0.99865764
4	0x3f800a7c	1.00032
5	0x3f7e49f9	0.99331623
6	0x3f7f7277	0.99784034
7	0x3f7fe6d1	0.9996157
8	0x3f80b0c2	1.0053942
9	0x3f7ef0c5	0.99586135
10	0x3f7fd444	0.99933267
11	0x3f7f7cb0	0.99799633
12	0x3f7ceabf	0.98795694
13	0x3f804430	1.0020809
14	0x3f815158	1.0102949
15	0x3f807f5a	1.0038865
16	0x3f7f8f06	0.9982761
17	0x3f7ed0c2	0.9953729
18	0x3f80cf77	1.0063313
19	0x3f8004ea	1.00015
20	0x3f80b44e	1.0055025
21	0x3f802fc8	1.0014582
22	0x3f802930	1.001257
23	0x3f7de9a2	0.9918462
24	0x3f7f3588	0.9969106
25	0x3f819e2d	1.0126396
26	0x3f817450	1.0113621
27	0x3f7f53a8	0.99737024
28	0x3f7f060e	0.99618614
29	0x3f80cc1d	1.006229
30	0x3f7f59c1	0.9974633
31	0x3f7f01f9	0.99612385
32	0x3f805228	1.0025072
33	0x3f80007a	1.0000145
34	0x3f7ef901	0.995987
35	0x3f7f9503	0.9983675
36	0x3f7e36ca	0.9930235
37	0x3f7f0b5b	0.996267
38	0x3f809338	1.0044928
39	0x3f800580	1.0001678
40	0x3f801e2a	1.0009205
41	0x3f7de60c	0.9917915
42	0x3f80524d	1.0025116
43	0x3f81e752	1.0148718
44	0x3f7e5d2e	0.9936093
45	0x3f7f5fcd	0.99755555
46	0x3f806c15	1.0032984
47	0x3f7e625e	0.99368846
48	0x3f7ec495	0.9951871
49	0x3f7e8122	0.9941579
50	0x3f81af2a	1.0131581
51	0x3f7ea416	0.99469125
52	0x3f7dfa0e	0.9920968
53	0x3f7eb4dd	0.99494725
54	0x3f7e737d	0.9939497
55	0x3f802ade	1.0013082
56	0x3f7fb966	0.9989227
57	0x3f801c99	1.0008727
58	0x3f7e6537	0.9937319
59	0x3f804dae	1.0023706
60	0x3f800c77	1.0003804
61	0x3f8222a3	1.016682
62	0x3f815e72	1.0106947
63	0x3f7f5182	0.99733746
64	0x3f80888b	1.004167
65	0x3f7eb86d	0.9950016
66	0x3f7e758d	0.9939812
67	0x3f8024d9	1.0011245
68	0x3f8058b5	1.0027071
69	0x3f7fbc51	0.99896723
70	0x3f822b66	1.0169494
71	0x3f7fa044	0.9985392
72	0x3f804379	1.0020591
73	0x3f80a6e2	1.0050929
74	0x3f7f957b	0.99837464
75	0x3f7fc090	0.999032
76	0x3f7fa642	0.99863064
77	0x3f7fa140	0.9985542
78	0x3f7f087f	0.9962234
79	0x3f7ef6f7	0.9959559
80	0x3f7d3eab	0.9892375
81	0x3f7f89dc	0.9981973
82	0x3f80168c	1.0006881
83	0x3f7ebf03	0.9951021
84	0x3f7ea042	0.99463284
85	0x3f7e9b4a	0.994557
86	0x3f7ed5ae	0.995448
87	0x3f814c52	1.0101416
88	0x3f7efc27	0.99603504
89	0x3f7e62a8	0.9936929
90	0x3f802eee	1.0014322
91	0x3f80a5fa	1.0050652
92	0x3f7dbd79	0.9911724
93	0x3f7e2967	0.99281925
94	0x3f817e5f	1.011669
95	0x3f7b901e	0.9826678
96	0x3f806680	1.003128
97	0x3f803770	1.0016918
98	0x3f808327	1.0040025
99	0x3f80168a	1.0006878
100	0x3f7f0027	0.9960961
101	0x3f7f3731	0.9969359
102	0x3f7e5238	0.99344206
103	0x3f81ef55	1.0151163
104	0x3f80a274	1.0049577
105	0x3f805f14	1.0029016
106	0x3f7f4f0e	0.9973
107	0x3f7f77f9	0.9979244
108	0x3f809ec1	1.0048448
109	0x3f7fb09e	0.9987887
110	0x3f7e6ef0	0.9938803
111	0x3f7f1af7	0.9965052
112	0x3f7fdc20	0.9994526
113	0x3f806f23	1.0033916
114	0x3f7f978f	0.99840635
115	0x3f7ec491	0.99518687
116	0x3f805de9	1.0028659
117	0x3f817b1b	1.0115694
118	0x3f805dcc	1.0028625
119	0x3f804657	1.0021466
120	0x3f7e0d28	0.99238825
121	0x3f7ec724	0.99522614
122	0x3f7ec94e	0.99525917
123	0x3f7fe6da	0.99961627
124	0x3f7f210d	0.99659806
125	0x3f803c98	1.0018492
126	0x3f8078e8	1.0036898
127	0x3f80bb23	1.005711

conv1.normalization_1.bias f4 [128]
0	0xba6db377	-0.0009067575
1	0x3c79df94	0.015251059
2	0xbb0dddfe	-0.002164721
3	0xbbf8e1ee	-0.0075952923
4	0xbad632a8	-0.0016342001
5	0xbb9edd83	-0.0048481836
6	0xbb9510d1	-0.004549124
7	0xba9680b1	-0.0011482445
8	0x396e4bf9	0.00022725751
9	0xbb65d39b	-0.0035068754
10	0x380166bb	3.0851672e-05
11	0xba28e1b7	-0.00064423255
12	0xbbe222f1	-0.006901138
13	0x3ac7e368	0.0015250267
14	0x3c7b6e6e	0.015346153
15	0xba1e719d	-0.00060441514
16	0xbaad1f9b	-0.0013208272
17	0xbb80aecb	-0.003927087
18	0x3984d448	0.00025335164
19	0x3b478dcc	0.0030449508
20	0x3b1c2da3	0.0023830913
21	0xbac48af8	-0.0014995029
22	0xbaeeca91	-0.0018218328
23	0xbbdf1fc8	-0.0068092085
24	0xbaacad86	-0.0013174273
25	0x3cab4a18	0.020909354
26	0x3cb410d0	0.021980673
27	0xbb9d609f	-0.004802778
28	0xbba161c2	-0.0049249837
29	0x3a610a0e	0.0008584567
30	0xba81fbe9	-0.0009916994
31	0xbb28e645	-0.0025772017
32	0x3b2f70d3	0.002677013
33	0x3a8900ac	0.0010452471
34	0xbba647fb	-0.0050744987
35	0xbb5a7719	-0.0033335148
36	0xbb14ddf6	-0.0022715307
37	0xbbd03aa0	-0.006354645
38	0xbbb38fc7	-0.005479786
39	0xbb586c76	-0.0033023632
40	0x3b421fea	0.0029621073
41	0xbc810bf5	-0.015752772
42	0x3b0a1bae	0.0021073627
43	0x3bcd08ec	0.006257167
44	0xbb64a3cc	-0.003488767
45	0xbbaed918	-0.005335938
46	0xba3a8b89	-0.0007116129
47	0xbb7f0b4b	-0.0038916643
48	0xbb9b4db7	-0.004739489
49	0xbb9a73ae	-0.004713497
50	0x3c880c70	0.016607493
51	0xbb276141	-0.0025540146
52	0xbb8aaa78	-0.0042317472
53	0xbbf42698	-0.00745089
54	0xbbaf04b0	-0.005341135
55	0x3ab6d05d	0.0013947595
56	0x37cc3435	2.4343006e-05
57	0xb9be1fad	-0.00036263224
58	0xbbf0c861	-0.007348106
59	0x3b5166aa	0.0031952062
60	0xbab65c92	-0.0013913086
61	0x3c0bacc4	0.008525077
62	0x3a6aa8ee	0.0008951564
63	0xbbe69956	-0.007037322
64	0xb8daf849	-0.00010441297
65	0xbad7ad39	-0.0016454823
66	0xbbf447b7	-0.007454838
67	0x3b046939	0.002020432
68	0x3ac83acb	0.0015276311
69	0xbba5ce9d	-0.0050600306
70	0x3c988bce	0.018621352
71	0xba76f49e	-0.0009420606
72	0xbb08585c	-0.002080462
73	0x3b9caa85	0.0047810697
74	0xb92df8c8	-0.00016591244
75	0xb9e7119d	-0.00044072876
76	0xbb479857	-0.0030455792
77	0x39bc8493	0.0003595693
78	0xbba7e3cc	-0.005123591
79	0xbbc1ef69	-0.0059184325
80	0xbc09ccfc	-0.0084106885
81	0xbb236650	-0.002493281
82	0x39995bcd	0.0002925083
83	0xbb98229f	-0.004642799
84	0xbb0a1b47	-0.0021073387
85	0xbb82ae73	-0.003988081
86	0xbb5fa564	-0.003412568
87	0x3ac8689e	0.0015289967
88	0xbb93a104	-0.0045052785
89	0xbb26ed17	-0.0025470906
90	0xbadf3506	-0.0017029352
91	0xbb77a659	-0.003778836
92	0xbc23ae61	-0.009990306
93	0xbbb81106	-0.0056172637
94	0xbbcc8b9b	-0.006242228
95	0xbbf0b7de	-0.0073461374
96	0x3a651ede	0.00087402563
97	0xb924fbc1	-0.00015734044
98	0xbbd59da0	-0.0065190345
99	0xbab9719e	-0.001414824
100	0xbb54c5af	-0.0032466461
101	0xba6d2ff0	-0.0009047976
102	0xbb9a5d7e	-0.004710852
103	0x3cf60b7c	0.030034773
104	0x3bb371ed	0.0054762275
105	0x3b8a116d	0.004213503
106	0xbbd52049	-0.006504093
107	0x3c35329a	0.011059428
108	0xbb1fe895	-0.0024400104
109	0xbb4ef1fa	-0.0031577335
110	0xbb98fba3	-0.0046686693
111	0xbab488e2	-0.0013773704
112	0xbb9d17b7	-0.004794087
113	0x3b55dd24	0.003263303
114	0xbba3e213	-0.0050013154
115	0xbb67d2a2	-0.003537335
116	0xbb083bb2	-0.0020787534
117	0x3bed7e57	0.007247727
118	0xbad7373b	-0.0016419658
119	0x3b6172c8	0.003440069
120	0xbbb22f46	-0.0054377643
121	0xbb314ac1	-0.0027052613
122	0xbbd4e390	-0.006496854
123	0x3a9329dd	0.0011227686
124	0xbb96b210	-0.0045988634
125	0xb898b6a3	-7.2819435e-05
126	0x3b8950b9	0.004190531
127	0xb9e9f10e	-0.00044620823

conv1.normalization_1.running_mean f4 [128]
0	0xbe72250c	-0.23646945
1	0x3d9c38b6	0.07628004
2	0x3ddb1a4a	0.106983736
3	0xbe4cc448	-0.1999675
4	0x3ed3586c	0.41278398
5	0xbe2917b3	-0.16512947
6	0x3d8daa20	0.069172144
7	0xbee5a337	-0.44851086
8	0xbe1eba58	-0.15500772
9	0x3f0279ae	0.5096692
10	0xbb0046e4	-0.0019573504
11	0x3e9934e4	0.29923165
12	0x3dddf443	0.10837605
13	0x3ee33b62	0.44381243
14	0xbeac04af	-0.33597323
15	0x3e179601	0.14803316
16	0xbe9cc6e1	-0.30620483
17	0xbd7e9b56	-0.06215986
18	0xbf0291a9	-0.5100351
19	0x3ed0c2d9	0.40773657
20	0x3e3e08f9	0.1855811
21	0xbda992cc	-0.082799524
22	0xbe53bd7b	-0.2067775
23	0x3ef7ee24	0.48423874
24	0xbebce38f	-0.36892363
25	0x3ed7ab8a	0.4212306
26	0xbe879615	-0.2648169
27	0xbba95ff4	-0.005168909
28	0x3f0e0068	0.5546937
29	0x3eb4c166	0.353038
30	0xbecd8407	-0.4013979
31	0x3eb840c9	0.35986927
32	0x3bd5f2b9	0.006529179
33	0x3eaf7ef5	0.34276548
34	0x3e9f18c8	0.31073594
35	0x3d2f2120	0.0427562
36	0x3c3f5550	0.011678055
37	0x3e91680a	0.28399688
38	0xbece3328	-0.40273404
39	0x3ec5e9a3	0.38654813
40	0xbea9289c	-0.33038795
41	0x3e57f176	0.21088204
42	0x3ef41437	0.47671673
43	0x3ed2e166	0.4118759
44	0xbe798ffa	-0.24371329
45	0x3f012a41	0.504551
46	0xbea08e2b	-0.31358466
47	0xbddaff4f	-0.106932275
48	0xbeba1379	-0.3634298
49	0xbf07243d	-0.5278967
50	0x3d8811f1	0.06644047
51	0xbe6ee251	-0.2332852
52	0xbeee54de	-0.46549124
53	0x3edb7db9	0.42869356
54	0xbec0fd8b	-0.37693438
55	0x3dca5f16	0.098814175
56	0x3f0a5717	0.5403914
57	0x3f01dd77	0.50728554
58	0x3e10972d	0.14120169
59	0x3da4ecd1	0.08052982
60	0x3e1dfc8d	0.15428372
61	0x3f028f7e	0.510002
62	0x3e861091	0.26184514
63	0x3edfb929	0.43695953
64	0xbebb0aef	-0.3653178
65	0x3e84a394	0.2590605
66	0x3eb00826	0.34381217
67	0x3ead5050	0.33850336
68	0xbe945107	-0.2896807
69	0x3ed0b64c	0.4076408
70	0x3cbbb904	0.02291537
71	0xbf04a161	-0.51808745
72	0x3ecb1b31	0.39669183
73	0x3ee68a9a	0.4502762
74	0xbea661f2	-0.324966
75	0xbec2bc8a	-0.3803447
76	0x3eabc6f7	0.33550236
77	0x3ebd6235	0.3698899
78	0xbee96eef	-0.45592448
79	0xbf08ff4f	-0.5351457
80	0xbe44ab8b	-0.19206063
81	0xbeddfe6b	-0.43358168
82	0xbdfce56c	-0.12348446
83	0x3e8bc5d5	0.2729937
84	0xbe8afa22	-0.2714396
85	0x3f05b44b	0.5222823
86	0xbe2627f1	-0.16226174
87	0xbe63930f	-0.22224067
88	0x3f0c2c73	0.54755324
89	0xbe50533f	-0.20344256
90	0x3ed23702	0.41057593
91	0x3e224a63	0.15848689
92	0x3eb7c380	0.35891342
93	0x3f053564	0.5203459
94	0xbf0245f2	-0.5088798
95	0xbef965b9	-0.4871042
96	0x3d221d21	0.03957856
97	0xbddb0a8a	-0.106953695
98	0x3e48063e	0.19533631
99	0x3dd2daea	0.10295661
100	0x3e973b47	0.29537413
101	0x3e5e82ed	0.21729632
102	0x3f033048	0.51245546
103	0x3eb3f621	0.3514872
104	0x3ed10a14	0.40828001
105	0x3e4c9595	0.19978936
106	0x3ef07cc4	0.4697019
107	0x3f010873	0.5040352
108	0xbe833e24	-0.25633347
109	0xbe45c2d4	-0.19312602
110	0xbecfa451	-0.4055505
111	0xbef97eef	-0.48729655
112	0x3ed46e09	0.414902
113	0x3ea3b736	0.31975716
114	0x3ec8e2a5	0.39235416
115	0x3f0e5254	0.5559437
116	0xbeeddc20	-0.46457005
117	0xbe0db26b	-0.13837592
118	0x3e0b8672	0.13625506
119	0xbeb9410c	-0.3618244
120	0xbebb655b	-0.36600766
121	0x3d6a943a	0.057270266
122	0x3e7eaf43	0.24871545
123	0xbeca7314	-0.39540923
124	0x3efd6df2	0.49497944
125	0x3d5fe78d	0.054664183
126	0xbcf4e468	-0.029894069
127	0x3dd83832	0.105575934

conv1.normalization_1.running_var f4 [128]
0	0x3cf4ffcc	0.02990713
1	0x3cc6b99f	0.024258433
2	0x3d5c5dd1	0.053800408
3	0x3e863b33	0.2621704
4	0x3d5084a0	0.05090773
5	0x3de6f3b8	0.112769544
6	0x3ef6b186	0.48182315
7	0x3dadf37c	0.084937066
8	0x3d6097a2	0.05483211
9	0x3f214a29	0.63003784
10	0x3eba2c10	0.36361742
11	0x3e851d2f	0.25998828
12	0x3faa9b0f	1.332857
13	0x3dd07388	0.10178286
14	0x3cc4bd51	0.024016054
15	0x3d940ed1	0.072293885
16	0x3d00a1a0	0.031404138
17	0x3df0d161	0.11758686
18	0x3d58dd32	0.052945323
19	0x3ccfed27	0.025381638
20	0x3d683449	0.056690488
21	0x3d9a89f3	0.07545843
22	0x3eed671f	0.46367738
23	0x3e929ab4	0.28633654
24	0x3f38b186	0.7214588
25	0x3cc78908	0.024357334
26	0x3cc4bfa5	0.024017164
27	0x3eb73491	0.35782292
28	0x3dbb4a66	0.0914505
29	0x3d382ae3	0.044962775
30	0x3e6fcd4e	0.23418161
31	0x3d4cec05	0.050029773
32	0x3d854c28	0.06508666
33	0x3d823584	0.063578635
34	0x3d8a609f	0.0675671
35	0x3d2ffe68	0.04296723
36	0x3ed5dbca	0.41769248
37	0x3db0dfe9	0.086364575
38	0x3d3a3127	0.04545703
39	0x3da8461e	0.08216499
40	0x3f141843	0.5784952
41	0x3d3bc192	0.0458389
42	0x3e24cb63	0.16093211
43	0x3ce41892	0.027843747
44	0x3dcd7a42	0.100330845
45	0x3f548d3b	0.83028
46	0x3ec8d788	0.39226937
47	0x3f236773	0.63829726
48	0x3e170a4f	0.14750026
49	0x3eb41885	0.35174957
50	0x3cbe1fcc	0.023208521
51	0x3ec26f5b	0.37975582
52	0x3d691ab6	0.05691024
53	0x3ecf6654	0.40507758
54	0x3eb72435	0.3576981
55	0x3ec62437	0.38699505
56	0x3e976998	0.2957275
57	0x3d533642	0.051565416
58	0x3cd5b975	0.02608941
59	0x3d01c87f	0.03168535
60	0x3ec88d9c	0.3917054
61	0x3cfa550f	0.030558137
62	0x3cd87cee	0.026426759
63	0x3db564c2	0.08857109
64	0x3d54d341	0.05195928
65	0x3d2eddeb	0.042692106
66	0x3e73a592	0.23793629
67	0x3da30e60	0.07961726
68	0x3e36a37d	0.17835803
69	0x3d391712	0.045188017
70	0x3cd2d224	0.025734968
71	0x3d9a5210	0.075351834
72	0x3f65ffb6	0.8984331
73	0x3d8eb86a	0.06968768
74	0x3dd2725c	0.102757186
75	0x3ce83745	0.028346667
76	0x3ea4484d	0.3208641
77	0x3e92a177	0.28638813
78	0x3d77b07e	0.06047105
79	0x3e4d91a2	0.20075086
80	0x3e8cb038	0.27478194
81	0x3f7950cf	0.9738893
82	0x3ea558f2	0.32294422
83	0x3d66efb2	0.056380935
84	0x3ddff628	0.109356225
85	0x3d15b857	0.036552753
86	0x3f28a73f	0.658802
87	0x3d3c38d5	0.045952637
88	0x3dd29def	0.1028403
89	0x3f5ed559	0.8704429
90	0x3d2c64d6	0.042088352
91	0x3d0e78aa	0.034783043
92	0x3ee21bef	0.44161937
93	0x3f65903a	0.896732
94	0x3cbdfce6	0.02319188
95	0x3ecf097e	0.4043693
96	0x3ee23d46	0.44187373
97	0x3dd8c0f4	0.10583678
98	0x3cd4b58d	0.025965476
99	0x3e26c6ef	0.16286825
100	0x3e1a7b01	0.15085985
101	0x3e206291	0.156626
102	0x3d3676b7	0.04454681
103	0x3cd53ae5	0.02602906
104	0x3d6c2da8	0.05766073
105	0x3edd02e1	0.4316626
106	0x3eb7ceec	0.35900056
107	0x3cc7d7e1	0.024394931
108	0x3dfebf21	0.12438799
109	0x3de52312	0.1118833
110	0x3e30d9ed	0.17270632
111	0x3dbcc771	0.09217728
112	0x3e0ff94d	0.14059944
113	0x3dd25255	0.1026961
114	0x3d2b16c1	0.041769747
115	0x3e22eb10	0.15909982
116	0x3d092587	0.033483054
117	0x3d0f096d	0.0349211
118	0x3d25bb98	0.040462106
119	0x3da4bed2	0.080442086
120	0x3e56cfdb	0.20977728
121	0x3cee465f	0.02908629
122	0x3e4a5dca	0.1976234
123	0x3e2e3e67	0.17015992
124	0x3e9371af	0.2879767
125	0x3e38a16a	0.18030325
126	0x3e545aee	0.20737812
127	0x3d84e7b2	0.06489505

conv1.normalization_2.weight f4 [128]
0	0x3f816ebd	1.011192
1	0x3f812a30	1.0091
2	0x3f801020	1.0004921
3	0x3f7e5f46	0.99364126
4	0x3f80b410	1.0054951
5	0x3f7e84ac	0.9942119
6	0x3f80bf8d	1.0058457
7	0x3f808ce4	1.0042996
8	0x3f800ad2	1.0003302
9	0x3f7f474e	0.9971818
10	0x3f812c65	1.0091673
11	0x3f7e3224	0.9929526
12	0x3f805247	1.0025109
13	0x3f7f17f7	0.9964594
14	0x3f805185	1.0024878
15	0x3f7e33de	0.99297893
16	0x3f7f9992	0.99843705
17	0x3f7e1398	0.9924865
18	0x3f7e4e13	0.9933788
19	0x3f7d97b8	0.9905963
20	0x3f7ef624	0.9959433
21	0x3f7fc7cd	0.99914247
22	0x3f7ffc4f	0.9999437
23	0x3f7dcfdb	0.9914529
24	0x3f7dd22c	0.9914882
25	0x3f7fab0a	0.9987036
26	0x3f809e2b	1.0048269
27	0x3f7fa11b	0.998552
28	0x3f815281	1.0103303
29	0x3f7e4785	0.9932788
30	0x3f7f7d47	0.99800533
31	0x3f7f98ae	0.99842346
32	0x3f805158	1.0024824
33	0x3f7ee45d	0.99567205
34	0x3f8029fd	1.0012814
35	0x3f80c1c8	1.0059137
36	0x3f8052d3	1.0025276
37	0x3f80e386	1.0069435
38	0x3f80682a	1.0031788
39	0x3f809177	1.0044392
40	0x3f8049ae	1.0022485
41	0x3f802ae7	1.0013093
42	0x3f7efdd9	0.9960609
43	0x3f7f9828	0.99841547
44	0x3f805a59	1.0027572
45	0x3f7f1687	0.9964375
46	0x3f7ed921	0.9955006
47	0x3f7f8d0a	0.99824584
48	0x3f7f7cfd	0.9980009
49	0x3f7f5516	0.99739206
50	0x3f811e21	1.008732
51	0x3f7f59ec	0.99746585
52	0x3f7ed3ed	0.99542123
53	0x3f7f82f5	0.998092
54	0x3f814e67	1.0102051
55	0x3f80edbf	1.0072554
56	0x3f80041f	1.0001258
57	0x3f807fd5	1.0039011
58	0x3f80d7d6	1.0065868
59	0x3f8141d9	1.009822
60	0x3f7fee18	0.9997268
61	0x3f7fb24e	0.99881446
62	0x3f802022	1.0009806
63	0x3f806df2	1.0033553
64	0x3f80a7d3	1.0051216
65	0x3f80143a	1.0006173
66	0x3f802171	1.0010206
67	0x3f8118a4	1.0085645
68	0x3f8213aa	1.0162251
69	0x3f806f68	1.0033998
70	0x3f7dcb06	0.99137914
71	0x3f7f40c4	0.997082
72	0x3f80220a	1.0010388
73	0x3f7fcf4a	0.99925673
74	0x3f807ef1	1.003874
75	0x3f805d48	1.0028467
76	0x3f7d2abd	0.9889334
77	0x3f80a9af	1.0051783
78	0x3f7e486c	0.99329257
79	0x3f7f3734	0.9969361
80	0x3f80b56e	1.0055368
81	0x3f7f3036	0.9968294
82	0x3f7edf20	0.9955921
83	0x3f7f4f2a	0.9973017
84	0x3f8031ae	1.0015161
85	0x3f7e9ab7	0.99454826
86	0x3f7ffba6	0.9999336
87	0x3f803542	1.0016253
88	0x3f8014c0	1.0006332
89	0x3f7e3b1b	0.9930894
90	0x3f8138ec	1.0095496
91	0x3f8105f8	1.0079947
92	0x3f7ff71e	0.99986446
93	0x3f7fcad8	0.9991889
94	0x3f8173e1	1.0113488
95	0x3f7f29fe	0.9967345
96	0x3f7f928c	0.9983299
97	0x3f80446a	1.0020878
98	0x3f7fb633	0.9988739
99	0x3f7dd086	0.99146307
100	0x3f80c076	1.0058734
101	0x3f805078	1.0024557
102	0x3f803b3c	1.0018077
103	0x3f7e7118	0.9939132
104	0x3f80db17	1.0066861
105	0x3f80179a	1.0007203
106	0x3f80f60f	1.0075091
107	0x3f7ea043	0.9946329
108	0x3f7dbb04	0.9911349
109	0x3f7f8085	0.9980548
110	0x3f808010	1.0039082
111	0x3f7ead75	0.99483424
112	0x3f7dc830	0.99133587
113	0x3f7f2250	0.9966173
114	0x3f7e9fa3	0.99462336
115	0x3f7ddff6	0.9916986
116	0x3f802806	1.0012214
117	0x3f7ee85c	0.995733
118	0x3f8074cd	1.0035645
119	0x3f801eff	1.0009459
120	0x3f7f1c5f	0.99652666
121	0x3f7ea39f	0.99468416
122	0x3f7f9f33	0.99852294
123	0x3f80c6dc	1.0060687
124	0x3f803975	1.0017534
125	0x3f7daaba	0.99088633
126	0x3f7f5106	0.99733007
127	0x3f7dee60	0.99191856
