classification/LSTM/net/best_model_epoc0.pth (torch, 675170 bytes, 56 tensors)

conv1.conv_1.weight f4 [128, 1, 3]
00000000: 7337 d9be 1d2a 8b3c b1ea 903e 5e6c 823e
00000010: f0f4 b33d 8aeb c2be 7928 07bf 0361 083f
00000020: 82e4 76be af67 f1be b3b1 b23e 58fd 10bf
00000030: 40bd c03e bec7 dbbe eb21 963e 9bd3 2bbe
00000040: e174 c93b 265c 7bbe 3aab a43e a7b5 8b3e
00000050: ffcb b13e dfce 68be 037c 113f 8067 4d3a
00000060: dc46 0dbe fb53 05bf 049d cb3e 0f23 01bf
00000070: ac0e c2be a09c 50be 38a2 5b3e 8b0e 6b3e
00000080: 5f4d c13e 6274 c03c 0904 903e dc84 c03e
00000090: 8ae8 0dbf da61 fabe 2d48 0ebf 1e19 d2be
000000a0: c27b 923e c5ea 023f 2b6a 4c3e 11c0 e4be
000000b0: 1dfb 8e3e d319 a43e 286f 023f 7aa5 07bf
000000c0: be4a 9fbd 1ed3 95be c024 023f f76b a23e
000000d0: 45e2 8c3d 301f 193d cc3b 823e 4da8 e4be
000000e0: dc96 4bbd 08fa debe be2f 4f3e 3bd0 343e
000000f0: 7f00 ffbe 4434 c5bc b698 8a3e 294b 953e
00000100: ef44 0b3f 1775 05bf f9cd 3dbe 0a00 75be
00000110: 881d fabe f3cd 0cbf ea58 dbbe 7027 893e
00000120: 4ee2 fdbe cf26 89be 4573 c8be 6afc e4be
00000130: a3a2 043f e96b 86bd d24b 46be 387d 063f
00000140: a413 abbe 91ce 73be 39c0 3abe bccc c4be
00000150: 55d6 8cbe 7d17 0cbe 375f 3d3d 3277 afbe
00000160: eff9 d2bc b9ce 103f 54f3 e33b 70a5 95bd
00000170: 7c97 11bf 0c45 d7be 7029 973e 4604 b13e
00000180: 20e2 0abf ad2a 053e 5770 043e be8b 71be
00000190: d1de e23e d5c7 a03d 2d0c e4be a382 f43e
000001a0: d125 873e 4dd2 8bbe 84bf 3c3d 1509 d73e
000001b0: 0ea0 e33e 019e 8d3e 19c5 223e 673c fdbc
000001c0: 731b c43d bd67 d7be d89a 3b3c 62fc 0fbf
000001d0: dddd ac3e 35a0 d0be 298e c8be 2f0b ea3e
000001e0: 09df 39be 7646 c5be 4bac eebe 53ee 853e
000001f0: 3073 02bf c5ee e33e 3d7d 3d3e a7ef 0a3f
00000200: 4f82 64be 6fcd fdbe da71 4cbd b255 ee3e
00000210: bc7d 8ebe 950a 0abf c312 e23e 802c cd3e
00000220: d652 f13e 9a3a bc3e b78b c73c 6f30 f0be
00000230: b0cb cbbe 42f4 86be 20ba bdbe b9ed e5be
00000240: 9288 de3e fcf8 db3e a8c6 bfbe afc2 16bd
00000250: ff8c 0d3f 9bcb 903e 8a86 f1bd c12b 29be
00000260: 8a14 953e 1d64 6cbe d641 e2be 98ce 23be
00000270: 868b be3e 53bd 69be 6c0f cdbe 7e0b 62be
00000280: 2a09 5fbe 4c7b d9be c64b 9ebc 3d3c 973e
00000290: 5265 073f 5310 1f3e 443b e83e b207 6b3e
000002a0: ff18 18be 05a0 dfbe 8924 15be b51c 8d3e
000002b0: bc2a 003e 69ad 1cbe 8a12 dabc 07ce 433e
000002c0: 7616 b0bd 256a d93e 3b41 bcbe 761f 8e3d
000002d0: d42e 983e f162 eb3e aa1c a23d a95f 113d
000002e0: 2d85 ff3e 31d6 d3be 64b1 8abe eb0a aebe
000002f0: 8d0b 0d3f b4b8 fc3c 96cd ebbe 5426 903d
00000300: 5511 0bbf ceb6 a23e e46d e73e 71ce 793e
00000310: fdc2 edbd 1f09 a4be 183f 013f 5059 c9bd
00000320: fbbd 713e 4ffb 21bd b89f f13e ad65 d3bd
00000330: b72f bc3e bf95 d9be f2d8 f9be 2479 c13d
00000340: 157f f73e ad9b c1be 4eeb c63e db49 993d
00000350: 9e83 01bf 2d6b b0be 87fa 98bd 3119 ce3d
00000360: a8e4 803e 09c3 043f edf4 053f e40c f3be
00000370: 0e86 a73e 5625 18be 6d51 1ebd 9dfb 093f
00000380: 9751 e0bd 68f7 6cbe 3bfc a63e 52a8 833c
00000390: a56e 2a3e f8b4 623d 3b60 093f 4f93 ea3e
000003a0: ff1a 423e d6a1 6e3d 716c 2f3e f85b 6abe
000003b0: 06b1 a73e d931 ee3e cea7 e53e c402 a7be
000003c0: 6f67 87be e9b5 fd3e 6e45 ea3e ee25 b43e
000003d0: 732c f23e d052 063f 7152 9bbe b353 e8be
000003e0: 858c 8dbb ace2 b63e e4f3 81be 86e6 b1be
000003f0: cb99 10bf 7a2a b03d e710 9c3d ed29 a0be
-0.42425117 0.016987855 0.28304055 0.25473303 0.087869525 -0.38070327 -0.5279613 0.5327303
-0.24110606 -0.47149417 0.349012 -0.5663657 0.37644386 -0.4292583 0.29322752 -0.1677994
0.0061479663 -0.2454687 0.32161885 0.27287027 0.3472595 -0.22735165 0.5682985 0.0007835552
-0.13796562 -0.5208127 0.3976823 -0.5044412 -0.3790182 -0.20372248 0.214486 0.22954766
0.37754342 0.023492996 0.2812808 0.37601364 -0.5543295 -0.4890278 -0.5557888 -0.41034788
0.28610045 0.5113948 0.19962375 -0.44677785 0.2792596 0.32050952 0.5095086 -0.5298687
-0.07777928 -0.29262632 0.50837326 0.31722996 0.06879095 0.03738326 0.25436246 -0.44659653
-0.049704418 -0.43550134 0.20233056 0.17657559 -0.49805066 -0.024072774 0.27069634 0.29158905
0.5440206 -0.5213179 -0.18535604 -0.23925796 -0.48850656 -0.55001754 -0.42841274 0.267879
-0.4958672 -0.2678742 -0.39150444 -0.44723827 0.51810664 -0.06563551 -0.1936486 0.5253482
-0.33413422 -0.23809268 -0.1823739 -0.3843745 -0.27507272 -0.13680835 0.046233382 -0.34270626
-0.025753943 0.56565434 0.006956497 -0.07306945 -0.5687177 -0.42044866 0.29523802 0.34573573
-0.5425129 0.13004561 0.12933479 -0.23588464 0.4431062 0.07850615 -0.4454054 0.47755918
0.2639604 -0.27308884 0.04608108 0.41999117 0.4445805 0.2765961 0.158955 -0.030912591
0.09575548 -0.42071334 0.011450492 -0.5624448 0.33763018 -0.40747228 -0.3917096 0.45711657
-0.18151487 -0.3853032 -0.46615824 0.2615839 -0.5095701 0.44518104 0.18504806 0.5427193
-0.22315334 -0.49570796 -0.049913265 0.46549755 -0.27830303 -0.53922397 0.4415494 0.40073013
0.4713351 0.3676346 0.024358613 -0.46911952 -0.3980384 -0.2635823 -0.37056065 -0.4490793
0.4346357 0.42963398 -0.3745625 -0.03680676 0.5529327 0.2828034 -0.117932394 -0.16520597
0.29117233 -0.23085065 -0.44190854 -0.15996778 0.37215823 -0.22826128 -0.40050828 -0.22074696
-0.2178084 -0.4247688 -0.019323241 0.29538146 0.5288898 0.15533571 0.45357716 0.22952154
-0.14853285 -0.43676773 -0.14564718 0.27560964 0.12516302 -0.15300526 -0.026620168 0.19121562
-0.08598034 0.42463794 -0.36768517 0.069395944 0.29723227 0.45973924 0.079156235 0.03549162
0.49906293 -0.41374353 -0.27088463 -0.33992705 0.5509575 0.030849792 -0.46055287 0.070385605
-0.5432332 0.31780094 0.45201027 0.24395157 -0.11609457 -0.3203821 0.504869 -0.09831488
0.23607628 -0.039546307 0.47192168 -0.103221275 0.36755154 -0.4249706 -0.4879833 0.09446934
0.48339143 -0.37814084 0.38851398 0.0748479 -0.50591457 -0.3445677 -0.07469659 0.10063399
0.2517445 0.518601 0.5232685 -0.47470772 0.32719463 -0.14857993 -0.038651872 0.53899556
-0.10953062 -0.23141253 0.32614312 0.016071472 0.1664377 0.055348366 0.5366246 0.45815513
0.1895561 0.058259808 0.17131211 -0.22886646 0.32752246 0.46522406 0.44854587 -0.32619298
-0.264461 0.4955285 0.45756096 0.35185188 0.47299537 0.5247011 -0.30336335 -0.45376357
-0.0043197297 0.35719812 -0.25381386 -0.34746188 -0.5648467 0.08601852 0.07620411 -0.31281987

conv1.conv_1.bias f4 [128]
00000000: ac0d 79be a06b a13d ac03 d73d 5b85 5ebe
00000010: 738a da3e e40d 35be 7972 b43d c552 e7be
00000020: ebc5 26be 0d5c 003f 267e 5d3c 0333 a33e
00000030: 54ec a63d e39b ec3e a152 b0be bf06 203e
00000040: 6df7 9ebe ae06 65bd fba6 06bf a807 d63e
00000050: 68e8 3e3e c1ee a2bd 835f 6abe 1656 f73e
00000060: 9726 ccbe 07c5 dd3e b798 8bbe 41ce a5bc
00000070: 3b7a 0f3f 6af0 ba3e 5460 d8be 418f be3e
00000080: 4e46 ee3a 60df b53e 8dd9 a53e e7bb 423d
00000090: 9d7c e43c d94e 913e 3a66 d4be 4d3a c73e
000000a0: dedb b6be af51 613e d375 fe3e 196d d83e
000000b0: 7cf0 82be 040d 0a3f 804b acbe 280b 05be
000000c0: 8115 babe a47d 06bf 116b 8a3d fc0c 82be
000000d0: 370f f6be 9064 d83e 05ac bdbe d495 ee3d
000000e0: 511b 0a3f 98f4 053f f62a 153e 6385 ac3d
000000f0: 072c 313e 6d47 063f f003 893e 1158 e13e
00000100: d27e bcbe 1e25 853e 5401 ba3e 3442 b43e
00000110: c16d 9dbe 272c d73e bf03 b33c 52ff 08bf
00000120: 7a4d dc3e d8a9 e83e e569 a6be 7f3a c6be
00000130: 6f13 b73e 175d c83e 5c18 ecbe be8d 09bf
00000140: 28af 3bbe cd4f d6be deef 0fbe acea 8b3e
00000150: eef5 91be e01b 083f fed4 3ebe 05d3 64be
00000160: 299d 0d3f fbf4 3cbe f98a d53e 0bcc 233e
00000170: ae53 c43e 4e29 023f 8bea 06bf 9ff5 f6be
00000180: d2d1 683d 9152 cfbd db5a 4e3e 2460 c23d
00000190: 020b 9f3e 45f2 593e 8d86 053f 8083 b93e
000001a0: 524c d83e 6580 403e 4da2 fd3e 1b79 043f
000001b0: e1ac 82be bc5f 52be b5ae cfbe 3033 01bf
000001c0: f46d d43e a227 a43e c4b4 cf3e d338 0f3f
000001d0: cbfe f1be d8be 12be 050a 123e aae0 c0be
000001e0: 0c34 babe dc3d 5f3d 81d4 873e aaed c9be
000001f0: 6794 fc3e a15b 3b3d b66b 9dbc 0437 d33d
-0.24321622 0.07881856 0.10498747 -0.21730559 0.42683753 -0.1768108 0.088108964 -0.45180336
-0.16286437 0.5014046 0.013518846 0.31874856 0.08150545 0.46212682 -0.3443804 0.15627573
-0.31048146 -0.055914573 -0.5259854 0.41802716 0.18643343 -0.07955695 -0.22887997 0.48307866
-0.39873192 0.43314382 -0.2726495 -0.020239951 0.56045884 0.36511546 -0.42260993 0.3721867
0.0018178911 0.35521984 0.3239254 0.04754248 0.027891451 0.28380468 -0.41484243 0.38911667
-0.3571462 0.22003816 0.49699268 0.42270735 -0.255741 0.5392611 -0.33651352 -0.12992537
-0.3634453 -0.5253546 0.067587025 -0.2540053 -0.48058483 0.42264223 -0.37045303 0.11649671
0.5394793 0.52326345 0.1456717 0.08423879 0.17301951 0.5245274 0.26760817 0.44012502
-0.36815506 0.2600488 0.36329138 0.3520676 -0.30747798 0.42025873 0.021852372 -0.5351459
0.4302786 0.4544208 -0.32502666 -0.38716504 0.35757014 0.39133522 -0.46112335 -0.53731906
-0.18328536 -0.41857758 -0.14056346 0.27327478 -0.28507942 0.53167534 -0.18635938 -0.22346123
0.5531793 -0.18452828 0.4170759 0.15995805 0.38345093 0.50844276 -0.52701634 -0.4823427
0.056840725 -0.1012317 0.20151846 0.094909936 0.31063086 0.21283825 0.52158433 0.3623314
0.42245728 0.18798979 0.49537888 0.5174729 -0.2552252 -0.20544332 -0.40562978 -0.5046873
0.41490138 0.32061487 0.405676 0.5594608 -0.47264704 -0.14330614 0.14261635 -0.37671405
-0.36367834 0.054502353 0.26529315 -0.39439136 0.49331972 0.04574168 -0.0192164 0.10313228

conv1.conv_2.weight f4 [128, 128, 3]
00000000: 1afb dbbc ddc8 243a 0deb e63c e197 0f3c
00000010: f925 073d 8318 32bd e535 efbc c0bf 2e3c
00000020: 3ed9 db3c 170e 463d 1d4d 8a3c 9126 123d
00000030: 7e62 a93c 1e02 493d d804 8abb f34a 82bc
00000040: 27af 3cbd 00de 113d 6cfa 3e3c 3be9 363c
00000050: 33d4 db3c d07a f33b 36b7 1b3d f428 01bd
00000060: dc3e 37bd e231 1bbd e04c d739 b963 d83b
00000070: 92d0 083c 6fe0 b6bc 04ae 34bd 9648 1fbd
00000080: 0795 04bd 7ff6 1e3d 874e 78bb f0f0 8c3c
00000090: 1eaa ae3c b494 2c3d cf95 9e3c 8226 0f3d
000000a0: 3b66 bc3b cc0a 2fbd 8d91 21bd e07b c8bb
000000b0: 6747 a13c 2281 33bd c947 fcbb 29c4 023d
000000c0: 2298 3b3d 61c5 5fba d711 a3bc 1e1b f23b
000000d0: ab12 02bd 06ae 583c 2bca 33bd 1659 563c
000000e0: 3ec2 03bd 22de c33c de36 853c fa98 1fbc
000000f0: 5dfc fc3c d3e7 30bd 0196 203d 500c 02bd
00000100: e0d3 643c eeac 2e3d 0674 423d d588 30bd
00000110: 9522 56bb 45a4 913c eb2b 95bc b36a c2bc
00000120: 88b2 133d 10b2 22bd 0283 29bd e1b5 60bd
00000130: adca 093c 84ab d53c 734d 203d c269 283d
00000140: 3049 c8bc 2985 16bc 1c1a 27bd 975c 993b
00000150: fbe1 04bd 5716 363d 8302 51bd 0917 613d
00000160: 47c3 3fbd a699 12bc e9cd fabc 15d4 8d3c
00000170: cc0d fcbc 69a0 06bd ed4a c2bc a0ce 213d
00000180: cd55 3f3d 972b 19bd 4bfd 473c b24f 99bc
00000190: a7d7 5c3d e802 39bd c9ab 4a3c 2580 dc3c
000001a0: f60b 31bd 6fe1 bc3b dc86 42bc 3cd4 fdbc
000001b0: f2aa 04bd 8721 47bb a4a3 f2bc da5c af3c
000001c0: 59ea 25bd f0f2 aa39 701b 89bc 8ca4 3cbc
000001d0: a590 313d 044c e9bc ab92 34bd b091 2abd
000001e0: 443f 213d f5da ca3b 9895 88bc c6ca 8fbc
000001f0: 41ae 0ebd 611c 9dbc 1b1a 163c cd06 90bc
00000200: f106 523d a096 81bc 91b1 413c dc75 df3c
00000210: f3f0 e23b 7125 f0bc dd17 a0bc ba34 0cbd
00000220: 235b bbbc ae5e 093b 0107 03bd c2ca a13c
00000230: ea53 c93c 59dc e83c 3b4d 383d b4fe a5bc
00000240: 5225 efba ea28 e6bc ca1c 2e3d 7aae 55bb
00000250: 38ab 563d 027a 353c d83b b3bb 3730 1ebd
00000260: 80df 37bd ea90 403c 4d03 f4bc 4032 543c
00000270: ccf9 fabb acca ffbc 07b0 ef3c 244a 07bd
00000280: 0f20 0a3c a111 07bd 4901 4e3d 766f 03bd
00000290: 559e 5b3c 8ad8 283d 4594 ffbc a8ae b53c
000002a0: ec1a 28bd ea1c 2c3d e92d 193d 5be5 11bd
000002b0: 5a6e 27bc d25a 143d 166f 213d cf80 0fbd
000002c0: a0d2 df3c b951 f5bb 9596 03bd 6573 09bd
000002d0: 504f 703c 5ca1 c13c 5628 fcbc f44f 2c3d
000002e0: 0f4b 553c d92b 2fbb f20f 16bd f14c 68bb
000002f0: 9b7b 933b 5784 ccba 274c 24bd 743e a73c
00000300: 4055 293d 993f e2bc bb79 94bb 2df6 4f3b
00000310: f10e c23b 7189 683c d41b 9aba bba6 3b3d
00000320: 339a b13c 5dc1 023d 05eb f63c 9ef5 963b
00000330: b50f 9d3a fc13 0abc 5626 18bd 2388 0bbd
00000340: 7e35 2fbd 199b 2ebd f273 8a3b b932 babc
00000350: 3411 2bbd 7e59 3b3d e42c af3b 5ad7 9b3c
00000360: c72c 193d 8a1a 523a 05ad 3fbb 28ef 0fbd
00000370: b5ce c03c 7f8e 713c bafb b5ba 0e95 9a3c
00000380: b506 babc 49ea 353d 8186 68bc a956 aa3c
00000390: 8ba5 ce3c fd36 20bc 485a 37bd 82f0 98bc
000003a0: 5222 21bd 3bc1 b3bc 53e5 843c fb42 0fbd
000003b0: 1e45 033d b41d e33c ea1c cdbc 7095 cd3c
000003c0: 64b2 263d 330f 403d 5465 c5bc 63ed a13c
000003d0: 2b7c 64bc 8ed3 aebc a8c2 c5bc 6bf7 1c3d
000003e0: 5684 b03c 9676 a63b f45a abbc 881c e0bb
000003f0: 089b 923a 11f8 3c3d cda6 e13c e4bd aa3c
-0.026853133 0.00062860345 0.028188253 0.008764238 0.032995198 -0.043480407 -0.029200504 0.010665834
0.026836988 0.04835328 0.016882474 0.03568131 0.020676848 0.049074285 -0.004212003 -0.01590488
-0.046065476 0.035612106 0.011656385 0.011164005 0.026834583 0.007430412 0.03801652 -0.031533197
-0.04473768 -0.03788937 0.00041065272 0.0066036847 0.008350508 -0.022323815 -0.044111267 -0.038887583
-0.032368686 0.038809296 -0.0037888603 0.017204732 0.021321353 0.042134 0.019358544 0.034948833
0.0057494915 -0.042734906 -0.03944545 -0.0061182827 0.019687368 -0.043824323 -0.007698987 0.031925354
0.045799382 -0.00085361867 -0.019905968 0.0073884865 -0.031756084 0.013225084 -0.043893974 0.013082763
-0.032167666 0.023909632 0.016261514 -0.009741062 0.030882055 -0.043189835 0.039205555 -0.031750023
0.013966531 0.042645387 0.04747393 -0.043099243 -0.003267442 0.017778525 -0.018209418 -0.023732519
0.036058933 -0.039720595 -0.041384704 -0.054860953 0.008410138 0.026082762 0.03913636 0.041116484
-0.024448961 -0.009187021 -0.040796384 0.004680227 -0.032442074 0.0444549 -0.051027786 0.05495361
-0.04681709 -0.008947765 -0.030615764 0.017313043 -0.030768298 -0.032867823 -0.023717368 0.039503694
0.046712685 -0.037395086 0.012206386 -0.01871476 0.0539166 -0.045168787 0.012370058 0.026916573
-0.043224297 0.0057641785 -0.011872973 -0.03098499 -0.03238959 -0.0030384974 -0.029619046 0.02140658
-0.040506694 0.0003260593 -0.016736716 -0.01151384 0.043350834 -0.02847863 -0.044085186 -0.041642845
0.039366975 0.0061906525 -0.016672894 -0.017552745 -0.03483415 -0.019178571 0.0091614975 -0.017581368
0.05127615 -0.015818894 0.01182212 0.02727788 0.006925696 -0.029314728 -0.019542629 -0.03422997
-0.022870606 0.0020960975 -0.0319891 0.019750003 0.024576146 0.028425382 0.044995528 -0.020263053
-0.0018245375 -0.028095681 0.042507924 -0.0032605217 0.05240938 0.011076452 -0.0054697804 -0.0386202
-0.04489088 0.0117533 -0.02978673 0.012951434 -0.0076591726 -0.031224571 0.029258741 -0.03302969
0.008430495 -0.032975797 0.050294194 -0.03208872 0.0134044485 0.041222133 -0.03119863 0.02217801
-0.0410413 0.042019762 0.0373973 -0.03561912 -0.010219181 0.036219425 0.03941258 -0.03503495
0.027322114 -0.0074865487 -0.032126028 -0.033557314 0.014667347 0.023636512 -0.030780952 0.042068437
0.013018384 -0.0026729016 -0.0366363 -0.0035446251 0.004500819 -0.0015603405 -0.040111687 0.020415522
0.041341066 -0.027618216 -0.004531113 0.0031732426 0.0059221913 0.014192925 -0.0011757561 0.045813303
0.021679973 0.031922687 0.030141363 0.0046069166 0.001198283 -0.008427616 -0.037145935 -0.034065377
-0.042775624 -0.04262838 0.0042252475 -0.022729265 -0.041764453 0.045739643 0.0053459276 0.019023586
0.03739622 0.0008014819 -0.0029247415 -0.035140187 0.023536066 0.014743446 -0.0013884224 0.018869903
-0.022708276 0.044412885 -0.0141922245 0.020793276 0.025225421 -0.009778735 -0.044763833 -0.01866937
-0.03933937 -0.021942725 0.016222632 -0.034975987 0.032048337 0.027724124 -0.025038201 0.025095671
0.04069747 0.046889495 -0.024096169 0.019766515 -0.01394562 -0.021341112 -0.02414067 0.038321894
0.021547478 0.0050800545 -0.020917393 -0.0068393387 0.0011185119 0.046135012 0.027545357 0.0208425

conv1.conv_2.bias f4 [128]
00000000: eeb8 1c3c ce33 1abd 4e53 d03c 7af1 d5bc
00000010: 6866 48bd 6504 02bd 2a1b acbc fb8d 263d
00000020: 45aa 18bd 15b5 233d 0c17 f13c 6dd5 d7bc
00000030: 648d 08bd a47b 413d 519c 00bd 1d34 483c
00000040: f234 44bd 4b75 34bd 05d3 cabc 05ee 25bd
00000050: b240 cd3c 6515 72bb f266 093d b2f9 3dbd
00000060: 9ab1 24ba 9fa5 203d 8058 aa3c bb24 01bd
00000070: f8b7 93b8 7ade 253a a22c 8a3c d33f c53b
00000080: 26cc 1e3d 101f 7fbc 3603 e03c cdbb 203d
00000090: 0b91 c0bc 425c d1bc 6c4d c93c d2bf 1f3d
000000a0: 0b6d 3abd 066b 193d 12a1 5a3c cfd9 09bc
000000b0: f83d a4bc 4a01 47bc 8377 e939 8385 d33c
000000c0: 6c37 1bbb e328 15bd 5b21 9abc 8bc2 17bd
000000d0: f028 7abc 27ab 3c3d 441b ed3c 1cb3 50bb
000000e0: 2b72 0abd db52 703c 43ab 1fbd 3f62 1cbd
000000f0: 4c9f b13b 6b31 b53b ae7a c8bc 3915 303d
00000100: 67ae 413d 85f4 f13b 8b2b 4c3d dc77 95bc
00000110: fc88 92bc 5c44 02bd 1097 c3bc 6cee 1abb
00000120: 50e5 013d 4b23 83bb d94b 7b3b dafe d8bc
00000130: d167 313d 05a7 cabc 79bf 2fbc 0214 f8bb
00000140: 2652 b4bb 6759 41bd 762e 23bd 7eb2 2dbd
00000150: a3ae 283d 2719 e0bc 75d7 303d ea3d dcbb
00000160: c6fc f13b d71b 883c 40e4 debb a944 663c
00000170: 4db6 a5ba 7bff 00bd cb1f 14bd 11ae 26bc
00000180: be92 383c 505a 75bc 4a07 06bc 027a f33c
00000190: 4860 b4bc caa8 9c3c 0ef9 cb3c 6785 4b3d
000001a0: 80c6 0a3d bd93 a0bc 7b3f 2fbd e31c c43c
000001b0: b506 3cbd ead4 6a3c 1b3f ffbc b54b af3b
000001c0: 2afb bfbc 1e66 40bd ceef 0abd 0da2 863c
000001d0: dfd1 babc 0a48 96bc cae6 ef3c a07b a23b
000001e0: 139d 823c c4e1 19bd ba7d 863b 5e03 1f3d
000001f0: 9193 d3ba 5b6a 8abc 5707 ddbb 1d8c e13b
0.009565575 -0.03764706 0.025430348 -0.026116122 -0.048925787 -0.031742472 -0.021009047 0.040662747
-0.037271757 0.039967615 0.029429935 -0.026346887 -0.033337966 0.047237054 -0.031399075 0.012219456
-0.047902055 -0.04405717 -0.024758825 -0.040510196 0.025055263 -0.0036939022 0.033545442 -0.046380706
-0.0006282568 0.03922045 0.020794153 -0.03152917 -7.043773e-05 0.0006327402 0.016866986 0.0060195713
0.03876891 -0.015571371 0.027345281 0.0392416 -0.023506662 -0.025556687 0.02457305 0.039001293
-0.045514148 0.03745558 0.013344066 -0.008413746 -0.02004908 -0.012146303 0.00044530266 0.0258205
-0.0023684157 -0.036415946 -0.018814733 -0.037050765 -0.015268549 0.04606166 0.028943665 -0.0031845039
-0.033800285 0.014668192 -0.038981687 -0.038179632 0.005420601 0.0055295727 -0.02447256 0.04298899
0.047285464 0.0073838853 0.049846213 -0.01824563 -0.017887585 -0.031803474 -0.023875743 -0.0023640646
0.03171283 -0.00400201 0.003834477 -0.02648871 0.043311898 -0.024737844 -0.010726803 -0.0075707445
-0.005502957 -0.0472044 -0.03983923 -0.04240655 0.04118217 -0.027355744 0.043174226 -0.006721248
0.0073848693 0.016614838 -0.006802112 0.014054456 -0.0012642831 -0.031493645 -0.036163133 -0.010173337
0.011265455 -0.014975145 -0.008180449 0.029721264 -0.022018567 0.019123454 0.024899032 0.04968777
0.03388071 -0.019601697 -0.04278515 0.023939556 -0.045904834 0.014332989 -0.03115802 0.005349601
-0.023435194 -0.046972387 -0.0339201 0.016434694 -0.022805152 -0.018344898 0.029284853 0.004958585
0.01594404 -0.037568823 0.0041043432 0.03882157 -0.0016142001 -0.016896417 -0.0067452597 0.006883158

conv1.conv_3.weight f4 [128, 128, 3]
00000000: 809f 39bd b8af 27bd 0cd5 4d3d e22f 27bc
00000010: c387 493d 801c 6abc c593 31bd fb36 95bc
00000020: 44e4 15bd c4c2 a83a 6ba8 053b e9ee 283d
00000030: b9ce 03bb cb12 83bc 3655 19bd a31b 25bd
00000040: d036 d93c 2fd7 313d 20d7 293d 3a8c c23c
00000050: 59a5 0a3d 0072 e23c 4eba 253d ef36 ba3c
00000060: d99c 22bd 3db9 3b3d 3aa0 383c c304 e3bc
00000070: ad60 d6bb 19cb 2b3c 0a6b 9cbc 7c24 4cba
00000080: 8dbb e4bb bc8b 89bb 91ad 863c f61b 0a3d
00000090: 14db f03c 4491 073d 9cc5 173d 85a6 8f3c
000000a0: a99b 1d3c 5284 11bd 3b30 e4bc d6d3 32bd
000000b0: 7c45 37bd 42b7 2fbd f1fe a53b 05a9 463c
000000c0: f9c1 1ebc 22ef 0f3c 25a8 8a3c 375f 513d
000000d0: a979 fabb 3ae6 403d 5186 56bc 3694 6e3c
000000e0: 3294 113d 4a83 46bd 60b5 c9bb bb56 e8bc
000000f0: 5258 393d 373c de3c a21d 29bd 9ae8 fabc
00000100: 30d8 52bc e58a 123d 9434 d53c cf4f a33b
00000110: 384d adbc afa9 f9ba 60e9 71ba abc2 8dbb
00000120: 11c0 d03c ddb6 2f3d 1977 cb3c 415e 7abb
00000130: c608 0bbd ecde c03c 6b8c 26bd 6a37 f53b
00000140: ba11 14bd 576e 2d3d 66d3 a63c 4b20 a3bb
00000150: a1bd 5b3c f632 4b3c 85db 38bd f38a 34bc
00000160: cc43 c2bb 9734 913a 3095 11bd 0ed7 bc3c
00000170: 709c 3dbd aec9 123b 334c 003d 71e5 19bd
00000180: fb39 34bc 42ea 58bc 4426 39bc 915d ab3c
00000190: 6d11 c13c f0cb b0bc 1215 a13c 7fc4 333b
000001a0: 497c 68bb ad01 b23b a841 6b3c 15ee 00bb
000001b0: 847b 343d 6589 ddbc 376d 323d 7a57 be3c
000001c0: 3b7a b1bc dfb0 be3c 857b 97bc 9445 6b3c
000001d0: 8902 01bd 6dd2 b1bc a9a5 093d 9271 05bd
000001e0: 295c 1cbd 6667 b23a 1ae3 653c e1f0 87bb
000001f0: 28bc e6bc c507 15bd 588c 30bd 8145 3c3c
00000200: 1747 b63c daa0 433d 234f 953c a766 323d
00000210: 4574 9fb7 c69c 1eba 75bf 3cbd 9c0c 0e3d
00000220: 30ac 27bd 1909 3e3d 4f9d dd3c c33d 753c
00000230: 3fb0 00bd ec12 e23b 869d 363d f6cb 403d
00000240: b9bd dcbc db4d 4f3c f068 083b 3bad 4abd
00000250: 305c e4bb 842e 23bc c7f0 e6bb 3c19 263d
00000260: 9a31 b0bc 0245 113c 3026 413d 7192 f4bc
00000270: d471 edbb 25ec b9bc a1fc 7f3c f0d5 7bbc
00000280: f4d1 d33c 4fcd 30bb 2b22 4c3d c28d 9b3c
00000290: 36c7 163c a9da 9f3c 9886 243c 298e 2dbd
000002a0: f84e 78bc bba1 4d3c a596 ae3c 64d0 0c3d
000002b0: 96a1 0dbd cff9 3f3d c7f4 313d f333 6cbc
000002c0: 34be 1fbd 8e4c e23c 9a42 b7bc ae99 36bd
000002d0: 8f55 503d 7983 8d3b fa1b 32bd cdde 96bc
000002e0: b1e7 ea3c ac12 adbc 17d5 8dbc 484f 24bd
000002f0: 2f9d bd3c 69e6 9c3c 4367 fbbc 222f 883c
00000300: 4039 523d 35cb 07bc c79e 1bbd 9bed efba
00000310: 6ad0 1b3d 43b5 c83b 75ca 3dbd 9336 0dbd
00000320: ebb6 b13c 587c 0b3d 0131 0bbd f212 703c
00000330: 4cf0 1bbd cdd4 9a3c 6d29 203d 1269 103d
00000340: 6a61 6dbc 57d5 d3bc 5a34 1b3d 91d5 0fbd
00000350: 4140 1d3d dab4 2abd afe3 153c 4915 28bd
00000360: d9eb dc3c 64ae 9abb e777 0c3c b7e4 d8bc
00000370: 70f4 f13c 1caa ecbb 251c 8bbc 4bdb 2c3d
00000380: 4b0d 3abd 71a8 123c 85b0 38bc 68d8 453d
00000390: 3d54 48bd 7c94 e1bc 3aff bcbc f8e6 e03c
000003a0: d9f6 253d 3940 cf3c 61e4 5e3d 2684 9fbc
000003b0: 4d45 3a3d f2c4 063d 965b d53c f7f1 213d
000003c0: 10ca a23c 5eb1 c6bc b94d 28bd 4daa 1bbd
000003d0: 3614 53bd d668 c83c ea31 50bd 2a7c ecbc
000003e0: 4b07 da3c 2bde db3c 2f20 50bd 8a12 36bd
000003f0: 5c8c 1c3d 7308 1bbc 09e8 f33c ee28 1c3d
-0.045318127 -0.040939063 0.050252005 -0.010204287 0.049201738 -0.0142890215 -0.043353815 -0.018214693
-0.036594644 0.0012875427 0.0020394574 0.041243467 -0.002011223 -0.016000172 -0.03743478 -0.04030956
0.026515394 0.043418106 0.041464925 0.023748506 0.033849094 0.02764225 0.040460877 0.022731273
-0.039700363 0.045830954 0.01126867 -0.027712232 -0.0065422864 0.010485434 -0.019094009 -0.0007787419
-0.0069803656 -0.004197566 0.016440185 0.033718072 0.02940134 0.03309752 0.03705369 0.017535457
0.009619632 -0.03552658 -0.02785503 -0.043659054 -0.044744 -0.042899378 0.005065792 0.012125258
-0.009689801 0.008785041 0.01692588 0.051116195 -0.0076438976 0.04709456 -0.013093547 0.014561703
0.03554172 -0.04846505 -0.006155655 -0.028361669 0.045250244 0.027128322 -0.041288026 -0.030628491
-0.012868926 0.03577699 0.026026048 0.004983879 -0.021154985 -0.0019047762 -0.0009228196 -0.0043261847
0.02548221 0.042899 0.024837064 -0.0038203152 -0.033943914 0.023543797 -0.040661257 0.0074834125
-0.036149718 0.042341556 0.020364475 -0.004978215 0.01341191 0.012402287 -0.045131225 -0.011019456
-0.005928492 0.0011078295 -0.035542667 0.023051765 -0.04629177 0.0022398042 0.03132267 -0.037572328
-0.011000152 -0.013239445 -0.011300627 0.02091864 0.02356788 -0.02158162 0.019663367 0.0027430353
-0.003547447 0.0054323287 0.014358915 -0.0019673158 0.044063106 -0.027043054 0.043561187 0.023235071
-0.02166473 0.023277698 -0.018491516 0.01435985 -0.03149656 -0.021706784 0.03360525 -0.032579012
-0.03817383 0.0013611137 0.014031196 -0.004148588 -0.028165892 -0.036384363 -0.043102592 0.01149118
0.022250695 0.047760822 0.018226212 0.04355493 -1.900842e-05 -0.0006050583 -0.046081025 0.034679994
-0.040935695 0.046395395 0.02705255 0.014968338 -0.03141808 0.0068992283 0.04458382 0.047069512
-0.026945936 0.0126528395 0.00208145 -0.04948161 -0.0069689974 -0.009959821 -0.007047746 0.04055141
-0.021508027 0.00886655 0.04715556 -0.029854985 -0.0072462354 -0.02269561 0.015624196 -0.015370831
0.02585695 -0.0026977842 0.049837273 0.018988494 0.009202769 0.019513445 0.010041855 -0.042371903
-0.015155546 0.012550767 0.021312067 0.034378424 -0.03457793 0.046869095 0.04344633 -0.0144166825
-0.03899975 0.027624395 -0.022370625 -0.044580154 0.050862845 0.0043186513 -0.04348371 -0.018416787
0.028674932 -0.021127068 -0.017313523 -0.04011467 0.02314624 0.019152837 -0.030688887 0.016624037
0.05132413 -0.008288194 -0.03799322 -0.0018305065 0.038040556 0.0061251237 -0.046335656 -0.034475874
0.021693667 0.03405413 -0.03398228 0.014652954 -0.03807096 0.0189003 0.039102007 0.035256453
-0.014488557 -0.025858564 0.037891723 -0.035115782 0.038391355 -0.04167638 0.009148522 -0.041035924
0.02696793 -0.004720496 0.008573509 -0.026476247 0.029535502 -0.007222427 -0.016981194 0.04220132
-0.045422833 0.008951292 -0.011272554 0.048302084 -0.04890846 -0.027536623 -0.02307092 0.027453884
0.040518615 0.025299178 0.054417018 -0.019472193 0.045476247 0.032902665 0.026044648 0.039537396
0.019871742 -0.024254497 -0.041089747 -0.03800421 -0.051532947 0.024464052 -0.05082885 -0.0288678
0.026614806 0.026839336 -0.050811943 -0.044451274 0.038219795 -0.009462464 0.029773729 0.03812497

conv1.conv_3.bias f4 [128]
00000000: 2b77 723c 7bdf 093d 8f34 44bd dc58 2a3d
00000010: 33cb 12bd 40ad 38bd 6ce5 e8bc 12ff 19bd
00000020: 4d0a 25bd 87ba 293d c372 9c3c 05b3 d73c
00000030: 1f3c 4ebc 93d5 30bd db81 a8bc b7b2 303d
00000040: 81bf 4dbd da6c 013d 4ad8 4bbd ca58 4cbc
00000050: 7465 2bbc 5f2a 3f3c e843 e8bc 19ae 97bc
00000060: f626 d7bc 1de1 20bd 32aa 7f3c 56e9 3fbd
00000070: 6cc1 da39 e143 f33c 6a62 fbbb b806 3d3d
00000080: 36f0 20bb ffb8 dbbc abfc d23c 6d53 a53b
00000090: 19c1 653c ebd1 3cbd fb1a 433d 46aa e9bc
000000a0: 2b0c 4c3c fae6 16bc 77d7 be3b e8d1 c5bc
000000b0: 1031 cabc 7c61 91bc 3963 193d 6304 00bd
000000c0: 1231 58bc 6d46 833c 4f51 313d e78f ea3c
000000d0: 0e78 e7bb 4ffa 813b a5c9 103d f262 ce3c
000000e0: 0b5d 51bc c335 d43b 2317 22ba d1c3 81bc
000000f0: 25ab b5bb 1428 8abc 4cd0 f6bc fc66 0fbd
00000100: a463 ca3c 6a14 00bd 5825 8fbc d81c 74bc
00000110: f8bd 1dbc 7736 dfbc 8236 fe3c 72f1 9bbc
00000120: fd53 0f3d 1ea5 2fbc ef75 31bd 338c 353d
00000130: a21a 253d 963a 04ba 51dd 9f3c d1b9 02bc
00000140: 714d c8bc 4c90 fabc 7deb 42bd 4e8f a4bc
00000150: 73e2 ee3b f0ee ac3c b8cf 813b dfa7 b4bc
00000160: 52fe b9bb 9445 4a3d ea9a db3c 3895 bb3c
00000170: 496d 06bd ff6e 0bbd c968 3e3d 4132 a4bc
00000180: 2daa d6bb a2f3 3a3d 4849 3fbd d2c5 34bd
00000190: d311 2bbd af40 97bc 18d6 49bd 9444 433c
000001a0: 9a9d a93c ffea c53c f980 73bc 0281 0bbd
000001b0: 828c 2e3d 8735 9ebc 584e ffbc 678a cebc
000001c0: 6edb 1bbc df84 4d3c a441 e7bc 257f b33c
000001d0: 3ddf 353d 04a7 933c 8c56 313d 5c79 003c
000001e0: 6217 04bd 70a3 b53c 2d97 fd3a feda a2bc
000001f0: a64d 5c3c 6651 27bd 52d9 adbc c4d8 e0bb
0.01479892 0.033660393 -0.047901686 0.04158865 -0.035838317 -0.0450871 -0.02842971 -0.03759677
-0.040293027 0.041437652 0.019097691 0.02633048 -0.012587576 -0.04317243 -0.020569732 0.043139186
-0.05023146 0.03159795 -0.049766816 -0.012472341 -0.0104612 0.011667817 -0.028352693 -0.018515633
-0.026263695 -0.039277185 0.015604543 -0.046853386 0.0004172431 0.029695453 -0.007671644 0.046148986
-0.002455724 -0.026821611 0.025755247 0.0050453455 0.014023089 -0.04609863 0.047633152 -0.028523576
0.012454073 -0.009210343 0.0058240253 -0.024147943 -0.024681598 -0.01774668 0.03744814 -0.031254184
-0.013195293 0.016024793 0.043290433 0.028633071 -0.007063872 0.0039666067 0.035348553 0.025193665
-0.012778531 0.0064761355 -0.0006183257 -0.015840443 -0.0055440837 -0.016864814 -0.03012862 -0.035010323
0.024705715 -0.03126947 -0.017473862 -0.014899455 -0.009627812 -0.02724765 0.03103185 -0.019036029
0.034992207 -0.010720519 -0.04332536 0.044323158 0.040308602 -0.00050441304 0.019514712 -0.007978872
-0.02445099 -0.030586384 -0.04758786 -0.020087864 0.0072901784 0.021110028 0.0039615296 -0.022052703
-0.0056760693 0.04938276 0.026807267 0.022898301 -0.032819066 -0.0340414 0.04648665 -0.020043494
-0.0065510483 0.045642503 -0.046700746 -0.04413397 -0.041765045 -0.01846346 -0.04927644 0.011918206
0.020705033 0.024159906 -0.014862292 -0.03405858 0.042614467 -0.019312633 -0.031165287 -0.02521248
-0.009512765 0.012543886 -0.028229542 0.021911213 0.04440235 0.018023975 0.04329543 0.007841434
-0.032248862 0.02217266 0.0019347422 -0.019879814 0.013446247 -0.040849112 -0.02122179 -0.006861778

conv1.normalization_1.weight f4 [128]
00000000: 7685 803f d912 813f 91f3 7f3f 9305 803f
00000010: 8187 7f3f ba4c 7e3f 9af6 7f3f 04da 7f3f
00000020: a849 803f 9d14 7f3f 12c4 7f3f fcfb 7e3f
00000030: 3927 7e3f c210 803f ce46 803f 7135 803f
00000040: 9252 7f3f 8520 7f3f c89d 803f ef08 7f3f
00000050: 0326 803f 4230 803f 4640 803f 456b 7e3f
00000060: d973 7f3f c9cb 803f 9462 803f 254a 7f3f
00000070: bc99 7f3f a8b8 803f c4dc 7f3f 0361 7f3f
00000080: a486 803f fa21 803f 5ad3 7f3f 8b88 7f3f
00000090: 004a 7f3f d147 7f3f b048 803f 2ca5 7f3f
000000a0: 2b45 803f 5bd1 7e3f f692 803f 58eb 803f
000000b0: 1801 7f3f e23b 7f3f c58a 803f 03e0 7e3f
000000c0: 39ee 7e3f efcf 7e3f ddff 7f3f 47c0 7e3f
000000d0: d39f 7e3f 406d 7f3f 4b0a 7f3f 8519 803f
000000e0: a414 803f 1c26 803f 133d 7f3f c339 803f
000000f0: 382d 803f b02b 813f fb06 803f 5fb3 7f3f
00000100: 4004 803f 407b 7f3f a0db 7f3f 037c 803f
00000110: 2f6e 803f c6d4 7f3f 9e2c 813f 9512 803f
00000120: ea5f 803f 4fd4 803f 9516 803f 0530 7f3f
00000130: 4145 803f 36c6 7f3f 93c7 7f3f 66c9 7e3f
00000140: 3ec9 7e3f a06f 7f3f 9d78 803f 0ba8 7f3f
00000150: d827 7f3f 8758 7f3f 094f 7f3f a78e 803f
00000160: 2a44 7f3f 235c 7f3f 7d1b 803f 1833 803f
00000170: 37ed 7e3f c97a 7f3f b997 803f 9979 7d3f
00000180: d16f 803f a176 803f 96bb 803f 3055 803f
00000190: e492 7f3f b100 803f 79d5 7e3f 9507 803f
000001a0: 7f65 803f c475 803f eeae 7f3f 1fc7 7e3f
000001b0: 8028 803f 54fc 7f3f 60f6 7e3f 6967 7f3f
000001c0: 04b6 7f3f d448 803f 20ec 7f3f d5a7 7f3f
000001d0: 5268 803f cddc 803f 0c5c 803f d392 803f
000001e0: 39fc 7e3f 719b 7f3f 696f 7f3f 4a26 803f
000001f0: 2187 7f3f 6e6f 803f e071 803f 8b70 803f
1.0040729 1.0083877 0.9998103 1.0001701 0.9981614 0.99335825 0.9998566 0.9994204
1.0022478 0.9964083 0.99908555 0.9960325 0.992786 1.0005114 1.0021608 1.0016309
0.9973537 0.99658996 1.0048151 0.99623007 1.00116 1.0014727 1.0019615 0.9938243
0.99786144 1.006219 1.0030084 0.9972251 0.99843955 1.0056353 0.99946237 0.99757403
1.0041089 1.0010369 0.9993187 0.99817723 0.9972229 0.9971896 1.0022182 0.9986141
1.0021108 0.995382 1.0044849 1.0071821 0.99611044 0.9970075 1.0042349 0.99560565
0.9958225 0.9953603 0.9999979 0.9951214 0.9946262 0.9977608 0.9962508 1.0007788
1.0006299 1.001163 0.99702567 1.0017627 1.00138 1.0091457 1.000213 0.99883074
1.0001297 0.9979744 0.99944496 1.0037845 1.0033625 0.9993404 1.0091741 1.0005671
1.0029271 1.0064791 1.0006891 0.99682647 1.0021135 0.9991182 0.999139 0.9952606
0.9952582 0.997797 1.0036808 0.9986579 0.9967017 0.99744457 0.99729973 1.0043534
0.99713385 0.99749964 1.0008389 1.0015593 0.9958071 0.9979673 1.0046302 0.9901367
1.0034124 1.0036203 1.0057247 1.0025997 0.9983351 1.0000211 0.99544483 1.0002314
1.0030974 1.0035939 0.99876297 0.99522585 1.001236 0.999944 0.9959469 0.99767166
0.9988711 1.0022225 0.99969673 0.99865466 1.0031836 1.0067383 1.002809 1.0044807
0.9960361 0.9984656 0.99779373 1.0011685 0.99815565 1.0034006 1.0034752 1.0034345

conv1.normalization_1.bias f4 [128]
00000000: 68c7 a9ba 6207 d23b ccae eeb8 a06d 95bb
00000010: 7ef5 0cbb 7c11 95bb a1da a1b9 1bdb 7fba
00000020: 22a9 3d3a dc21 2fbb 1143 053a d8e5 b6ba
00000030: 2e21 8dbb 039e f03a 7fed a83b a8f3 e0b7
00000040: 4534 c339 d465 48bb 1a49 3a3a b500 e3b9
00000050: dbea fbb9 c79f 8f3a b7bb df3a 5207 b3bb
00000060: 7b2b dbba 6aed 2a3c c7a1 023c 5da0 a8bb
00000070: 0d73 d5ba 2be1 533b 0e41 773a 7284 aeba
00000080: 46ce 1c3b ca38 263b bc90 0ebb de17 7fbb
00000090: 9034 143a 8d38 89bb b64a 8fbb 2d2e 47ba
000000a0: a964 7c3b cceb 10bc 031a 653b 8de2 bc3b
000000b0: 49dc e5ba 8303 7bbb 4161 8f3a b22b 41bb
000000c0: c33d 2cbb 2666 72bb 6bfe 0a3b bb03 08bb
000000d0: 1bb5 61bb 6740 3abb 1336 95bb 5d5f 9d3a
000000e0: 6948 083b e6ea 9e3a 685e 88bb 13c6 2b3b
000000f0: e8ed 0c3a 281e f23b 7144 0abb 9410 9bbb
00000100: 9cca ea39 2698 5eb8 5b7d f1ba ee56 863b
00000110: d4f4 453b 07a6 eaba 6623 083c 5d6b e23a
00000120: 3b69 c7b9 1ba8 b63b 93f0 3f3a e640 983a
00000130: 3660 32ba a0de 7a3a f906 7a3a dd9d a8bb
00000140: c772 86bb 121a e3ba e2b6 4e3b e1aa deba
00000150: ce3a 643a 76c6 12bb e765 3ebb fea2 deb9
00000160: a7e1 3fbb f863 8eba 3979 a4ba 1b83 5cba
00000170: 8140 abbb 6d54 a5ba 278d b4bb ab19 96bb
00000180: 9521 f73a b8d1 293b efdf b1bb 6952 2a3b
00000190: 09d6 eeba b9f4 cf3a 9b20 39bb 5ad5 2d3c
000001a0: 79bd 733b b5c7 8c3b 8d53 8ebb 931c 033a
000001b0: 855d bbba 16bf 79ba c41e ddba 5131 2cb9
000001c0: 2280 7dbb 0d33 443b 239c 47bb b9e9 013a
000001d0: 21f9 793a a850 933b 6dde 4a3a 1be4 873b
000001e0: bbe0 53bb 4671 e5b9 801e 7dbb 9fea 4c3a
000001f0: 9b8b 73bb 2159 233b bb30 703b 80c8 88ba
-0.0012953104 0.0064095715 -0.00011381283 -0.0045601875 -0.002150863 -0.0045492034 -0.00030871204 -0.0009760127
0.00072349806 -0.0026723063 0.0005083541 -0.0013953997 -0.004306934 0.0018357638 0.005155265 -2.6816342e-05
0.00037232242 -0.0030578272 0.000710623 -0.0004329734 -0.00048049432 0.0010957652 0.0017069493 -0.005463519
-0.0016721332 0.0104325805 0.007973141 -0.00514607 -0.0016284898 0.0032330255 0.0009431996 -0.0013314618
0.002392666 0.0025363439 -0.002175375 -0.0038924138 0.00056535844 -0.0041876496 -0.00437292 -0.0007598128
0.0038512147 -0.008845281 0.003495813 0.0057643116 -0.0017536964 -0.0038301654 0.0010939018 -0.0029475507
-0.002628193 -0.0036987155 0.0021208774 -0.0020754177 -0.0034440223 -0.0028419734 -0.0045535653 0.001200657
0.0020795113 0.0012124449 -0.0041616447 0.002621059 0.0005376027 0.007388849 -0.0021097923 -0.004732201
0.00044782914 -5.3070624e-05 -0.00184242 0.0040997183 0.0030205743 -0.0017902263 0.008309221 0.0017274428
-0.0003803464 0.005574239 0.000732192 0.0011616021 -0.00068044977 0.0009569917 0.0009537782 -0.005145772
-0.004103038 -0.0017326495 0.0031542112 -0.0016988182 0.00087062723 -0.0022396124 -0.0029052438 -0.00042464578
-0.0029278786 -0.0010863533 -0.0012548334 -0.000841187 -0.0052261953 -0.0012613662 -0.0055099907 -0.0045806966
0.0018854613 0.0025912356 -0.0054283063 0.0025989062 -0.0018221746 0.001586578 -0.0028248194 0.010609949
0.0037191792 0.004296268 -0.004343456 0.00050015113 -0.0014294839 -0.000952707 -0.0016870131 -0.0001642157
-0.003868111 0.0029937655 -0.0030458055 0.0004955787 0.00095357193 0.004495699 0.00077388325 0.0041470653
-0.0032329995 -0.0004376268 -0.0038622916 0.00078169437 -0.0037162069 0.002492495 0.003665014 -0.001043573

conv1.normalization_1.running_mean f4 [128]
00000000: cd18 31be 73a1 6b3d 74e2 9f3d 4f61 16be
00000010: 6b5f 9b3e 953e f9bd 55a2 4f3d f759 a8be
00000020: 45fc e8bd fa6e bf3e 5d17 95ba b2bf 603e
00000030: b212 a33d 52ed a63e b896 7ebe af06 de3d
00000040: 97f1 65be aa06 3bbd 2f87 bfbe b61b 9a3e
00000050: bbfc 0b3e 44e8 78bd 53d0 1bbe 6d1b b63e
00000060: 7daf 8abe 9e7e 9f3e 31dd 48be 6ff2 78bb
00000070: cc45 d03e 0ba4 843e 61c8 96be f4e5 863e
00000080: 99d3 aa3b bc6b 803e 5dee 693e 6f6b 003d
00000090: abfc 0b3c 6584 553e 78e8 96be bc0a 913e
000000a0: 4959 78be 1469 1f3e 2a57 b33e 920e 9c3e
000000b0: a431 37be 08ac bd3e aeb1 6bbe fe64 a1bd
000000c0: e3d0 88be 648a c6be 4575 443d 0d5d 2fbe
000000d0: ba72 aebe f924 a13e 59b2 8dbe 71a4 943d
000000e0: d123 cb3e 3ea1 be3e 7f78 d33d a142 713d
000000f0: 65ca e73d a6eb bf3e 6cc2 453e 9128 a43e
00000100: fed3 88be 7d38 423e 8c47 813e 3560 7e3e
00000110: 808a 5abe 303a 993e 2117 823c c162 c2be
00000120: 1f4d 953e 6acd a83e e21b 74be 43cc 8ebe
00000130: ff40 7c3e 3716 8b3e 7332 abbe 074b c9be
00000140: 955d 10be 9bfe a2be f993 babd de65 4c3e
00000150: 8545 4cbe e24d c43e 769c f3bd 791b 27be
00000160: 31b7 cd3e afd7 18be c99d 9a3e 48be ef3d
00000170: 52cd 863e 9d95 c33e fea8 c2be c500 b7be
00000180: b8cb ec3c e43f a0bd b39a 123e 04cf 993d
00000190: c0aa 5d3e 6362 233e b103 c13e ced1 843e
000001a0: c761 993e 1c2e 163e 4199 b03e c300 be3e
000001b0: cf05 41be d4b9 10be 3594 98be 4ee5 b6be
000001c0: 14c4 9b3e 61ce 703e e2b6 933e c6fc d03e
000001d0: 9bf3 aebe 5b8a cebd 5723 ce3d 771b 88be
000001e0: 6f97 89be 2099 253d 3509 3b3e 1d2f 94be
000001f0: 64e5 b93e 24d4 243d a0ef b2bc 8c8f 9f3d
-0.17294617 0.057527017 0.078068644 -0.14685558 0.30346236 -0.1217014 0.05069192 -0.32881138
-0.113762416 0.37389356 -0.0011374761 0.21948126 0.0796255 0.32602936 -0.24862182 0.108411185
-0.2245544 -0.045660652 -0.37407824 0.30099267 0.13670628 -0.06076838 -0.15216188 0.355678
-0.27087012 0.3115129 -0.19615628 -0.0037986299 0.4067825 0.25906405 -0.29449752 0.26347315
0.0052132127 0.25082195 0.22844835 0.031352457 0.008544127 0.20851286 -0.29474235 0.28328502
-0.2425281 0.15567428 0.35027438 0.30479866 -0.1789003 0.37045312 -0.23016998 -0.07880591
-0.26721868 -0.3877746 0.0479634 -0.1712534 -0.34071904 0.3147352 -0.2767513 0.07257927
0.39675763 0.37232393 0.10325717 0.058901433 0.113179006 0.37484473 0.19312447 0.320622
-0.26724237 0.18966861 0.25249898 0.24841388 -0.21341896 0.29927206 0.01588017 -0.37965968
0.291604 0.32969218 -0.23838761 -0.27890214 0.24634169 0.27165386 -0.33436927 -0.39315054
-0.14098199 -0.31834874 -0.09110255 0.19960734 -0.19948395 0.3834067 -0.11895077 -0.16319074
0.40178826 -0.14926027 0.30198506 0.11706215 0.26328522 0.38200083 -0.38019556 -0.35742775
0.028905734 -0.07824686 0.14316826 0.07510188 0.21647167 0.159555 0.3769813 0.25941318
0.2995741 0.14666027 0.34491923 0.37109956 -0.18849872 -0.14133388 -0.29800573 -0.3572182
0.30423033 0.23516227 0.28850466 0.4081785 -0.3417023 -0.10084983 0.10065334 -0.26583454
-0.26873347 0.040429235 0.18265231 -0.28942195 0.36307824 0.040241376 -0.021842778 0.07791051

conv1.normalization_1.running_var f4 [128]
00000000: fd3d 943e 3b77 913e 3c3e 9c3e b9c4 ea3e
00000010: 6be5 9b3e d065 af3e f913 1f3f 1891 a83e
00000020: 339d 9f3e 269e 3a3f d2bc 0a3f 8abb ea3e
00000030: 8419 a03f e711 af3e 8138 913e 2a80 a33e
00000040: 44da 943e 2495 b33e b12a 9d3e 63b7 913e
00000050: 50ab 9d3e 49b9 a43e 27e0 183f 1853 f33e
00000060: b747 493f 4a52 913e c127 913e 05b3 073f
00000070: f906 ab3e 2d50 993e de01 df3e ee17 9b3e
00000080: b9b0 a13e 03e0 a13e 6d85 a33e 0962 983e
00000090: 0eba 133f 6ac9 a93e d26f 9a3e c1fc a73e
000000a0: 5fa5 2f3f 2e7b 983e bcda c13e 5311 933e
000000b0: 9477 ac3e 388c 5f3f cd71 0d3f 4d8b 3a3f
000000c0: 41aa c03e 73b2 063f 0fe1 903e 824b 0b3f
000000d0: b877 9e3e 471f 113f 9181 083f 251d 0d3f
000000e0: de27 f93e 9296 9c3e 99f9 913e b717 943e
000000f0: f6ce 0b3f 0987 943e 0e57 923e 76ee aa3e
00000100: 35fc 9b3e a374 983e 185e e03e 562b a63e
00000110: 1d8c cb3e 6d21 993e c905 923e 9ed1 a43e
00000120: da9e 6a3f dd77 a23e 4d1c af3e 0819 933e
00000130: 9855 003f 39f5 f13e ed6a 9f3e 9ce0 d43e
00000140: 9f76 ed3e db32 7a3f 241d 013f 0a57 9d3e
00000150: 7961 b13e 18cf 953e d561 3f3f 2e2a 9b3e
00000160: eb21 af3e 9cfa 633f 4d08 983e 5f14 963e
00000170: 1ace 173f ee47 6b3f 621d 913e 6775 0e3f
00000180: 3293 163f a1b1 af3e a1c1 923e 5d90 c53e
00000190: ee4c bf3e 6afc c23e 37af 993e 2607 923e
000001a0: d8cb 9d3e 3d95 153f 0f61 063f f27d 913e
000001b0: 98d2 b63e 243c b43e 683f c73e 714d aa3e
000001c0: c602 be3e c6da ac3e 4c13 983e 483e c43e
000001d0: 7dc1 953e 82b1 953e 3da1 973e 7d95 a63e
000001e0: 251f d83e 461f 933e 69d9 d13e aaca c63e
000001f0: c4c8 f13e 14ca cb3e a894 d63e 698b a13e
0.28953543 0.28411278 0.3051623 0.45853212 0.3044847 0.34257364 0.6213985 0.32923198
0.3117462 0.72897565 0.54194367 0.45846206 1.2507787 0.34193346 0.28363422 0.3193372
0.29072773 0.35074723 0.30696633 0.28460225 0.30794764 0.3217261 0.5971703 0.47524333
0.78625053 0.28383094 0.28350642 0.5300754 0.33403757 0.29943982 0.43556112 0.30291694
0.3158014 0.3161622 0.31937733 0.29762295 0.5770577 0.3316148 0.30163437 0.32810023
0.6861171 0.2978148 0.37862194 0.28724155 0.3368498 0.8732333 0.5525177 0.72868806
0.37629893 0.5261604 0.28296706 0.5441209 0.30950713 0.5668835 0.533227 0.55122596
0.4866323 0.30583626 0.2851074 0.28924343 0.5461267 0.29009274 0.28582042 0.33385056
0.30465856 0.29776487 0.43821788 0.32454938 0.39755335 0.29908314 0.2852004 0.32191175
0.9164864 0.31732073 0.3420128 0.28730035 0.50130606 0.47257403 0.31136265 0.41577613
0.46379563 0.9773385 0.5043509 0.30730468 0.34644678 0.29259562 0.74758655 0.30305618
0.34205565 0.89054275 0.29693833 0.29312417 0.5929886 0.9190663 0.2834273 0.5564789
0.5881835 0.34315208 0.28663352 0.38586703 0.3736338 0.38083202 0.3001649 0.2852108
0.30819583 0.58430845 0.5249185 0.284164 0.35707545 0.35202134 0.38915563 0.33262208
0.3711149 0.3376066 0.29702222 0.38328767 0.29249182 0.2923699 0.29615203 0.32535926
0.4221126 0.28734797 0.40986183 0.38826495 0.47223485 0.3980261 0.4191029 0.31551674

conv1.normalization_2.weight f4 [128]
00000000: a872 803f d0cd 803f 667d 7f3f 136a 7f3f
00000010: ded5 7f3f b7f1 7e3f f0ab 803f 8316 803f
00000020: e926 803f 62fa 7f3f 0980 803f dd04 7f3f
00000030: 7168 7f3f 7b0c 7f3f 3327 803f ccb9 7e3f
00000040: 9362 7f3f 7bac 7f3f 00e1 7f3f fc81 7e3f
00000050: 088b 7f3f 52ea 7f3f c024 803f 09d9 7e3f
00000060: f279 7e3f 32d0 7f3f ca90 803f 5c37 803f
00000070: 6ec0 803f 0093 7e3f 8bc5 7f3f 5eeb 7f3f
00000080: 7464 803f d86a 7f3f aacb 7f3f 926b 803f
00000090: 966b 803f c35e 803f 0f54 803f 558a 803f
000000a0: fc0c 803f 9c1f 803f 9967 7f3f 7b1c 803f
000000b0: fa21 803f 63b8 7f3f 0443 7f3f a864 7f3f
000000c0: 48c1 7f3f feb1 7f3f f492 803f 8591 7f3f
000000d0: 8063 7f3f 29eb 7f3f c7d0 803f 4fbb 803f
000000e0: 3054 803f 6778 803f f5f5 803f 6bfc 803f
000000f0: 1250 803f 8ea3 7f3f 372b 803f a469 803f
00000100: 6254 803f d329 803f 95e0 7f3f 583b 803f
00000110: 9cc1 803f c8d6 7f3f 4936 7e3f 6edd 7f3f
00000120: c41d 803f ae49 803f 0721 803f f16d 803f
00000130: dde2 7d3f 45f1 803f bb3b 7f3f 2208 803f
00000140: e5a9 803f 6a88 7f3f ac0f 7f3f 7890 803f
00000150: d595 803f 108e 7e3f 050b 803f 0b7d 803f
00000160: b71b 803f 40c7 7e3f 96e3 803f aad1 803f
00000170: 6ced 7f3f 97b3 7f3f 1717 803f e238 7f3f
00000180: f2f7 7f3f 6948 7f3f df79 7f3f 9c58 7f3f
00000190: 8aab 803f ccb5 803f cc28 803f 0783 7d3f
000001a0: 7cb4 803f 196e 803f 1a9b 803f 511e 7f3f
000001b0: ad7c 7e3f e8c2 7f3f b125 803f 6302 803f
000001c0: 8ef4 7e3f 1986 7f3f 318b 7f3f acec 7e3f
000001d0: 3d3b 803f 1d52 7f3f 7d3d 803f b557 803f
000001e0: bc64 7f3f 8b99 7e3f 77ba 7f3f bc9b 803f
000001f0: b150 803f d677 7e3f c946 7f3f 3c85 7e3f
1.003499 1.0062809 0.9980072 0.9977123 0.9993571 0.9958758 1.0052471 1.000687
1.0011874 0.9999143 1.0039073 0.99616796 0.9976874 0.9962842 1.0011963 0.99502254
0.9975979 0.9987256 0.999527 0.9941709 0.9982152 0.9996692 1.0011215 0.9954992
0.99404824 0.99927056 1.0044186 1.0016894 1.0058725 0.99443054 0.999108 0.99968517
1.0030656 0.99772406 0.9992014 1.0032828 1.0032833 1.0028919 1.0025653 1.0042216
1.0003963 1.0009646 0.9976745 1.0008692 1.0010369 0.99890727 0.9971163 0.99762964
0.999043 0.9988097 1.0044847 0.9983142 0.997612 0.999682 1.0063714 1.0057162
1.0025692 1.0036744 1.007506 1.0077032 1.0024436 0.9985894 1.0013188 1.0032239
1.0025752 1.0012764 0.9995206 1.001811 1.0059085 0.99937105 0.9930158 0.9994725
1.0009084 1.0022485 1.0010079 1.0033551 0.9917429 1.007363 0.99700516 1.0002482
1.0051848 0.99817526 0.9963329 1.0044088 1.0045725 0.9943552 1.0003363 1.003816
1.0008458 0.9952278 1.0069454 1.0063984 0.9997165 0.9988341 1.0007046 0.9969617
0.9998771 0.99719864 0.99795336 0.9974458 1.005235 1.005548 1.001245 0.99028057
1.005508 1.0033599 1.0047333 0.99655634 0.9940899 0.9990678 1.0011503 1.0000728
0.9959191 0.9981399 0.99821764 0.9957988 1.0018078 0.9973467 1.0018765 1.0026766
0.99763083 0.9945304 0.998939 1.0047526 1.0024625 0.99401605 0.99717385 0.9942205

conv1.normalization_2.bias f4 [128]
00000000: 2c86 543b 9998 fb3b 25fa e13b bc28 28bb
00000010: 8052 30bb 7f65 a4bb db4c 053c 4e84 b0ba
00000020: 3546 bb3a 8cc2 4c3b c08b 2ebb 871e 9eba
00000030: bd28 88bb 8870 8bbb e425 ba3b aa43 97bb
00000040: 63d3 66bb 8464 09bb 1194 5dba 0ad8 4fbb
00000050: 3126 33bb 294c deba aad8 30bb 70a0 263b
00000060: b8a3 86ba edf1 0739 af7e 723b 7d6e 73bb
00000070: a3fa b33b 3f1e 913a b3d1 e239 f476 26ba
00000080: c0ee ce3a 58ef 2a3b 346c 8e3a b08b 2c3a
00000090: aae3 293a 5979 e43b 1c33 0e3b f54e 823a
000000a0: bc6b ba3a 194d 41b9 a5e1 29bb 24ba 1b3b
000000b0: bf9f 64ba 468f 9039 cbce 623a d125 86bb
000000c0: ccc8 c4ba 63d4 5b38 6ed8 f23a 9aa5 74bb
000000d0: 48bf 30bb 376a 0bb8 0f69 093c dc70 ee3b
000000e0: df0f 1bba 40cc e83a 2b6a dc3b 9c65 943b
000000f0: f615 4639 fef0 dbba 7c9a 4438 c15b a63a
00000100: 7dcd 2b3b 9ac5 c33a 9933 023c 5c6a 3d3a
00000110: a9a5 f83b c7f1 553b eec2 b6bb 05f9 06b8
00000120: 6b89 fe3a bd16 c23b cb51 92bb 235d 993b
00000130: 562d 07bc 61f4 ff3b 30e0 95ba 035f 4fba
00000140: f389 7d3b dd96 32bb 5d32 05bc 84db 6d3b
00000150: 8730 b23b b8e0 acbb 015a bf3a 2da6 17bb
00000160: 2653 763a 4dba 8bbb c459 043c 441d 393b
00000170: 7000 52ba 66f9 42bb ad1a 1d3b 67dc 39bb
00000180: 2ed8 5b39 23f7 d839 c897 06ba 2e86 953b
00000190: fbb9 f23a b992 c43b 1381 c33a 1108 0cbc
000001a0: 71dc 083c a709 9d3b 4abe af3b 44cf f5bb
000001b0: 8946 bd38 d533 04bb db2b b23a 78a1 cf3a
000001c0: ec06 45ba b995 8cbb b6fe 73bb 264f 89b9
000001d0: 8963 7d3b 3ec7 e13a 6821 493b b364 a43a
000001e0: 7524 4b3b a7b3 b5bb e593 18bb 40ee 303a
000001f0: 84ec e63a 8694 61bb 4148 a4bb a769 a8bb
0.0032428605 0.007678103 0.0068962746 -0.0025659045 -0.0026904643 -0.005016982 0.008136 -0.0013467164
0.0014287891 0.0031243889 -0.002663359 -0.0012063541 -0.004155247 -0.004255358 0.0056807864 -0.0046162205
-0.003522121 -0.0020964453 -0.00084525446 -0.0031714463 -0.0027335996 -0.0016959953 -0.002698461 0.0025425218
-0.0010272181 0.00012964728 0.003700178 -0.0037144714 0.0054925247 0.0011071636 0.00043262317 -0.0006350123
0.0015787706 0.0026082601 0.0010865987 0.00065820944 0.0006480763 0.0069724736 0.0021697944 0.0009941744
0.0014222781 -0.00018434635 -0.0025921848 0.0023762072 -0.0008721314 0.00027572567 0.00086520304 -0.0040938635
-0.0015013455 5.241147e-05 0.0018527636 -0.0037330152 -0.0026969481 -3.3239103e-05 0.008386864 0.0072766375
-0.0005915146 0.0017761067 0.0067265234 0.0045287143 0.00018890933 -0.0016780195 4.6873916e-05 0.001269214
0.002621501 0.0014936209 0.007946872 0.00072256266 0.0075881076 0.0032645331 -0.0055774366 -3.2180007e-05
0.0019419616 0.005923121 -0.004465317 0.004680292 -0.008250555 0.0078111147 -0.0011434611 -0.0007910581
0.003868696 -0.0027250566 -0.008129683 0.0036294172 0.005437914 -0.005275812 0.0014598967 -0.002313982
0.00093965454 -0.004264152 0.008078042 0.0028246203 -0.00080109295 -0.0029750704 0.0023972199 -0.002836013
0.00020966001 0.00041382862 -0.00051343115 0.0045631146 0.0018518561 0.005998936 0.0014915786 -0.008546845
0.008353339 0.0047924104 0.0053632604 -0.0075015146 9.0253605e-05 -0.0020172496 0.0013593392 0.0015840968
-0.0007515985 -0.0042903093 -0.0037230677 -0.00026189646 0.0038664064 0.0017225516 0.0030690078 0.0012542218
0.0030997072 -0.005545098 -0.0023281511 0.0006749369 0.0017618095 -0.0034420802 -0.005013496 -0.005139548

conv1.normalization_2.running_mean f4 [128]
00000000: a049 fe3c eec0 0bbe 8d03 bb3d c5f7 7ebe
00000010: a2a2 3ebe 3a4f 84bd d5cd c83c 5729 b1bd
00000020: 215a 31bd 4e2c 6a3d a367 923d e751 a63c
00000030: fe9c 4cbe a98d 9f3d c54a b0bc 4757 633e
00000040: b127 0d3e 0d24 013d 886b 813c 51ce 723d
00000050: 9113 9a3d 9d51 af3d fd4c c73d b6be d73b
00000060: ae6a 9f3c 84d2 173d b0da ea3d 0bea 80bd
00000070: 8a63 773e bf8d a2bd 0805 01be 428b 993d
00000080: 3901 93bd 6dfa e7bd f2ab 1dbd 3287 f3bd
00000090: 8e63 c43d ccbe 3d3c 6a4f f33d e4a5 e2bd
000000a0: 6bdc 07bc 9d8c 313e 6fb8 1dbd bfb5 de3d
000000b0: 4236 58bd 5a6a 27be 2aa5 d13d 408d 0b3d
000000c0: 26b7 493d 87c5 78be 1414 6a3c 26e7 6fbd
000000d0: 6c0f 47be b648 fabd 6385 2bbc 70f2 b7bd
000000e0: 2c38 173e 3700 183e c974 efbd ca28 de3d
000000f0: dfba 873d 642c 753d fa0a d2bb aa2a 533e
00000100: 0490 963c 19f7 eebd 67f0 973c 250e 24be
00000110: 1f0b 6dbd 103c 93bd b1e6 cdbd 9eca 923d
00000120: 9d51 0f3d f333 0bbd ff8c 4cbe 2c8b 03be
00000130: 8706 003d e30f 663d 166b e23d 3348 8d3e
00000140: b0d0 df3d 2ae4 bfbc 9311 7a3d ea61 07bc
00000150: 3987 0cbb fc9c 0e3d b768 82bc 9930 103e
00000160: dab4 56be 0f68 0ebd f8d5 18bc b331 10bb
00000170: 74cf fc3d 3cc1 123d 1a3d f2bc 0857 f5bd
00000180: c906 65bc 63af 4bbe e329 2f3e 3fd3 d2bd
00000190: 2c6d 2c3e 20e8 56be 7bd0 e03d 45a8 b4bd
000001a0: 5dbd 9a3d 285d a0bd f0f6 32be 225f 183e
000001b0: 4464 e3bd ed62 2a3e c4b2 f9bd dec1 22be
000001c0: a77e 00be 4b82 60bd 1ede 02bd bae3 9dbd
000001d0: 30f7 153e f798 a7bc c328 a03c f319 34be
000001e0: c6e8 7b3e 1e9c 353d 2dc5 b43d 183f 0b3d
000001f0: 5699 adbc 71fb 55be bc98 ea3c b5fb 21be
0.031040967 -0.13647816 0.09131537 -0.24899204 -0.18616727 -0.06460424 0.02451221 -0.08650463
-0.043298844 0.05717116 0.071486734 0.020302726 -0.19981763 0.077906914 -0.021520028 0.22201262
0.13784672 0.03152852 0.015798345 0.05927879 0.07523263 0.085604884 0.09731481 0.006584014
0.019460049 0.037065998 0.114674926 -0.0629464 0.24159065 -0.07937192 -0.12599576 0.074972644
-0.071779676 -0.11327062 -0.038494058 -0.11891021 0.09589301 0.011581134 0.118803814 -0.110667974
-0.008292298 0.17338796 -0.038505968 0.10874509 -0.05278612 -0.16349164 0.10236581 0.034070253
0.04924693 -0.242941 0.014287014 -0.05857005 -0.19439477 -0.122209 -0.010468814 -0.08981788
0.14767522 0.14843832 -0.11692197 0.10847624 0.0662744 0.059856787 -0.00641 0.20621744
0.018379219 -0.11668224 0.01854725 -0.1602102 -0.057871934 -0.071891904 -0.100537665 0.071675524
0.034989942 -0.03398509 -0.1997566 -0.12846059 0.031256225 0.056167495 0.11055581 0.27594146
0.10928476 -0.023424227 0.061051916 -0.008263091 -0.0021442904 0.03481768 -0.015919073 0.14081039
-0.20967427 -0.034767207 -0.009328358 -0.002200228 0.12344256 0.035828814 -0.029570151 -0.119794905
-0.0139786685 -0.19891123 0.17105822 -0.10294198 0.16838521 -0.20986986 0.109772645 -0.08821157
0.075556494 -0.07830268 -0.17477012 0.1488004 -0.111031085 0.166393 -0.121923 -0.15894267
-0.12548314 -0.054811757 -0.03195011 -0.07709451 0.14645076 -0.020458682 0.019550687 -0.17588024
0.24600515 0.044338338 0.08826671 0.033995718 -0.02119128 -0.20896699 0.028637283 -0.15818675
