classification/Lstm_Cnn/net/best_model_epoc4.pth (torch, 675170 bytes, 56 tensors)

conv1.conv_1.weight f4 [128, 1, 3]
000000 79 3e cf be 75 33 0d 3d b9 c5 9a 3e b9 d2 85 3e
       -0.4047735 0.0344729 0.30228975 0.2613733
000010 44 93 c3 3d 6a 31 bf be 44 bd 07 bf 2a e4 07 3f
       0.09549573 -0.37342387 -0.5302317 0.53082526
000020 19 80 78 be 29 7d ed be 79 ba b6 3e e6 6c 10 bf
       -0.24267615 -0.46384552 0.35689142 -0.56416166
000030 3c 49 bb 3e b9 e2 e0 be a4 ec 91 3e cc f2 32 be
       0.3657931 -0.43922976 0.28500855 -0.17475432
000040 9e 58 93 3b a2 2f 80 be e7 bf a4 3e 14 ce 8b 3e
       0.004496648 -0.2503634 0.3217766 0.27305663
000050 e2 5d b1 3e c7 9b 68 be a6 c4 10 3f d6 c9 38 bb
       0.3464194 -0.22715674 0.5655006 -0.0028196475
000060 fd c1 03 be 9f d7 02 bf e8 a7 d0 3e 8d 64 fd be
       -0.1286697 -0.5111026 0.40753102 -0.49490777
000070 01 dd c0 be 96 29 52 be 35 e1 58 3e 14 ab 66 3e
       -0.37668613 -0.20523676 0.2117966 0.22526199
000080 e2 94 bf 3e 88 62 9e 3c 0b fa 8d 3e 66 2f bf 3e
       0.37418276 0.019334093 0.2772983 0.3734085
000090 55 7c 0c bf 2a fb f7 be 38 e4 0c bf 51 b5 d2 be
       -0.54877216 -0.4843381 -0.55035734 -0.41153958
0000a0 d5 00 92 3e af 9c 02 3f 48 86 48 3e 2f 27 e6 be
       0.2851626 0.5102033 0.19582474 -0.4495177
0000b0 60 b5 8d 3e cf f6 a2 3e f0 d2 01 3f 54 93 08 bf
       0.2767744 0.31828925 0.5071249 -0.53349805
0000c0 ef 00 bf bd 29 f8 9c be bc 06 fd 3e b4 6e a1 3e
       -0.0932635 -0.3065808 0.494192 0.31529772
0000d0 7f f1 94 3d 6c d6 3a 3d 97 3e 86 3e 40 53 e2 be
       0.07272624 0.045614645 0.26219627 -0.4420414
0000e0 89 74 2c bd af fc db be 42 77 54 3e 07 cc 3a 3e
       -0.042103324 -0.4296622 0.20748618 0.18241893
0000f0 3c 38 fe be 03 d6 b0 bc d9 3f 8c 3e 83 7c 93 3e
       -0.49652278 -0.021586424 0.27392462 0.28805932
000100 2e 1a 0a 3f 33 ec 06 bf 17 2f 45 be 35 93 7b be
       0.539462 -0.5270416 -0.19256245 -0.24567874
000110 0e c6 fd be 37 51 0d bf ab ab d9 be 52 1e 8a 3e
       -0.49565166 -0.5520205 -0.42513785 0.26976258
000120 75 16 01 bf 2c 70 8b be c4 a9 c7 be 93 72 e6 be
       -0.5042489 -0.27234018 -0.38996708 -0.45009288
000130 ce c7 03 3f ee 58 8d bd 64 35 45 be 92 95 06 3f
       0.5147675 -0.069017276 -0.19258648 0.52571976
000140 3f e5 aa be 71 aa 6f be eb c9 35 be c3 2e c6 be
       -0.33378026 -0.23404862 -0.17752807 -0.3870755
000150 da 43 8d be 5a b0 09 be 6b bf 41 3d 17 a4 b1 be
       -0.2759083 -0.13446179 0.04730169 -0.34695503
000160 4f fb 02 bd e3 bc 0f 3f bd f8 83 3b 31 90 9d bd
       -0.031977948 0.56147593 0.0040274546 -0.07693518
000170 3a fb 11 bf 35 89 db be 76 f5 92 3e 02 a8 ad 3e
       -0.57023966 -0.42878118 0.28702897 0.33917242
000180 7f 7f 0a bf 63 e7 06 3e 24 33 0d 3e b9 9d 75 be
       -0.54100794 0.13174205 0.1378904 -0.23985948
000190 62 86 e0 3e 97 ca 96 3d 81 9f e8 be 65 d2 ef 3e
       0.43852526 0.0736286 -0.45434192 0.46840206
0001a0 05 f3 82 3e 7f d1 8e be 19 95 2b 3d 06 be d4 3e
       0.25576034 -0.27894208 0.041890237 0.41551226
0001b0 e5 99 e4 3e 8e 0e 8d 3e 1a 42 24 3e c6 3d ed bc
       0.44648662 0.27550167 0.1604084 -0.02896012
0001c0 5a 18 c9 3d 27 40 d6 be 3e 4c 9b 3c 67 fa 0e bf
       0.09819098 -0.4184582 0.018957254 -0.55850834
0001d0 65 65 b0 3e 2d dc ca be c7 ca c5 be d0 8e ef 3e
       0.34452358 -0.39621106 -0.3863127 0.46788645
0001e0 d4 79 3d be e4 c8 c8 be 86 fa ee be ec db 86 3e
       -0.18503505 -0.39215767 -0.4667551 0.26339662
0001f0 0a d5 01 bf 5f 44 e5 3e c5 da 43 3e cb 3a 0c 3f
       -0.50715697 0.44778726 0.19126423 0.5477721
000200 b0 e4 5b be bf a7 f9 be 9b 30 2b bd 91 51 f2 3e
       -0.21473956 -0.48760793 -0.0417944 0.47327855
000210 96 a9 8f be a5 3a 0a bf fa 6f e1 3e ac ef cd 3e
       -0.2805907 -0.53995734 0.44030744 0.40221918
000220 9e b7 f4 3e 99 db c0 3e 32 0d c1 3c 02 6f f0 be
       0.4779634 0.3766754 0.023565862 -0.46959692
000230 57 45 cc be c5 d0 87 be e7 00 bd be 6b 1e e9 be
       -0.39896652 -0.26526466 -0.3691475 -0.4553102
000240 a7 81 dd 3e f7 3c db 3e ea d2 c0 be b7 58 2b bd
       0.4326298 0.4281995 -0.37660915 -0.041832652
000250 1e 7f 0c 3f 63 ee 90 3e 6f 99 ef bd ce ca 27 be
       0.54881465 0.28306875 -0.11699187 -0.16385958
000260 0d a7 95 3e e2 ea 74 be 6e 2e e2 be 22 97 1e be
       0.29229012 -0.23917726 -0.44176048 -0.1548734
000270 4a e4 c0 3e b8 64 65 be 04 ba ca be 12 00 63 be
       0.3767417 -0.22401702 -0.39595044 -0.22167996
000280 52 db 5f be 39 8e d7 be a1 90 b1 bc 2e 3d 96 3e
       -0.21861008 -0.42100695 -0.02167541 0.2934355
000290 53 9b 06 3f be 31 22 3e 8f e6 e8 3e 1a f6 68 3e
       0.52580756 0.15839288 0.45488402 0.2275013
0002a0 0d 5f 15 be 7d 5b de be 7e 8c 0f be 2e ff 88 3e
       -0.1458704 -0.43429175 -0.14018437 0.26757187
0002b0 11 ef ea 3d 8e ef 2c be 96 d4 d2 bc 29 84 43 3e
       0.114713795 -0.16888258 -0.025736134 0.19093384
0002c0 dd 34 af bd f4 17 d8 3e 94 37 bd be f0 3d 8f 3d
       -0.08555005 0.42205775 -0.36956465 0.069942355
0002d0 d2 aa 9a 3e 6c df ee 3e eb bc a0 3d 3e 76 e1 3c
       0.3020845 0.46654832 0.07848533 0.027522203
0002e0 fd ca fa 3e 1d 58 d8 be 7c 84 86 be 1b 7d aa be
       0.48982993 -0.42254725 -0.26272953 -0.33298573
0002f0 18 e0 0e 3f 57 0b 12 3d 07 92 ea be 9e c5 8a 3d
       0.5581069 0.035655346 -0.45814535 0.06775974
000300 40 da 0c bf 36 9e 9f 3e a0 76 e5 3e 6d ca 7b 3e
       -0.55020523 0.31175393 0.44817066 0.24588938
000310 50 d9 e7 bd e6 32 a4 be 2f d0 01 3f e0 28 c3 bd
       -0.11320746 -0.32070082 0.5070829 -0.09529281
000320 16 6a 6e 3e 73 90 28 bd 3f 05 f1 3e e3 7a d6 bd
       0.23282656 -0.041153383 0.47074315 -0.104726575
000330 cc c7 bc 3e 43 0e d9 be 5c ee f8 be aa 6f c3 3d
       0.36871183 -0.42393693 -0.48619354 0.095427826
000340 4c 5d f7 3e 24 6d c1 be 62 42 c9 3e 6e 33 a4 3d
       0.48313367 -0.3777858 0.3930846 0.08017622
000350 75 2b 00 bf 1b 77 b0 be 65 50 98 bd da a1 cc 3d
       -0.5006631 -0.3446587 -0.07437209 0.09991808
000360 0c bc 80 3e 71 5c 04 3f c4 09 08 3f 5e dc f2 be
       0.25143468 0.51703554 0.531399 -0.47433752
000370 90 31 a7 3e 96 5c 18 be e4 d3 12 bd bd e7 0a 3f
       0.32655 -0.14879069 -0.035846606 0.54259855
000380 db 08 d7 bd 97 0d 75 be 11 66 a3 3e e3 28 fb 3b
       -0.10499736 -0.23930965 0.31913808 0.007664786
000390 97 bd 28 3e 32 cb 5e 3d a0 7c 09 3f 5c 98 ed 3e
       0.16478573 0.054393 0.5370579 0.46405303
0003a0 b0 31 49 3e 06 a8 86 3d ed e2 2e 3e c6 70 6d be
       0.1964786 0.06575017 0.17078753 -0.23187551
0003b0 08 26 a7 3e 78 fd ec 3e be b5 e4 3e a2 e2 a8 be
       0.32646203 0.4628713 0.44669908 -0.32985407
0003c0 54 42 87 be d1 75 ff 3e e3 79 eb 3e eb 0e b5 3e
       -0.26417792 0.49894574 0.4599143 0.35362944
0003d0 88 ee f0 3e ae 20 07 3f 36 bd 9a be 29 c8 e7 be
       0.47056985 0.5278424 -0.3022248 -0.45269898
0003e0 5f 52 85 bb 5b 98 b5 3e 05 41 83 be ee b8 b2 be
       -0.0040686573 0.354678 -0.25635543 -0.34906715
0003f0 81 af 10 bf ff 83 b1 3d 51 e9 99 3d da 87 a0 be
       -0.565178 0.086677544 0.07515205 -0.31353647

conv1.conv_1.bias f4 [128]
000000 b5 06 78 be ca 32 99 3d b2 f9 d6 3d 6c e6 5d be
       -0.24221309 0.0748039 0.10496844 -0.2166993
000010 b0 29 da 3e fc f0 34 be 56 85 b4 3d 10 04 e8 be
       0.4260993 -0.17670053 0.08814494 -0.453156
000020 53 6f 27 be 50 74 00 3f c1 97 54 3c fb 3b a3 3e
       -0.1635106 0.5017748 0.012975634 0.318817
000030 78 41 a7 3d 8f bd ec 3e 4b 16 b0 be b6 a2 1f 3e
       0.08166784 0.46238372 -0.34392008 0.15589413
000040 85 b9 9e be 51 ed 64 bd c5 c4 06 bf 40 d0 d4 3e
       -0.31000915 -0.055890385 -0.52643996 0.41565132
000050 75 e0 3c 3e 27 2b a1 bd 87 66 6a be 03 1b f7 3e
       0.18444999 -0.07869559 -0.22890674 0.48262796
000060 73 0b cc be 8d 25 d9 3e b0 23 89 be c2 84 a3 bc
       -0.39852485 0.4241146 -0.2678504 -0.019960765
000070 54 68 0f 3f 79 5b bb 3e 01 9d d8 be de ad be 3e
       0.5601857 0.36593226 -0.42307284 0.37242025
000080 69 c9 db 3a b1 69 b6 3e cc e5 a5 3e 10 85 49 3d
       0.0016768399 0.3562751 0.32401884 0.049199164
000090 54 37 e6 3c a9 63 91 3e cd 70 d5 be 4c e2 c7 3e
       0.028102554 0.28396347 -0.41687623 0.39039838
0000a0 e5 f4 b6 be a9 23 60 3e 84 43 fe 3e 69 13 d6 3e
       -0.35733715 0.21888603 0.49660885 0.41811684
0000b0 a6 db 82 be 24 02 0a 3f 89 1c ac be 84 9a 04 be
       -0.25558203 0.53909516 -0.3361552 -0.12949568
0000c0 40 ff b9 be 53 6c 06 bf 11 cf 96 3d 1f fa 81 be
       -0.36327553 -0.5250904 0.073637135 -0.2538614
0000d0 58 b3 f6 be a1 61 d8 3e 78 7d bd be 95 e2 ef 3d
       -0.48183703 0.42261985 -0.37009788 0.11713139
0000e0 f2 11 0a 3f c0 99 05 3f 73 d9 14 3e eb f9 ad 3d
       0.5393363 0.5218773 0.14536075 0.08494934
0000f0 b2 a2 31 3e 73 8f 05 3f 52 2c 88 3e 3e 90 e1 3e
       0.1734722 0.5217201 0.26596314 0.4405536
000100 13 ca bc be a2 0d 86 3e e3 12 ba 3e 3c 8b b4 3e
       -0.3687292 0.26182276 0.36342534 0.35262477
000110 f1 bb 9c be 12 99 d6 3e 93 58 bd 3c 87 6d 09 bf
       -0.30612138 0.41913658 0.023113525 -0.5368275
000120 f9 09 dc 3e 4b 91 e9 3e a9 a7 a6 be 4b 94 c5 be
       0.4297636 0.45618662 -0.3254979 -0.385897
000130 fe ef b6 3e c5 39 c8 3e fe 31 ec be e9 94 09 bf
       0.35729975 0.39106575 -0.4613189 -0.53742844
000140 3d 83 3b be 4d 13 d6 be 1d 7c 0e be bf 61 8d 3e
       -0.18311782 -0.418116 -0.13914533 0.27613637
000150 f2 8a 91 be 8d d2 07 3f 0c 2d 3f be 3d 0f 66 be
       -0.2842632 0.5305565 -0.18669528 -0.2246675
000160 ce ba 0d 3f 82 8b 3c be 51 6b d6 3e a8 d3 20 3e
       0.55363166 -0.18412593 0.4187875 0.1570574
000170 59 69 c4 3e 29 1b 02 3f fd 41 02 bf 69 d1 f6 be
       0.38361624 0.50822693 -0.5088194 -0.48206642
000180 d8 6d 6a 3d 5a cf d0 bd 20 61 4e 3e 9c e5 c3 3d
       0.05723366 -0.10195799 0.20154238 0.09565279
000190 23 1b a0 3e b7 b7 5a 3e 54 7a 05 3f a7 27 b6 3e
       0.31270704 0.21359144 0.5213978 0.35577127
0001a0 ad bc d8 3e e3 63 40 3e b0 c0 fd 3e 09 2f 03 3f
       0.42331448 0.18788104 0.4956107 0.51243645
0001b0 df 28 82 be eb 00 52 be 55 56 cf be e2 50 01 bf
       -0.25421807 -0.20508163 -0.40495554 -0.5051404
0001c0 68 95 d4 3e b1 8e a3 3e 69 3a cf 3e 49 53 0f 3f
       0.41520238 0.31944802 0.4047425 0.5598646
0001d0 d2 61 f1 be e9 f9 14 be 8a c8 11 3e 63 fd c0 be
       -0.47144943 -0.14548458 0.14236656 -0.3769332
0001e0 78 26 ba be 6b 22 72 3d 4d 92 87 3e 18 71 ca be
       -0.36357474 0.059114855 0.26478806 -0.3953941
0001f0 24 89 fc 3e c4 a1 3a 3d 13 af a3 bc f3 b8 d2 3d
       0.4932338 0.045564428 -0.019980943 0.102891825

conv1.conv_2.weight f4 [128, 128, 3]
000000 6d 3a 03 bd 85 52 bd bb 36 bc d5 3c fc 90 a4 3b
       -0.03203814 -0.0057776594 0.026090723 0.0050221663
000010 db ea 30 3d 77 12 1d bd 13 bc ea bc 05 a5 c3 3b
       0.043192726 -0.038347688 -0.028654134 0.0059705996
000020 92 bc d6 3c 61 87 41 3d 5b 28 66 3c a2 06 0c 3d
       0.026212964 0.047248248 0.014047707 0.034186013
000030 fe c2 9b 3c 24 78 41 3d ba 3f 20 bb 42 bd 8f bc
       0.019013878 0.047233716 -0.0024452046 -0.0175463
000040 31 b2 46 bd ed d6 0a 3d 1b 25 3e 3c 0d ca 36 3c
       -0.04850978 0.033896375 0.011605526 0.011156571
000050 85 20 d8 3c a5 e5 0d 3c 24 de 1f 3d f9 e0 08 bd
       0.026382694 0.008660709 0.03903021 -0.033417676
000060 4a 85 4b bd 63 79 21 bd f3 4b 22 bb c2 bd 93 3b
       -0.04968766 -0.039422404 -0.0024764508 0.004508705
000070 fd db c3 3b e8 8b c6 bc 8a 25 34 bd c2 b4 1f bd
       0.0059771524 -0.024236634 -0.043981113 -0.038990743
000080 56 dc 06 bd 87 c1 20 3d 40 c6 82 bb cd 2b 85 3c
       -0.032924972 0.039247062 -0.0039909184 0.016256237
000090 ed 0f 9e 3c 32 11 23 3d ea 3f 8f 3c 1f d7 17 3d
       0.019294703 0.03981132 0.017486531 0.03707039
0000a0 44 e4 96 3b 17 4c 39 bd b2 d5 37 bd e2 0a 26 bc
       0.004604848 -0.04523858 -0.04488153 -0.010134431
0000b0 9c e7 bf 3c 9d 30 3d bd 91 a2 80 bb 38 a7 07 3d
       0.02342587 -0.04618894 -0.0039256294 0.033118457
0000c0 f7 82 42 3d f8 54 ae bb a1 e8 b2 bc 7d 70 d9 3b
       0.04748818 -0.0053201877 -0.021839442 0.006635724
0000d0 2a bd 00 bd b7 2f 5d 3c fe 8b 44 bd 5d 36 45 3c
       -0.0314304 0.013500146 -0.04798507 0.012036887
0000e0 16 9a 0c bd cb 6f a7 3c 65 6f ad 3b d8 e5 27 bc
       -0.034326635 0.02043905 0.0052928203 -0.01024767
0000f0 63 21 e4 3c da 7a 40 bd 27 5a 18 3d 43 9c 0a bd
       0.027847951 -0.04699216 0.03719535 -0.03384043
000100 96 90 90 3c 47 80 32 3d 1f 3d 3a 3d a4 9e 39 bd
       0.017647069 0.043579366 0.045468446 -0.045317307
000110 e0 1d a6 bb 7b e3 78 3c e3 54 a9 bc 98 c8 d3 bc
       -0.0050694793 0.015190954 -0.02067036 -0.025852486
000120 0e b5 0b 3d 3d 67 2c bd 64 fc 30 bd a4 d1 51 bd
       0.034108214 -0.042090643 -0.04320945 -0.05122532
000130 a5 2e cc 3b f7 84 dc 3c f0 1e 32 3d e6 e3 41 3d
       0.0062311464 0.026918871 0.043486536 0.04733648
000140 be 57 c2 bc 63 1f 36 bc 31 79 30 bd f3 f3 3b 3b
       -0.02372348 -0.011115882 -0.043084327 0.002867934
000150 38 dd 0d bd c8 85 2b 3d 6d 18 59 bd f6 e7 6e 3d
       -0.0346348 0.04187563 -0.05300181 0.058326684
000160 bf a0 4c bd 06 7a 49 bc e4 0f 05 bd e8 3a 78 3c
       -0.049957987 -0.012297159 -0.032485858 0.015150763
000170 de b3 04 bd be f0 f1 bc 42 48 cc bc 72 29 13 3d
       -0.032398097 -0.02953374 -0.024936799 0.035928197
000180 19 ce 37 3d ff 7b 29 bd 57 b4 2c 3c 71 82 8c bc
       0.044874284 -0.041378018 0.010541043 -0.017152043
000190 08 f3 5e 3d 4a e2 41 bd 86 da 74 3c d2 b0 d9 3c
       0.05443099 -0.047334947 0.014944678 0.026573572
0001a0 2a b0 3d bd 1d eb 0d 3c b0 8e 68 bc 9a 24 0b bd
       -0.04631058 0.008662012 -0.014194176 -0.033970453
0001b0 75 01 06 bd e1 58 35 bb e9 9a f3 bc b0 38 a3 3c
       -0.032716233 -0.0027671384 -0.029736953 0.019924492
0001c0 a1 4b 2f bd e8 42 90 ba c0 45 b6 bc c0 fd 4b bc
       -0.042796735 -0.0011006268 -0.022250056 -0.012450635
0001d0 24 e4 24 3d 61 23 05 bd 46 b7 3e bd 5e bf 34 bd
       0.040256634 -0.032504443 -0.046561502 -0.044127814
0001e0 ef 7b 18 3d c5 4a 83 3b a2 c3 97 bc 6b 1a 98 bc
       0.037227567 0.004006716 -0.018525902 -0.018567285
0001f0 0f 1c 1a bd 7b 14 94 bc bc 3d 0f 3c 3d 51 84 bc
       -0.037624415 -0.018076172 0.008742746 -0.016152019
000200 45 ab 50 3d 43 93 bf bc fe ab 59 3b c7 67 bd 3c
       0.050944585 -0.02338565 0.0033214088 0.023120774
000210 83 75 41 3b df 3f 00 bd 98 1b b5 bc 4a 4b 0c bd
       0.0029519505 -0.031310912 -0.022107884 -0.03425149
000220 8c 3d ba bc 2a eb d5 3a b0 a1 0c bd 26 54 91 3c
       -0.022734426 0.0016320695 -0.034333885 0.01774032
000230 ca 97 b9 3c 9a c7 d7 3c 49 12 2f 3d 35 2c b5 bc
       0.022655386 0.026340295 0.042742047 -0.022115806
000240 aa f1 54 bb 5c 15 d7 bc fd de 30 3d 42 f8 33 bb
       -0.0032492676 -0.026255302 0.04318141 -0.0027461206
000250 bd 37 57 3d b2 27 24 3c 18 73 97 bb c9 88 32 bd
       0.05254339 0.01001923 -0.0046218745 -0.04358748
000260 61 96 64 bd 14 da 1a 3c d8 e3 02 bd 7a a6 33 3c
       -0.055807475 0.009451408 -0.03195557 0.010964984
000270 9e d4 33 bc 81 09 04 bd e7 b7 e4 3c 2e 46 0f bd
       -0.010975985 -0.032235626 0.027919723 -0.034979038
000280 7d 8b c9 3b a9 71 0e bd 62 33 50 3d 57 df 04 bd
       0.0061506615 -0.034776364 0.050830252 -0.032439556
000290 58 74 4a 3c 7e 64 29 3d 65 aa fd bc d1 02 b0 3c
       0.01235684 0.041355602 -0.03096504 0.021485718
0002a0 38 c8 31 bd 77 66 23 3d 78 f0 10 3d 76 15 19 bd
       -0.043403834 0.03989264 0.03538558 -0.037373982
0002b0 5a d5 0e bc fc 3d 19 3d be c3 22 3d df a4 02 bd
       -0.008717859 0.03741263 0.039737456 -0.031895515
0002c0 da 04 d5 3c 2b 40 49 bc ec e2 0a bd d3 63 e5 bc
       0.02600329 -0.012283365 -0.033907816 -0.028001701
0002d0 7b 98 6d 3c a6 58 c5 3c e1 35 ff bc 1b 43 23 3d
       0.014501686 0.024090122 -0.031153621 0.03985892
0002e0 12 37 ae 3c 3b 7c 22 bb f7 eb 3b bd 2d 1e b8 bb
       0.021266494 -0.0024793285 -0.04587933 -0.0056188316
0002f0 c5 28 64 bb ae 8e 9e bb 75 0f 2b bd b4 3f 94 3c
       -0.003481434 -0.004838786 -0.041762788 0.018096782
000300 2c 7f 39 3d 56 57 f0 bc f0 c3 0d bc 65 4d 57 39
       0.045287296 -0.02933852 -0.008652672 0.0002053283
000310 61 d4 99 3b 6c ec 52 3c 78 14 f7 ba ea e5 3a 3d
       0.004694507 0.01287375 -0.0018850705 0.04562942
000320 56 27 b4 3c c0 3d 04 3d d6 37 01 3d af 57 66 3b
       0.021991413 0.032285452 0.03154739 0.0035147478
000330 a7 a7 d3 ba e4 cc 23 bc 7d 5a 1f bd 57 50 11 bd
       -0.0016147987 -0.00999758 -0.038904656 -0.03547701
000340 29 05 1d bd 8e 0b 2e bd 77 2d d0 ba 50 9e 53 bc
       -0.038335 -0.04249149 -0.001588269 -0.012916163
000350 89 8e 13 bd 7f 47 32 3d 69 f2 21 3b 8d 9e 8b 3c
       -0.036024604 0.043525215 0.0024711138 0.017043376
000360 68 d4 19 3d c7 28 4e 3a 50 4f 6c bb f9 02 12 bd
       0.037556082 0.00078643527 -0.0036058016 -0.035647366
000370 48 76 a1 3c 4e dc 5c 3c 65 36 87 ba b7 94 a5 3c
       0.019709721 0.013480259 -0.0010315893 0.020212514
000380 fb b5 c2 bc 22 a5 41 3d fe 09 52 bc 6a 18 8b 3c
       -0.023768416 0.047276624 -0.012819765 0.016979415
000390 ac 5a d0 3c 9f b4 28 bc 6e fe 39 bd 10 bb 9d bc
       0.02543386 -0.01029697 -0.04540866 -0.019254237
0003a0 fb 88 1f bd 8e bc b2 bc 2f 7e 82 3c 73 f3 14 bd
       -0.038948994 -0.021818426 0.01592931 -0.036364984
0003b0 59 38 03 3d 89 97 d9 3c ac ea c0 bc 25 69 d1 3c
       0.03203616 0.026561515 -0.0235494 0.025562832
0003c0 a6 f6 2a 3d 6a ee 3e 3d 17 1f d2 bc 0d 8e a2 3c
       0.04173913 0.046614088 -0.02564959 0.019843126
0003d0 b5 67 64 bc ba 5f b3 bc 19 63 d9 bc 44 c5 13 3d
       -0.013940741 -0.021896232 -0.026536511 0.0360768
0003e0 71 aa 9f 3c 73 d2 d5 3a 94 01 b4 bc 2d cd 08 bc
       0.019490452 0.0016313329 -0.021973409 -0.008349699
0003f0 ea 57 1a ba 75 40 2f 3d 8a 35 d3 3c 44 44 a7 3c
       -0.0005887734 0.04278608 0.025782365 0.020418294

conv1.conv_2.bias f4 [128]
000000 87 ae 0a 3c 2b f2 19 bd c7 a6 d3 3c 57 ff d0 bc
       0.008464462 -0.037584465 0.025836362 -0.02551238
000010 2f 06 47 bd d4 a7 02 bd 79 90 9d bc 53 a1 27 3d
       -0.04858988 -0.031898335 -0.019233929 0.040925335
000020 e8 93 1a bd b7 e7 24 3d 11 05 e9 3c e7 5a d7 bc
       -0.03773871 0.040260043 0.028444799 -0.026288463
000030 7f 99 05 bd 73 9b 42 3d 7c a3 00 bd 76 c5 47 3c
       -0.03261709 0.04751153 -0.03140591 0.012193074
000040 fb 09 44 bd 81 7f 35 bd 35 05 cc bc e4 76 25 bd
       -0.04786108 -0.04431105 -0.024904827 -0.040396586
000050 f7 34 cb 3c e4 77 7c bb d7 62 09 3d bb 35 44 bd
       0.024805529 -0.0038523609 0.033541527 -0.047902804
000060 30 54 83 ba 10 fd 20 3d 00 e7 a9 3c f7 67 01 bd
       -0.0010019597 0.03930384 0.020740032 -0.03159329
000070 60 6a 92 ba 7e 34 b9 39 97 df 89 3c 64 4f c4 3b
       -0.0011170618 0.0003532506 0.016830249 0.0059909094
000080 fd 2a 1f 3d 92 08 81 bc d0 14 e3 3c e3 e6 20 3d
       0.038859356 -0.015751157 0.027719885 0.03928269
000090 02 c9 bd bc ff 9e cb bc 24 15 c9 3c ae eb 20 3d
       -0.023167137 -0.024856089 0.024546213 0.03928726
0000a0 0a 61 35 bd 5c da 18 3d cd aa 57 3c 19 5f 04 bc
       -0.044281997 0.03731762 0.013163281 -0.008079314
0000b0 30 70 97 bc b2 cc 46 bc f4 ec b0 39 50 29 cc 3c
       -0.018486112 -0.012133764 0.0003374588 0.024922043
0000c0 cb bc 34 bb 47 7b 15 bd 84 bf a0 bc 74 50 1c bd
       -0.002757835 -0.03649452 -0.019622572 -0.038162664
0000d0 eb e1 75 bc 31 da 38 3d 75 67 f1 3c 62 19 1a bb
       -0.015007476 0.04512996 0.029468277 -0.0023513664
0000e0 0e 46 0a bd 33 a0 4c 3c 98 6d 20 bd 37 81 19 bd
       -0.033758216 0.012489366 -0.039167017 -0.037476745
0000f0 34 07 bc 3b 37 1d b4 3b 60 1d cb bc 1e 1d 31 3d
       0.0057381634 0.0054966467 -0.02479428 0.04324066
000100 73 8f 3f 3d 04 0e 01 3c 68 12 4b 3d c3 49 8d bc
       0.046767663 0.007876877 0.0495781 -0.017247086
000110 d2 42 9c bc 0c 8e 02 bd 73 2a bc bc df 73 0a bb
       -0.019074831 -0.031873748 -0.02296946 -0.0021126193
000120 5c b5 03 3d 2f 17 85 bb 6f 27 60 3b 09 4b d6 bc
       0.03215538 -0.0040616016 0.0034203192 -0.026158826
000130 6a 74 32 3d 04 51 cb bc f2 b8 2d bc 8a f9 ee bb
       0.043568052 -0.024818905 -0.010603176 -0.007292931
000140 84 14 b9 bb 0c 15 3c bd 06 30 24 bd 59 a0 2f bd
       -0.0056481976 -0.04591851 -0.04008486 -0.04287753
000150 8d e5 27 3d 09 70 e1 bc 7c 65 2f 3d c4 7a eb bb
       0.0409904 -0.027519243 0.042821392 -0.0071862657
000160 5b 53 fe 3b c9 21 84 3c 6f c2 c3 bb 87 e0 66 3c
       0.0077614016 0.016129391 -0.005974106 0.014091617
000170 d4 a4 14 ba 09 61 fc bc 46 ab 14 bd d9 08 28 bc
       -0.0005670313 -0.030807989 -0.03629615 -0.010256016
000180 d8 f4 2f 3c 61 fb 79 bc f3 64 09 bc a4 70 f0 3c
       0.010739528 -0.015257687 -0.008385885 0.029350586
000190 23 c5 b5 bc 8b 93 9b 3c d6 e9 cc 3c 1b dc 49 3d
       -0.022188729 0.018991252 0.025013845 0.049282175
0001a0 42 bf 0b 3d 33 14 9b bc 00 57 2e bd ed b0 c2 3c
       0.034117945 -0.01893053 -0.04256344 0.023766005
0001b0 aa 37 3c bd 34 a7 73 3c 38 de fd bc 43 83 b4 3b
       -0.045951523 0.014871407 -0.030989751 0.0055088117
0001c0 29 6f bf bc 00 8f 3f bd 87 26 0b bd ca de 87 3c
       -0.023368435 -0.046767235 -0.03397229 0.016585726
0001d0 62 d0 be bc 4b ca 95 bc 9e c9 f9 3c c0 b8 a7 3b
       -0.023292724 -0.018284937 0.030491646 0.0051184595
0001e0 e9 9f 71 3c 9f bf 19 bd a0 75 87 3b 9d 8b 1d 3d
       0.014747598 -0.03753626 0.004133895 0.038463224
0001f0 89 5b 1e ba fd a9 8b bc 00 0d fa bb f2 f7 e8 3b
       -0.00060408615 -0.01704883 -0.0076309443 0.0071096355

conv1.conv_3.weight f4 [128, 128, 3]
000000 0e 0d 53 bd 2f 61 48 bd 11 81 43 3d cc 8d 68 bc
       -0.05152612 -0.048920806 0.04773051 -0.014193963
000010 b7 57 58 3d 53 f3 2c bc db aa 39 bd 3c f8 70 bc
       0.052818026 -0.01055606 -0.045328956 -0.014707621
000020 9f 77 1e bd 5e 9c bf ba a6 ff 31 bb 5f 27 34 3d
       -0.0386883 -0.0014618745 -0.0027160435 0.04398286
000030 df 8e 9a bb 65 85 2b bc a5 03 18 bd 52 ef 35 bd
       -0.0047167386 -0.010468815 -0.03711285 -0.044417687
000040 9b b2 c0 3c 53 ca 28 3d ba 88 34 3d 42 44 a1 3c
       0.023522666 0.041208576 0.044075705 0.019685868
000050 32 f6 f3 3c 78 bc 14 3d ca fa 26 3d 7e 73 f8 3c
       0.029780481 0.03631255 0.040766515 0.030328508
000060 cf 2c 36 bd 99 17 37 3d 87 a5 14 3c 58 af c1 bc
       -0.044476327 0.04470024 0.009072668 -0.02364318
000070 0d 2b ac bb 85 68 4f 3c 27 4b c0 bc d6 63 a2 bb
       -0.0052541555 0.012659197 -0.023473335 -0.004955749
000080 44 52 93 bb 85 b2 40 3a 25 5a a5 3c 26 19 1c 3d
       -0.004495891 0.000735082 0.020184586 0.03810992
000090 aa 39 11 3d f7 cf 1f 3d e5 e8 08 3d 0e c6 ac 3c
       0.035455383 0.03901669 0.03342523 0.021090534
0000a0 9c fe e6 3b cb a4 09 bd 72 a4 ff bc 82 2b 36 bd
       0.007049395 -0.033604424 -0.031206343 -0.044475086
0000b0 b4 33 41 bd 2f 9c 31 bd f2 42 89 3b 55 d6 2a 3c
       -0.04716845 -0.04336184 0.0041888887 0.010427077
0000c0 34 c8 1e bc 9e 06 cf 3b 4f 7b 8a 3c 42 63 50 3d
       -0.009691287 0.0063179275 0.016904501 0.05087591
0000d0 80 1f 1d bc 46 f1 39 3d a6 c1 0e bc 72 e0 94 3c
       -0.00959003 0.045396112 -0.008713162 0.01817343
0000e0 29 aa 1f 3d 7a bf 48 bd c6 78 61 ba 04 99 da bc
       0.038980637 -0.04901073 -0.00086010655 -0.026684292
0000f0 b3 29 32 3d 17 b7 dd 3c a8 70 28 bd 8a 62 bc bc
       0.0434968 0.027064843 -0.041123062 -0.022996206
000100 9f 3c 7a bc da 1f 1b 3d 79 3a 00 3d 1d af 13 3c
       -0.015273242 0.037872173 0.031305764 0.009013918
000110 88 cc 70 bc df 9a 99 ba 1b 77 9f 3b 80 be 32 bb
       -0.014697202 -0.0011719129 0.0048664934 -0.0027274191
000120 c1 b3 b1 3c 6d 53 2d 3d 49 da ae 3c 74 d7 e9 bb
       0.021692159 0.04231589 0.02134432 -0.0071362797
000130 94 9c 19 bd ff 85 ae 3c 18 2b 3d bd e4 a4 88 3b
       -0.03750284 0.021304129 -0.046183676 0.004170047
000140 8b 12 05 bd 20 13 21 3d a9 0f 91 3c 33 12 11 bc
       -0.032488387 0.03932488 0.017707663 -0.008854437
000150 de 3e 6e 3c 72 d5 58 3c 1b c9 35 bd bd e7 67 bc
       0.014541356 0.013234483 -0.044381242 -0.014154372
000160 64 2b 2b bc 9a b5 b4 ba 63 fe 20 bd 87 30 a1 3c
       -0.010447357 -0.0013787032 -0.039305102 0.01967646
000170 77 24 48 bd 17 5b 3b 3a 55 59 f2 3c ab ee 1f bd
       -0.0488629 0.00071470573 0.029583612 -0.03904597
000180 d1 f6 98 3a bc 4b 54 bc 04 b7 da bb bf 7f b9 3c
       0.0011670237 -0.01295751 -0.006674649 0.022643922
000190 33 21 b3 3c 62 fa 01 bd b8 34 ce 3c 83 64 23 3c
       0.021866417 -0.031732924 0.025171623 0.009972694
0001a0 22 ab 6e bb 90 d3 34 3c 5a d3 75 3c ea b0 62 3b
       -0.003641792 0.011036769 0.015004003 0.0034590312
0001b0 8b 17 2e 3d f9 7b e4 bc 7b c3 1e 3d fa fb bf 3c
       0.04250292 -0.027891146 0.038760643 0.023435581
0001c0 0f 07 c3 bc da a8 a6 3c 15 1c b0 bc 26 1c 5a 3c
       -0.023807077 0.020344187 -0.021497766 0.013312375
0001d0 77 86 06 bd 89 0d bf bc b6 10 e6 3c 79 5d 22 bd
       -0.03284308 -0.023321884 0.02808414 -0.039639924
0001e0 86 44 0d bd d1 b4 26 bb c0 75 28 3c df d3 32 3a
       -0.034489177 -0.0025437365 0.01028198 0.00068217324
0001f0 7f 80 01 bd 54 16 16 bd 49 26 38 bd f5 60 0a 3c
       -0.031616684 -0.036642388 -0.044958387 0.008445968
000200 6a 89 a2 3c 6c 1a 3e 3d 62 eb 7d 3c 08 88 2d 3d
       0.019840915 0.046411917 0.015498014 0.042366058
000210 cd df cd 3a 42 4e 97 bb df 94 15 bd f9 fc 25 3d
       0.0015706957 -0.0046174834 -0.036518928 0.040524457
000220 37 d9 16 bd 1b e3 52 3d 0a 3c d5 3c c7 a0 68 3c
       -0.036828246 0.051486116 0.026029605 0.014198489
000230 a6 6b 09 bd 4c d4 10 3c 13 8b 27 3d 99 b0 3a 3d
       -0.033549927 0.008839678 0.040904116 0.045578573
000240 e7 37 fe bc 40 c8 40 3c b4 de ea 39 65 80 33 bd
       -0.031032516 0.011766493 0.00044797885 -0.04382362
000250 25 d1 b1 bb f1 69 38 bc ed db eb bb d2 d4 2c 3d
       -0.0054265433 -0.011255727 -0.007197848 0.04219515
000260 bb 58 a3 bc 72 8c 17 3c 19 e2 4c 3d 3f a4 dd bc
       -0.01993977 0.009249793 0.05002031 -0.027055858
000270 2f 43 32 bc 3d e6 cb bc da 1f 4e 3c 18 77 a7 bc
       -0.010880276 -0.02489006 0.012580836 -0.02044253
000280 8b 0a cb 3c 2b 1f 20 bc e3 42 47 3d 64 d2 6e 3c
       0.0247853 -0.009773056 0.048647773 0.014576528
000290 f2 ae 35 3c f5 40 66 3c ab 31 1f 3c 5e d0 3b bd
       0.0110890735 0.014053573 0.009716432 -0.04585301
0002a0 ea b0 64 bc 88 c7 87 3c 2f 1f c4 3c 77 18 13 3d
       -0.013958195 0.016574636 0.02394065 0.035912003
0002b0 47 ec 0d bd 11 0a 61 3d 31 d7 24 3d ef 2a 9f bc
       -0.03464916 0.05494124 0.040244285 -0.019429652
0002c0 88 29 2a bd d1 7e be 3c 8e 10 c0 bc 33 f5 3f bd
       -0.041543514 0.02325383 -0.023445394 -0.0468647
0002d0 5b 78 4f 3d 18 b7 17 3c 35 f0 35 bd 93 75 9d bc
       0.05065189 0.009259962 -0.044418532 -0.019221103
0002e0 cb af df 3c 09 42 b9 bc 5d a9 2a bc 55 05 28 bd
       0.027305504 -0.022614496 -0.010416356 -0.04102071
0002f0 b9 92 fa 3c 00 50 93 3c 1d b9 01 bd 80 22 81 3c
       0.030587541 0.017982483 -0.03167068 0.015763521
000300 74 5f 4e 3d 9e 15 c2 bb 4d f4 18 bd f9 26 80 bb
       0.050384 -0.005922987 -0.03734236 -0.003910896
000310 44 27 20 3d db f8 26 3b ad b4 34 bd b4 a1 10 bd
       0.039099947 0.002547792 -0.04411762 -0.035310462
000320 6c e4 a7 3c d1 20 11 3d 73 5e 2d bd 82 0c 0a 3c
       0.020494662 0.035431687 -0.042326402 0.008425834
000330 4b d3 33 bd 95 ea 5a 3c 3a b1 0c 3d 6c 03 18 3d
       -0.043902677 0.013361593 0.034348704 0.03711264
000340 b4 00 a5 bc 4a 26 bd bc b7 7e 1e 3d 41 3d ea bc
       -0.020141937 -0.023089547 0.038695063 -0.028593661
000350 5e 15 22 3d ce 5d 5a bd 90 76 25 3c 5f f4 1b bd
       0.03957116 -0.053312115 0.010099068 -0.038074847
000360 fe 39 07 3d 7c c6 c5 bb 6d db 74 3c 37 e9 f9 bc
       0.03301429 -0.006035624 0.014944893 -0.030506713
000370 d3 c9 cd 3c f9 5e 1c bc 2c 8f 9d bc e5 11 2e 3d
       0.025120651 -0.009544128 -0.019233309 0.042497534
000380 f8 14 50 bd 6c d1 2f 3c 30 a4 a2 bb ae 1a 45 3d
       -0.050801247 0.010731082 -0.0049634203 0.048121147
000390 21 5f 3a bd 43 c2 c2 bc fe 3b 9a bc 84 89 d3 3c
       -0.04550088 -0.023774272 -0.018827435 0.025822408
0003a0 3f 47 24 3d 2b 0a c1 3c 1e 5f 66 3d 9b a6 4f bc
       0.040107008 0.023564419 0.056243055 -0.012673999
0003b0 43 5c 49 3d 25 75 0c 3d b3 91 ee 3c b2 12 2a 3d
       0.049160253 0.034291405 0.02912221 0.041521735
0003c0 c9 e7 a0 3c 5a 87 c7 bc ff 9b 2c bd b5 9e 1d bd
       0.019641774 -0.024356533 -0.042140957 -0.038481433
0003d0 87 14 3e bd 01 ed c9 3c 8f bb 5e bd b2 04 ee bc
       -0.046406295 0.024649145 -0.05437809 -0.029054973
0003e0 9c fe cf 3c e3 af a4 3c 6a 3d 5a bd 46 b4 25 bd
       0.025389962 0.0201034 -0.053281225 -0.040455125
0003f0 8f 04 e6 3c a0 dc 4d bc ea ff cc 3c 63 09 1b 3d
       0.028078346 -0.012564808 0.025024373 0.03785075

conv1.conv_3.bias f4 [128]
000000 9f 2a 6a 3c e9 49 06 3d 56 19 44 bd 8a 03 2b 3d
       0.014292388 0.03278533 -0.047875725 0.041751422
000010 22 bf 13 bd 2b fd 37 bd 16 21 e7 bc dd 10 1d bd
       -0.03607095 -0.044919174 -0.028214019 -0.03834616
000020 bf e6 24 bd 02 2b 29 3d 4b ff 9b 3c 66 39 d8 3c
       -0.04025912 0.04130078 0.019042632 0.026394557
000030 8c ad 4c bc aa e0 30 bd ad 58 aa bc 74 18 30 3d
       -0.012492549 -0.043183006 -0.020794237 0.04299207
000040 c0 22 4e bd 8a d0 01 3d ff f4 49 bd 33 be 49 bc
       -0.05032611 0.03169302 -0.049305912 -0.012313413
000050 53 e7 34 bc 24 8a 40 3c 38 95 e9 bc 08 87 97 bc
       -0.01104148 0.011751685 -0.028513536 -0.018497005
000060 8d c1 d5 bc 6d 3a 22 bd 2b 63 76 3c e2 6e 3e bd
       -0.026093269 -0.0396065 0.015038292 -0.046492465
000070 ba 43 b6 3a f1 96 f8 3c 28 6f 03 bc bb c4 3c 3d
       0.0013905682 0.030345412 -0.008022107 0.046086054
000080 a3 25 1f bb b2 ff dc bc 8f 1d d4 3c 24 16 95 3b
       -0.0024283908 -0.026977394 0.025893 0.0045497585
000090 0e 55 67 3c bc cb 3b bd a2 b1 43 3d a7 4b e9 bc
       0.0141194 -0.045848593 0.047776826 -0.028478457
0000a0 37 9b 4a 3c 94 7c 14 bc d8 af bc 3b 47 35 c6 bc
       0.012366108 -0.009062905 0.005758267 -0.024195326
0000b0 33 c4 cb bc c7 dd 8f bc 66 c0 19 3d aa 07 ff bc
       -0.024873829 -0.017561806 0.037537 -0.031131584
0000c0 67 34 55 bc da 96 83 3c 47 df 30 3d 2a f2 ea 3c
       -0.013012982 0.016063143 0.043181684 0.028679926
0000d0 9a 6f eb bb 7f 38 82 3b ae 66 11 3d ad ad cd 3c
       -0.007184935 0.00397402 0.035498314 0.02510723
0000e0 24 1c 56 bc 78 8a de 3b bc 04 f0 b9 c0 c5 7f bc
       -0.013068233 0.006791409 -0.00045779895 -0.015611112
0000f0 0b 27 be bb fa 84 86 bc 48 3b f6 bc 67 73 0e bd
       -0.005802994 -0.01642083 -0.030057564 -0.034778025
000100 70 12 c8 3c b1 4d ff bc f1 3e 90 bc c1 98 77 bc
       0.024422854 -0.031164976 -0.017608138 -0.015112103
000110 38 31 19 bc 65 27 e0 bc de 13 fc 3c 12 9e a3 bc
       -0.009350114 -0.027362535 0.030771192 -0.019972835
000120 2c f1 0e 3d 7c b8 2b bc 0d 9a 30 bd c2 08 36 3d
       0.03489797 -0.010480996 -0.043115664 0.044441946
000130 41 ee 25 3d b8 7e ef b9 c5 38 9e 3c 97 99 02 bc
       0.04051042 -0.00045680045 0.01931418 -0.007971189
000140 a3 06 c8 bc 76 b7 f8 bc 4c b1 40 bd a8 35 a7 bc
       -0.024417227 -0.030360918 -0.047044083 -0.020411327
000150 56 b7 f2 3b 24 31 ab 3c 57 bb 67 3b 24 85 b2 bc
       0.0074071093 0.020897456 0.0035359466 -0.021792002
000160 09 c2 b7 bb b5 28 4a 3d 79 d7 d6 3c 8c 79 b5 3c
       -0.0056078476 0.049355228 0.026225792 0.022152685
000170 a9 c8 06 bd 4a 71 0b bd a1 f8 3e 3d de c8 a4 bc
       -0.03290621 -0.034043588 0.04662383 -0.020115312
000180 1d 22 d4 bb 48 22 3b 3d b4 a6 3f bd 27 ba 32 bd
       -0.006473793 0.04568699 -0.04678984 -0.04363456
000190 0b 5d 2b bd b5 04 99 bc a8 8b 4a bd ef 07 47 3c
       -0.04183678 -0.018679002 -0.049449593 0.012147888
0001a0 50 15 a6 3c 82 3e c5 3c dc 0f 74 bc b6 f9 09 bd
       0.020273834 0.024077658 -0.014896359 -0.03368541
0001b0 f7 3b 2e 3d 74 cd 9d bc 68 27 fd bc 53 cf ce bc
       0.042537656 -0.019263007 -0.03090258 -0.025245344
0001c0 0d 95 07 bc d3 e3 49 3c e8 ce e8 bc c4 a8 b5 3c
       -0.008275283 0.012322384 -0.028418973 0.0221752
0001d0 ae 84 31 3d 42 25 9a 3c 8d e4 32 3d a4 85 f8 3b
       0.043339424 0.018816594 0.043674994 0.0075842906
0001e0 e0 b7 03 bd 95 87 b4 3c ca e6 e0 3a 4a df a9 bc
       -0.03215778 0.022037307 0.0017158624 -0.020736355
0001f0 a0 c8 5d 3c fd aa 28 bd 9b 46 af bc 90 94 df bb
       0.013536602 -0.041178692 -0.021395972 -0.00682313

conv1.normalization_1.weight f4 [128]
000000 43 eb 80 3f 80 fc 82 3f f9 c2 7e 3f 98 76 7f 3f
       1.0071796 1.0233307 0.99516255 0.99790335
000010 05 13 80 3f bc 00 7e 3f 09 e7 7e 3f 60 04 80 3f
       1.0005804 0.9921987 0.9957128 1.0001335
000020 12 83 80 3f c7 fb 7e 3f 31 63 7f 3f 02 83 7f 3f
       1.004 0.9960293 0.9976073 0.9980928
000030 ed 38 7c 3f ee 19 80 3f 6d b1 81 3f d4 a0 80 3f
       0.9852436 1.0007913 1.0132271 1.0049081
000040 a2 0a 80 3f 92 89 7e 3f 57 cb 80 3f 89 88 80 3f
       1.0003245 0.99428666 1.0062054 1.0041667
000050 da c5 80 3f ab 59 80 3f 44 a8 7f 3f ad 9d 7d 3f
       1.006038 1.0027364 0.9986613 0.9906872
000060 fb e9 7e 3f 64 4d 82 3f cb 86 82 3f 3e 08 7f 3f
       0.99575776 1.0179868 1.0197386 0.9962195
000070 63 ed 7e 3f cd 11 81 3f 46 17 7f 3f e2 23 7f 3f
       0.99580973 1.0083557 0.9964489 0.9966413
000080 23 ce 7f 3f ca 52 7f 3f 84 2b 7f 3f 73 a7 7f 3f
       0.99923915 0.997357 0.99675775 0.9986488
000090 e7 b4 7d 3f 5b 88 7e 3f e0 68 80 3f 61 d0 7f 3f
       0.9910416 0.9942681 1.0032005 0.99927336
0000a0 ba d4 7f 3f 61 71 7d 3f da 3f 80 3f 01 c3 82 3f
       0.9993397 0.9900113 1.0019486 1.021576
0000b0 be ee 7d 3f ec 22 7f 3f cf 45 80 3f 1f e5 7d 3f
       0.99192417 0.9966266 1.0021304 0.99177736
0000c0 fd 66 7e 3f 3d 7f 7e 3f 14 07 83 3f 62 58 7e 3f
       0.993759 0.994129 1.0236535 0.9935361
0000d0 d8 3a 7d 3f 74 00 7f 3f ef d3 7d 3f b5 c7 7f 3f
       0.98917913 0.99610066 0.9915151 0.99914104
0000e0 14 59 7f 3f 80 09 80 3f 87 e2 7d 3f ac 2a 80 3f
       0.997453 1.0002899 0.9917378 1.0013022
0000f0 17 e9 7f 3f 32 9e 82 3f b2 79 82 3f 5d 01 7f 3f
       0.9996504 1.0204527 1.0193388 0.99611455
000100 16 dd 80 3f a0 41 7e 3f e0 0c 7e 3f b9 2b 80 3f
       1.006747 0.99318886 0.99238396 1.0013343
000110 1b 4b 80 3f 96 d6 7f 3f 82 f1 82 3f 36 c1 7e 3f
       1.002292 0.9993681 1.0229952 0.99513566
000120 aa 1a 80 3f c1 60 80 3f 02 46 7f 3f 70 93 7f 3f
       1.0008137 1.0029527 0.997162 0.99834347
000130 df 21 7f 3f d1 3c 7f 3f c2 aa 7e 3f cb a2 7e 3f
       0.9966106 0.99702173 0.99479306 0.9946715
000140 95 0b 7d 3f 03 43 7f 3f 62 e1 7f 3f 80 b1 7e 3f
       0.988458 0.99711627 0.9995328 0.99489594
000150 6c 3e 7e 3f f8 da 7d 3f b7 6d 7e 3f 51 72 81 3f
       0.99314 0.99162245 0.9938616 1.0113012
000160 40 f7 7e 3f 37 4b 7e 3f 9c b0 7f 3f 77 e8 80 3f
       0.99596024 0.9933352 0.9987886 1.0070943
000170 fd 5a 7d 3f 4f 48 7e 3f 90 74 82 3f 47 bb 7a 3f
       0.9896696 0.99329084 1.0191822 0.9794201
000180 9f 1a 80 3f 89 1c 80 3f ac 8d 80 3f cd 07 80 3f
       1.0008124 1.0008708 1.0043235 1.0002381
000190 c8 99 7e 3f f4 8f 7e 3f 74 1c 7e 3f 0c 92 83 3f
       0.994534 0.99438405 0.99262166 1.0278945
0001a0 e4 7b 80 3f 40 2b 80 3f e3 df 7e 3f 83 63 80 3f
       1.0037808 1.0013199 0.99560374 1.0030369
0001b0 ec b7 80 3f 67 e1 7f 3f 9d 1d 7e 3f 77 9c 7e 3f
       1.0056129 0.9995331 0.99263936 0.99457496
0001c0 d8 e8 7f 3f b4 2d 80 3f 0c 66 7f 3f 49 90 7e 3f
       0.99964666 1.0013947 0.99765086 0.9943891
0001d0 4a 84 80 3f 11 a4 81 3f a9 58 80 3f 57 0c 80 3f
       1.0040371 1.0128194 1.0027057 1.0003766
0001e0 ec 56 7d 3f e9 1c 7e 3f f4 3c 7e 3f de 00 80 3f
       0.9896076 0.99262863 0.9931176 1.0000265
0001f0 b5 ba 7e 3f 93 3d 80 3f 31 32 80 3f e9 bc 80 3f
       0.9950364 1.0018791 1.0015317 1.0057651

conv1.normalization_1.bias f4 [128]
000000 1c 83 94 38 66 58 cd 3c 8f d0 8a bb 6f 94 08 bc
       7.081611e-05 0.025066566 -0.004236288 -0.008336171
000010 23 8d a4 ba 9c d6 d3 bb 10 9b f3 bb c8 60 f0 ba
       -0.0012554269 -0.0064647924 -0.0074342564 -0.001833939
000020 80 ca 2b ba 48 c0 8a bb f2 1e 8a ba 4b 9f 93 ba
       -0.0006553307 -0.0042343475 -0.0010537787 -0.0011262683
000030 c1 b8 21 bc 56 ee c2 b9 08 c6 91 3c 14 04 a0 ba
       -0.009870709 -0.00037180138 0.017794624 -0.0012208247
000040 2c 82 29 ba 18 fb a8 bb cd 0a 7b b8 47 62 d7 3b
       -0.00064662355 -0.005156886 -5.9853122e-05 0.006572995
000050 d9 75 50 3b 5b 51 ec ba 29 8e b6 bb 04 cd 04 bc
       0.0031808524 -0.0018029617 -0.005571146 -0.00810552
000060 16 c3 06 bb 54 73 e9 3c 5f 87 03 3d d6 f2 c9 bb
       -0.0020563058 0.028497376 0.03211152 -0.0061629815
000070 b3 26 d2 bb 12 fb 40 3a 3e 50 0f bb a4 aa 6d bb
       -0.0064133047 0.0007361631 -0.0021867896 -0.003626504
000080 b3 d5 39 ba 6a 30 81 ba fe b8 9c bb 02 d1 94 bb
       -0.00070890336 -0.0009856347 -0.004782795 -0.0045415172
000090 44 52 69 bb 68 03 09 bc 61 13 cf bb ac 8e c8 bb
       -0.0035602013 -0.0083626285 -0.006319449 -0.0061205234
0000a0 07 e5 a3 3a c1 9a 9a bc 06 47 c9 3a 74 88 21 3c
       0.0012504169 -0.01887262 0.001535625 0.009859193
0000b0 f5 0f 9d bb b4 a2 ef bb 15 ab ec ba 89 17 a0 bb
       -0.004793162 -0.007313097 -0.0018056358 -0.004885618
0000c0 3b f7 ba bb 3e 86 94 bb 48 8d d3 3c da 28 58 bb
       -0.0057057417 -0.0045326045 0.025824204 -0.0032983334
0000d0 b4 b2 c2 bb 84 e5 10 bc 9e 8d f5 bb 29 5b 00 ba
       -0.005941713 -0.008843783 -0.0074936887 -0.00048963964
0000e0 4f cf a7 ba c7 01 eb ba bd 00 11 bc f0 5d e9 3a
       -0.0012802872 -0.0017929607 -0.008850274 0.0017804485
0000f0 a4 f5 29 bb b2 53 14 3c ef f9 f6 3b 10 e5 0c bc
       -0.0025933767 0.009053158 0.0075371186 -0.008599535
000100 e6 f7 2c 38 f5 f4 d4 ba 01 f5 10 bc 8a 04 18 3b
       4.123887e-05 -0.0016247319 -0.008847476 0.0023196065
000110 af 9c f4 37 55 3d cc bb e4 5c de 3c 96 cb 5e bb
       2.9160028e-05 -0.0062328973 0.027143903 -0.0033995858
000120 c3 09 53 bb 69 2f 4d 3b bc a6 d3 ba d8 ae 10 bb
       -0.0032201863 0.0031308776 -0.0016147713 -0.0022076871
000130 64 ef 90 bb 00 b0 b3 ba f3 4d d6 bb c6 3a f0 bb
       -0.004423069 -0.0013709068 -0.006540054 -0.007331225
000140 31 18 2e bc 12 67 83 bb 3d 09 6f ba 61 94 b3 bb
       -0.010625885 -0.0040100897 -0.0009118503 -0.0054803346
000150 cb 9a ae bb c9 b4 e7 bb a1 91 92 bb db 50 ba 3a
       -0.0053285114 -0.007071112 -0.0044729267 0.0014214771
000160 2f 97 a6 bb 49 70 2e bb 59 1f ab bb 95 5f 33 bb
       -0.0050839405 -0.002661722 -0.005222243 -0.0027370204
000170 37 ba 38 bc 90 c9 b8 bb fc 50 a2 bb 05 f2 16 bc
       -0.011274866 -0.0056392625 -0.0049535017 -0.009212975
000180 10 91 fa ba 6d c6 9c ba 73 60 f5 bb c9 38 13 bb
       -0.0019116718 -0.0011960991 -0.0074883043 -0.0022464267
000190 38 41 9e bb 0b ec 0c bb 83 4e a8 bb 92 3f 34 3d
       -0.004829552 -0.0021502997 -0.0051363125 0.044005938
0001a0 e4 f3 76 3b 7c 6d 31 3b b5 d8 08 bc fc 98 a4 3c
       0.0037681991 0.0027073314 -0.008352448 0.02009248
0001b0 dd fe 8b bb 78 25 6f bb cb da 06 bc 05 bd 4b bb
       -0.0042723254 -0.003649084 -0.008230875 -0.0031088006
0001c0 1f 29 a2 bb eb 78 03 3b 15 0e f2 bb e5 79 a1 bb
       -0.0049487497 0.0020061086 -0.0073869326 -0.004927861
0001d0 79 d7 72 bb cb 85 fd 3b 51 fa 96 bb e6 84 17 3b
       -0.0037054701 0.0077368966 -0.0046074768 0.0023119985
0001e0 40 70 f6 bb c4 3a 90 bb 70 08 0d bc 9f e2 14 3a
       -0.0075207055 -0.0044015367 -0.008607969 0.0005679521
0001f0 ce 9e cd bb 66 ce 19 ba 6a a6 43 3b fc 2b 27 ba
       -0.0062750345 -0.00058672426 0.002985383 -0.00063770986

conv1.normalization_1.running_mean f4 [128]
000000 e9 35 77 be 6c d9 9a 3d 22 b1 df 3d cb dd 50 be
       -0.24141659 0.07561001 0.10922457 -0.20397107
000010 53 c4 d7 3e b6 a0 2c be 32 c0 90 3d 02 ab ea be
       0.4214197 -0.16858181 0.07067908 -0.45833594
000020 bb f5 22 be be 3c 05 3f 1b 96 06 bb 0a 85 9c 3e
       -0.15914051 0.5204581 -0.0020536247 0.3057025
000030 02 91 e2 3d bc 4f e8 3e 68 c5 af be 68 ad 1a 3e
       0.11062814 0.45373333 -0.34330297 0.15105212
000040 14 b3 9f be f2 36 82 bd 82 73 05 bf df 9e d4 3e
       -0.31191313 -0.06358136 -0.52129376 0.4152746
000050 f3 17 41 3e 91 bb ab bd 13 41 58 be fa 18 fd 3e
       0.18856792 -0.08385385 -0.21118574 0.49433118
000060 85 c2 c0 be c8 b5 d9 3e e2 6d 89 be 8e 2e ab bb
       -0.37648407 0.425215 -0.26841646 -0.0052240556
000070 4c e0 10 3f c9 d7 b8 3e fc ef d1 be 8b 20 bc 3e
       0.5659225 0.3610213 -0.41003406 0.36743578
000080 51 bd d1 3b 11 66 b3 3e e4 a9 a2 3e 72 30 38 3d
       0.006400742 0.35038808 0.3177024 0.044968076
000090 fc 10 45 3c e7 9b 94 3e a5 2c d3 be 38 33 ca 3e
       0.012027975 0.29025194 -0.41245 0.39492202
0000a0 31 bc ac be 2e d4 5b 3e 8d 15 f9 3e 17 54 d6 3e
       -0.3373733 0.21467659 0.48649254 0.4186103
0000b0 c3 87 7e be 5b dc 03 3f f5 bd a3 be 7c 5f df bd
       -0.24856476 0.5150811 -0.31980863 -0.10906884
0000c0 52 f8 bd be c0 f5 09 bf d2 33 92 3d e4 ca 73 be
       -0.37103516 -0.5389061 0.0713879 -0.23807865
0000d0 cd 95 f3 be 8e 28 e0 3e e6 e0 c4 be a3 9a cf 3d
       -0.47575226 0.4378094 -0.38452834 0.101369165
0000e0 8a 3e 0d 3f 0f 78 04 3f d2 1c 13 3e 94 bb a9 3d
       0.5517355 0.51745695 0.14366463 0.08287731
0000f0 cc 78 21 3e d4 f2 04 3f 54 65 88 3e 37 72 e4 3e
       0.15768737 0.51933026 0.26639807 0.4461839
000100 e6 d8 be be c0 ca 87 3e cb c7 b3 3e 53 1c b1 3e
       -0.37274855 0.26521873 0.35113367 0.34591922
000110 f1 34 97 be ca ac d4 3e 1b f0 c4 3c 83 ae 07 bf
       -0.2953258 0.41538078 0.024040272 -0.5300066
000120 f6 55 cf 3e a7 d3 eb 3e c7 21 aa be c3 2b c6 be
       0.4049527 0.46059915 -0.33228895 -0.38705263
000130 9b 5b af 3e 4d 37 c1 3e 1c 54 ee be c4 ea 0b bf
       0.34249577 0.37737504 -0.46548545 -0.546551
000140 7f c5 48 be fe 90 e2 be 2e 35 00 be 33 88 8f 3e
       -0.19606589 -0.44251245 -0.12520286 0.280336
000150 ef b7 8d be 08 5f 08 3f 01 e6 29 be 73 dd 68 be
       -0.27679393 0.53270006 -0.16591646 -0.22740726
000160 05 2c 0f 3f ed a0 54 be cc 73 d7 3e 1b ff 23 3e
       0.55926543 -0.20764513 0.42080534 0.16015284
000170 53 c0 bb 3e 29 00 08 3f eb f8 02 bf c7 88 fe be
       0.3667017 0.53125244 -0.5116107 -0.49713728
000180 59 b6 26 3d 5a be e0 bd 4b dc 4c 3e a4 c7 d7 3d
       0.040701244 -0.10973807 0.2000591 0.10536125
000190 33 f2 9a 3e 20 b6 63 3e 9a fa 05 3f 39 69 b6 3e
       0.30262908 0.22237444 0.5233551 0.35627154
0001a0 89 bc d5 3e 73 9f 50 3e c9 c2 f5 3e fe 16 03 3f
       0.41745403 0.20373325 0.48000172 0.5120696
0001b0 ef 9c 85 be e3 bc 49 be 12 02 d4 be f7 d5 fe be
       -0.26096293 -0.19700961 -0.4140783 -0.49772617
0001c0 e8 e9 d8 3e ca fd a6 3e 89 fb cc 3e 1c 6b 11 3f
       0.42365956 0.326155 0.40035656 0.5680406
0001d0 93 53 f2 be 41 69 12 be 0c 9f 0e 3e 89 5b bd be
       -0.47329387 -0.14297964 0.13927859 -0.36983898
0001e0 b6 47 bf be 1d 3f 78 3d 14 e6 81 3e c4 d2 ce be
       -0.373594 0.060607065 0.25370848 -0.40395176
0001f0 50 5b 01 3f 67 f2 63 3d 66 f6 fd bc 6f 46 dc 3d
       0.50529957 0.055651095 -0.031001281 0.10755622

conv1.normalization_1.running_var f4 [128]
000000 7f a4 d9 3b d8 4e 59 3b 80 5b 0d 3d fc f9 76 3e
       0.006641924 0.0033158567 0.03451109 0.24118799
000010 86 c2 dc 3c e9 4d c3 3d 86 98 f0 3e 7a 02 82 3d
       0.026948225 0.095363446 0.46991366 0.063481286
000020 57 2f 06 3d cf 73 1d 3f 21 41 b2 3e 23 f4 75 3e
       0.03275999 0.61504835 0.34815314 0.24018912
000030 79 e9 a9 3f bc 62 a9 3d 62 c5 53 3b 60 27 50 3d
       1.3274375 0.08270785 0.0032313694 0.0508188
000040 4f 6c 0e 3c 3a b7 cd 3d 46 63 f4 3c 85 d4 8a 3b
       0.008692815 0.10044713 0.029832494 0.00423676
000050 37 25 12 3d 93 68 5a 3d fc bf eb 3e 4e 83 8a 3e
       0.035680022 0.053322386 0.4604491 0.27053303
000060 27 42 38 3f 3e fc 6f 3b aa 31 58 3b b7 e3 ad 3e
       0.7197594 0.0036618854 0.0032988586 0.33962795
000070 d9 ef 93 3d a8 02 bc 3c c4 ed 61 3e 7b 9d d5 3c
       0.07223482 0.022950485 0.22063357 0.02607607
000080 89 dc 31 3d 6a 88 2c 3d 37 5b 36 3d 94 6b aa 3c
       0.04342321 0.042122282 0.044520583 0.02080325
000090 0a dc d1 3e 45 d8 88 3d 4e a1 c4 3c cb 7e 6f 3d
       0.4098819 0.06681875 0.024002697 0.05847053
0000a0 22 5a 13 3f 43 03 d1 3c c1 56 17 3e c8 ac d6 3b
       0.57559407 0.02551425 0.14779188 0.006551359
0000b0 db e1 a6 3d b8 9c 55 3f 28 44 c2 3e a2 68 21 3f
       0.08148547 0.8344226 0.37942624 0.6305028
0000c0 ac 59 03 3e ee 5e aa 3e 49 e2 25 3b ba 66 bd 3e
       0.12827176 0.3327555 0.0025311878 0.36992437
0000d0 70 09 11 3d 3d 6b c9 3e 45 7f ae 3e e3 1d bf 3e
       0.03540939 0.3933963 0.34081474 0.3732749
0000e0 60 c6 8d 3e 95 ed e3 3c 88 d1 b0 3b fb 0d 2e 3c
       0.2769041 0.027823249 0.005396072 0.01062345
0000f0 f0 37 c3 3e 52 97 0e 3c eb 21 b0 3b 18 6a 8d 3d
       0.38128614 0.00870307 0.005375137 0.069050014
000100 d6 54 f0 3c 93 22 b5 3c 01 86 62 3e 56 b9 71 3d
       0.029337328 0.022111213 0.22121431 0.05901464
000110 d8 6c 23 3e bd 17 cd 3c 58 8b 9c 3b c9 8d 65 3d
       0.1595949 0.025035733 0.0047773533 0.05604342
000120 6d 26 65 3f e5 7b 49 3d 4d d5 b2 3d 9b a3 e1 3b
       0.8951176 0.04919042 0.0873209 0.0068859584
000130 8c 23 9c 3e b2 d6 8e 3e 0b ce 22 3d ac c9 3a 3e
       0.3049587 0.27898175 0.03974728 0.18240994
000140 e1 1c 85 3e a0 02 78 3f 9f 19 9d 3e 3a d5 16 3d
       0.25998595 0.96879005 0.3068361 0.036824442
000150 bd c6 b7 3d da 18 89 3c 11 32 26 3f eb 65 b4 3c
       0.08973453 0.016735483 0.64920145 0.022021255
000160 9a bb a5 3d bf f7 60 3f eb a8 aa 3c 83 68 55 3c
       0.08092423 0.8787803 0.0208325 0.013025406
000170 26 52 d9 3e 3e b7 63 3f 58 f8 16 3b 49 a9 c6 3e
       0.42445487 0.8895148 0.0023036208 0.3880103
000180 9c 67 d9 3e 6b 3c b4 3d 4e 93 96 3b 59 1a 13 3e
       0.4246186 0.08800586 0.004595197 0.1436552
000190 f7 f5 09 3e 6c d7 0d 3e a6 99 c1 3c f8 8f ab 3b
       0.13472734 0.13851708 0.023632836 0.0052356683
0001a0 fd a6 16 3d 1c 8e d2 3e d3 02 ae 3e 77 d9 60 3b
       0.036780346 0.41124046 0.3398653 0.0034309307
0001b0 c4 78 cc 3d e7 97 b7 3d 1d 37 25 3e 12 24 92 3d
       0.09983972 0.0896452 0.16134305 0.07135786
0001c0 3a 82 f6 3d f0 38 ad 3d b3 ae af 3c 0d 87 12 3e
       0.120365575 0.084581256 0.021445608 0.1430933
0001d0 85 d8 22 3c 9e 7e 5c 3c 25 0d 9b 3c 5f 95 77 3d
       0.009939318 0.013457922 0.018927166 0.060445186
0001e0 87 b6 46 3e c1 c7 11 3c 6a 2b 39 3e ef 5a 1b 3e
       0.19405566 0.008897723 0.18082967 0.15171407
0001f0 58 c7 8b 3e 48 16 22 3e 00 76 45 3e ac c7 2c 3d
       0.27300525 0.15828812 0.19283295 0.04218261

conv1.normalization_2.weight f4 [128]
000000 c7 ed 81 3f 86 6d 81 3f 7a 25 80 3f 1c 17 7f 3f
       1.0150689 1.0111549 1.0011437 0.9964464
000010 bc 03 81 3f ed c9 7d 3f d5 48 81 3f 22 ef 80 3f
       1.0079265 0.9913624 1.0100352 1.0072978
000020 db 1e 80 3f 3f ea 7e 3f b8 65 81 3f d3 d9 7d 3f
       1.0009416 0.9957618 1.0109167 0.991605
000030 3c 45 80 3f d5 4e 7e 3f 87 4b 80 3f 68 f4 7d 3f
       1.0021129 0.9933904 1.0023049 0.9920106
000040 e3 40 7f 3f 0f 08 7e 3f 1d aa 7d 3f b4 3b 7d 3f
       0.99708384 0.99231046 0.990877 0.98919225
000050 3a 68 7e 3f 4f c8 7f 3f bb 1c 80 3f 77 23 7d 3f
       0.9937779 0.9991502 1.0008768 0.9888224
000060 bb b1 7d 3f be f3 7f 3f b2 b0 80 3f 32 56 7f 3f
       0.9909932 0.99981296 1.0053923 0.997409
000070 c3 96 81 3f 96 c5 7d 3f eb 10 7f 3f 7b e6 7e 3f
       1.0124134 0.9912962 0.9963519 0.99570435
000080 85 38 80 3f 5f c4 7f 3f 56 35 80 3f 1f 90 81 3f
       1.0017248 0.99909014 1.0016277 1.0122107
000090 8f 07 80 3f 75 53 81 3f ec 2f 80 3f 95 f6 80 3f
       1.0002307 1.0103594 1.0014625 1.0075251
0000a0 42 5d 80 3f bb 99 80 3f c4 a5 7e 3f 10 42 7f 3f
       1.002846 1.0046915 0.9947169 0.9971018
0000b0 1c 5e 80 3f 7e 8d 7e 3f 52 bd 7e 3f 43 e2 7e 3f
       1.002872 0.9943465 0.9950763 0.99564
0000c0 55 45 7f 3f 77 5b 7f 3f 4d 54 81 3f 82 59 7f 3f
       0.9971517 0.9974894 1.0103852 0.99745953
0000d0 54 82 7e 3f 5f 81 7f 3f 42 21 82 3f 1b cd 80 3f
       0.99417615 0.9980678 1.01664 1.0062593
0000e0 64 14 80 3f c8 3d 80 3f 0d 82 80 3f 86 63 81 3f
       1.0006223 1.0018854 1.0039688 1.0108497
0000f0 58 99 7f 3f 6e de 7f 3f e7 32 80 3f 23 58 80 3f
       0.9984336 0.99948776 1.0015534 1.0026897
000100 c8 b0 80 3f 1e 05 80 3f e3 ce 7f 3f 2d 23 82 3f
       1.0053949 1.0001562 0.9992506 1.0166985
000110 92 fd 82 3f e5 e9 80 3f c7 e8 7d 3f 95 ed 7e 3f
       1.0233634 1.0071379 0.99183315 0.9958127
000120 32 18 80 3f 1d 58 7f 3f 5f 96 80 3f 70 54 80 3f
       1.0007384 0.99743825 1.004589 1.0025768
000130 34 a1 7c 3f 63 7e 80 3f 32 25 7e 3f 58 09 7f 3f
       0.98683476 1.003857 0.99275506 0.9962363
000140 13 b8 80 3f 49 f3 7e 3f c9 2b 7e 3f 99 eb 7e 3f
       1.0056175 0.99589974 0.9928556 0.99578243
000150 d8 cd 7e 3f 55 a6 7f 3f 6c ad 7f 3f 28 19 80 3f
       0.9953284 0.9986318 0.99873996 1.0007677
000160 78 24 80 3f 3f c2 7d 3f 09 bf 80 3f 7b 59 81 3f
       1.0011129 0.9912452 1.0058299 1.0105432
000170 8c af 7f 3f 87 b1 7f 3f 9a 1c 82 3f 75 e3 7e 3f
       0.9987724 0.9988026 1.0164979 0.9956582
000180 ea 52 7f 3f 1a 9f 80 3f 59 5a 7f 3f c5 d0 7d 3f
       0.9973589 1.0048554 0.99747235 0.9914668
000190 9e c5 80 3f f1 17 80 3f a3 b8 7f 3f f2 b6 7e 3f
       1.0060308 1.0007306 0.9989111 0.994979
0001a0 0d ca 80 3f 84 e8 7f 3f 99 e7 80 3f 83 5d 7e 3f
       1.0061661 0.99964166 1.0070678 0.9936144
0001b0 dc 76 7d 3f 5d 25 7f 3f cc e6 80 3f 78 1f 7d 3f
       0.9900949 0.99666387 1.0070434 0.9887614
0001c0 ba 93 7d 3f 69 85 7e 3f 68 08 7f 3f 0f fe 7d 3f
       0.9905354 0.9942232 0.996222 0.9921579
0001d0 f6 32 80 3f e9 a6 7e 3f 95 52 80 3f b8 83 80 3f
       1.0015552 0.99473435 1.0025202 1.0040197
0001e0 98 2a 80 3f e1 55 7e 3f fe 21 7f 3f 74 84 80 3f
       1.0012999 0.9934979 0.9966124 1.0040421
0001f0 8a 1b 80 3f c7 9a 7d 3f 01 5f 7f 3f d5 64 7d 3f
       1.0008404 0.99064296 0.9975434 0.9898198
