classification/Lstm_Cnn/net/best_model_epoc3.pth (torch, 675170 bytes, 56 tensors)

conv1.conv_1.weight f4 [128, 1, 3]
00000000: 862a d1be 03c8 003d deef 983e bc99 853e
00000010: 3ca1 c23d 4d75 bfbe 3ab8 07bf 33eb 073f
00000020: df7b 78be 5f9d edbe 9d21 b73e 6d1f 10bf
00000030: 8f33 bb3e 3ff5 e0be 8b03 923e 7655 33be
00000040: 3dfb 933b 614f 80be 96f8 a43e ceeb 8b3e
00000050: feb4 b13e 0717 68be c5f0 103f 4b0d 00bb
00000060: 4994 03be 22fc 02bf 788a d03e ab5d fdbe
00000070: f754 c0be a825 51be 6bfe 563e e0e6 643e
00000080: b7c5 be3e 1ea9 a53c 9964 8e3e d468 bf3e
00000090: 056e 0cbf 1594 f7be 578e 0cbf 2bae d2be
000000a0: 9b00 923e ca9e 023f c2d0 493e 3792 e5be
000000b0: 1b50 8e3e 3151 a33e 9f0b 023f 9e4a 08bf
000000c0: 8815 babd 7b1a 9cbe 90f9 fd3e 2228 a13e
000000d0: 0e71 933d 2cfe 333d a8b4 853e 249f e2be
000000e0: c747 30bd 3a38 ddbe ff1f 523e af73 383e
000000f0: 5ea7 febe 9b65 b8bc 14ae 8b3e 66b2 933e
00000100: af6a 0a3f 4e8e 06bf 663f 44be 2b79 7abe
00000110: 8830 fdbe 1ec1 0dbf 0587 d9be 1358 893e
00000120: 86d4 00bf 7be8 8abe 6778 c7be a58b e6be
00000130: 45c0 033f e8d0 8dbd 3458 46be e654 063f
00000140: ea69 abbe 1168 70be a38c 36be 4f30 c6be
00000150: df76 8dbe 6db7 0abe 91be 3f3d 5888 b0be
00000160: 9a8c f5bc 3854 103f 70b6 973b 12ee 9bbd
00000170: 22c8 11bf d3f0 d9be 45a7 943e 2fe6 ae3e
00000180: 81e4 0abf 16d9 053e a841 0b3e 32d9 75be
00000190: 1f5b e03e c110 973d a33f e7be be64 f13e
000001a0: 77e9 833e a812 8ebe 4025 2f3d 2e38 d53e
000001b0: 32cb e33e 8b6e 8c3e 11a9 213e 4b03 eebc
000001c0: 7c09 c93d 505d d6be 34a3 973c 7617 0fbf
000001d0: f932 b03e 1ac9 cbbe 528b c6be 25a5 ee3e
000001e0: 0d0d 3bbe b088 c8be 9b88 eebe 6262 873e
000001f0: 1aa9 01bf 038a e53e 51e5 433e 5632 0c3f
00000200: 0a18 5cbe 776a fabe 6b3a 31bd 25a0 f13e
00000210: 12e1 8fbe e575 0abf 57ee e03e b7fd cd3e
00000220: 9b87 f43e fc6b c03e 3378 c53c b331 f0be
00000230: 8921 ccbe e4dc 87be 0528 bdbe 78c5 e8be
00000240: 5c74 dd3e 142f db3e 21e1 c0be 9397 29bd
00000250: 9795 0c3f 9df0 903e b993 f0bd fd46 28be
00000260: c16b 953e cdff 72be 42f4 e1be 13c5 1dbe
00000270: dbe8 c03e 025d 65be e4b8 cabe eb49 62be
00000280: 46cb 5fbe 372e d7be 6d00 acbc 7a9e 963e
00000290: 73d6 063f 5330 203e 7a5b e83e 685a 683e
000002a0: ae32 15be f35c debe 508a 0fbe 0cdf 893e
000002b0: ffcd ef3d 9166 2abe 1946 cdbc fe0f 443e
000002c0: 46ea adbd 0590 d73e a0c0 bdbe 1d5d 8c3d
000002d0: 993a 9a3e c67d ee3e 712a a13d c657 ed3c
000002e0: a4b6 fb3e 7783 d7be 6b0b 87be 2917 abbe
000002f0: 779c 0e3f 33a7 0f3d 8fb2 eabe 279f 8a3d
00000300: ca5e 0cbf e47e a03e 92f3 e53e 1767 7a3e
00000310: d1d7 eabd b4d7 a4be 8368 013f a5b4 c5bd
00000320: 19ae 6d3e 54cb 25bd 1e45 f13e 4efd d4bd
00000330: 59c5 bc3e 3301 d9be feed f8be 8907 c43d
00000340: 8d99 f73e 5c29 c1be 2c7c c93e fe2f a53d
00000350: 9c14 00bf 2334 b0be d477 97bd 1fb8 cd3d
00000360: fd0d 813e 634d 043f 58d9 073f ebeb f2be
00000370: 4e34 a73e 9079 18be f937 15bd 8bc2 0a3f
00000380: 2664 d8bd efbb 73be 430a a43e dbc0 0e3c
00000390: 634c 293e a51f 623d 947f 093f 49ef ec3e
000003a0: 6d6d 483e fea3 853d 473c 2f3e b23c 6dbe
000003b0: 0844 a73e 6f2a ed3e 2ad6 e43e e69a a8be
000003c0: 5395 86be 84a1 ff3e 11b0 eb3e c53f b53e
000003d0: 6d0a f13e c42a 073f 5196 9abe a6b1 e7be
000003e0: f9da 72bb d068 b53e 9f7b 83be 2ad7 b2be
000003f0: 70c2 10bf 8156 af3d a675 983d 0da0 a0be
-0.40852755 0.031440746 0.29870504 0.26093853 0.09503409 -0.3739418 -0.5301548 0.5309326
-0.24266003 -0.46409127 0.35767832 -0.5629795 0.36562774 -0.43937108 0.28518328 -0.1751307
0.004516034 -0.2506056 0.32220906 0.27328342 0.347084 -0.22665034 0.56617385 -0.0019539173
-0.12849535 -0.51165974 0.40730643 -0.49485525 -0.37564823 -0.20424521 0.2099549 0.22353697
0.3726022 0.020222243 0.27811125 0.37384665 -0.54855376 -0.48355165 -0.54904693 -0.41148505
0.28516087 0.5102354 0.19708541 -0.44838116 0.2779549 0.31897882 0.5079898 -0.53238857
-0.09086138 -0.30488953 0.49604464 0.3147593 0.07199298 0.04394357 0.26114392 -0.4426204
-0.043037202 -0.4320696 0.20520018 0.1801288 -0.49737066 -0.022509387 0.2728125 0.28847045
0.54069036 -0.5256089 -0.1916481 -0.24460284 -0.4945109 -0.553728 -0.42485824 0.26825008
-0.50324285 -0.27130494 -0.38959047 -0.45028415 0.51465255 -0.06924611 -0.19369584 0.52473295
-0.33479244 -0.23477198 -0.17827086 -0.38708732 -0.27629754 -0.13546534 0.046812598 -0.34479022
-0.02997427 0.5637851 0.0046299025 -0.07613768 -0.56946003 -0.42566547 0.29033867 0.3415999
-0.5425492 0.13071093 0.13599265 -0.24008635 0.4381952 0.073762424 -0.45165738 0.47147173
0.25764057 -0.2774861 0.042760134 0.41644424 0.44490963 0.27428088 0.1578715 -0.029054305
0.09816262 -0.41868067 0.018510439 -0.55895174 0.3441389 -0.39801866 -0.38778168 0.4661037
-0.18266697 -0.39166784 -0.46588597 0.26442248 -0.50648654 0.44831857 0.19130446 0.54764307
-0.21493545 -0.4890935 -0.043268602 0.47192493 -0.28101403 -0.5408614 0.4393184 0.40232632
0.4775971 0.37582386 0.024105167 -0.46912917 -0.39869335 -0.26535714 -0.36944595 -0.45463157
0.43252838 0.42809355 -0.3767176 -0.041404318 0.54915756 0.28308573 -0.11746926 -0.1643333
0.29183772 -0.23730393 -0.44131666 -0.15407209 0.37677655 -0.22398761 -0.39594185 -0.2209851
-0.21854886 -0.42027447 -0.020996297 0.29417783 0.52670974 0.15643434 0.4538229 0.22690737
-0.14570114 -0.4343029 -0.14017606 0.26927984 0.117092125 -0.16640688 -0.02505784 0.19146726
-0.0849195 0.42102066 -0.37061024 0.068536974 0.3012283 0.46580333 0.07869423 0.028972518
0.4916278 -0.42092487 -0.263759 -0.33416107 0.55707496 0.035071563 -0.45839354 0.06768637
-0.54832137 0.3134681 0.44912392 0.24453388 -0.11466945 -0.32195818 0.505501 -0.09653596
0.23210944 -0.040477112 0.47123045 -0.103998765 0.36869314 -0.42383727 -0.48619074 0.0957175
0.48359337 -0.37726867 0.39352548 0.080657944 -0.5003145 -0.34414777 -0.07395902 0.10044884
0.25205985 0.5168058 0.53066015 -0.47445616 0.32657093 -0.14890122 -0.036430333 0.542031
-0.10565977 -0.2380216 0.3203908 0.0087129725 0.16533045 0.05520596 0.53710294 0.4627631
0.19572993 0.0652542 0.17112838 -0.23167685 0.3266909 0.46321437 0.44694644 -0.32930678
-0.262858 0.49927914 0.46032766 0.35400215 0.47078267 0.5279963 -0.30192807 -0.45252723
-0.0037056787 0.35431528 -0.25680253 -0.34929782 -0.5654669 0.08561421 0.07444315 -0.3137211

conv1.conv_1.bias f4 [128]
00000000: a0f0 78be f914 993d b95e d73d 3b00 5ebe
00000010: 6b1c da3e 70e9 34be d79a b43d d8c8 e7be
00000020: d046 27be 6f70 003f 967d 533c ca43 a33e
00000030: 853d a73d 569e ec3e 59f7 afbe fa06 203e
00000040: c0ec 9ebe 0702 65bd 50d6 06bf 4c78 d43e
00000050: 8e53 3d3e 11d8 a1bd ac71 6abe 4a1c f73e
00000060: 680f ccbe a17d da3e 77e7 89be dc9a a4bc
00000070: 8b79 0f3f ff40 bb3e 1d88 d8be 478e be3e
00000080: 70b6 e93a ae62 b63e 5dae a53e 17e7 473d
00000090: e9d7 e53c 6480 913e b255 d5be ecd9 c73e
000000a0: f3f5 b6be 9d36 603e c059 fe3e 7487 d63e
000000b0: 18ce 82be 0b03 0a3f 7a1b acbe d386 04be
000000c0: b9fe b9be d171 06bf 6a1e 923d dcea 81be
000000d0: f685 f6be f35f d83e 2f84 bdbe c5a7 ef3d
000000e0: 4320 0a3f 1aad 053f 15bf 143e 4177 ae3d
000000f0: c78f 313e 888e 053f cdaf 883e 4186 e13e
00000100: 3ff2 bcbe b41a 863e cb19 ba3e f571 b43e
00000110: ced8 9cbe 68d4 d63e 1d0c be3c 6b5a 09bf
00000120: af0a dc3e 908e e93e ccc6 a6be 8072 c5be
00000130: 05ec b63e d347 c83e 5232 ecbe 2f8e 09bf
00000140: cc94 3bbe 4631 d6be ec68 0ebe a939 8d3e
00000150: 0c9c 91be 41e1 073f 3230 3fbe c601 66be
00000160: e0ba 0d3f 2992 3cbe 7a2a d63e c45a 213e
00000170: 726a c43e ad20 023f 696c 03bf 0ddb f6be
00000180: 4e51 6a3d 294a d1bd e0f1 4d3e bf29 c43d
00000190: 69f3 9f3e 3a89 5a3e f96a 053f 00ac b73e
000001a0: 78a0 d83e 3971 403e 50bd fd3e 245d 033f
000001b0: 0d2e 82be 6c4b 52be c466 cfbe 1f51 01bf
000001c0: 55af d43e 499c a33e 9d52 cf3e e342 0f3f
000001d0: 1686 f1be 783b 15be 5eb3 113e 09c7 c0be
000001e0: bd21 babe efb9 703d 2ba5 873e 3e72 cabe
000001f0: 5ca3 fc3e 5d2d 3a3d d94f a3bc abda d23d
-0.24310541 0.07474703 0.10516114 -0.21679775 0.42599806 -0.17667174 0.08818596 -0.4527042
-0.16335607 0.5017156 0.01290836 0.31887656 0.08166031 0.4621455 -0.343684 0.15627661
-0.3104 -0.055910137 -0.52670765 0.4149803 0.18488905 -0.079025395 -0.22894925 0.4826377
-0.39855504 0.42673972 -0.26934406 -0.020093374 0.56044835 0.36573026 -0.42291346 0.37217924
0.001783086 0.35622162 0.3235959 0.04880437 0.028057056 0.28418267 -0.41666943 0.3903345
-0.3573452 0.21895833 0.4967785 0.41900218 -0.25547862 0.53910893 -0.33614713 -0.12942056
-0.3632715 -0.5251742 0.07134707 -0.25374496 -0.4814908 0.42260703 -0.3701491 0.117019214
0.5395548 0.5221726 0.14526017 0.0851884 0.17340003 0.5217061 0.26696625 0.4404774
-0.3690357 0.26192248 0.36347803 0.35243192 -0.3063416 0.41958928 0.023199135 -0.5365359
0.429769 0.4561658 -0.32573545 -0.3856392 0.35726944 0.39117298 -0.4613214 -0.5373258
-0.1831848 -0.41834468 -0.13907212 0.27583054 -0.28439367 0.53078085 -0.18670729 -0.22461614
0.55363274 -0.1841513 0.41829282 0.1575728 0.3836246 0.5083111 -0.51337296 -0.48213997
0.057206444 -0.10219223 0.20111799 0.09578275 0.31240395 0.2134141 0.5211635 0.35873413
0.42309928 0.18793191 0.49558496 0.51313996 -0.2542576 -0.20536584 -0.4050809 -0.50514406
0.41540018 0.31955174 0.40492716 0.55961436 -0.47172612 -0.14573467 0.1422858 -0.37651852
-0.36353865 0.05877107 0.264932 -0.39540285 0.49343383 0.045453418 -0.019935535 0.10295614

conv1.conv_2.weight f4 [128, 128, 3]
00000000: 84cb f5bc b41c 47bb b61d e53c 3a97 d83b
00000010: 8b25 263d 09b3 27bd 4a27 debc b3b1 ff3b
00000020: f5f6 e53c 0d7f 483d 67c4 803c e222 133d
00000030: fd46 963c 55af 3c3d 6efb 5dbb 8f91 81bc
00000040: b8c9 3fbd b5c2 113d 2573 293c 329e 213c
00000050: eb54 cf3c eeeb e83b 46df 1a3d bb5f 0dbd
00000060: 711d 43bd 49a1 19bd e843 64ba d148 cd3b
00000070: 0182 fd3b 56be b8bc 4c70 39bd 1af6 24bd
00000080: e721 0bbd c642 1b3d 5a79 abbb 6f5b 7a3c
00000090: 4d60 ac3c 0922 2a3d a2e2 9c3c 7e76 113d
000000a0: b5fb 6b3b ebd9 3bbd 65f2 34bd 7a96 24bc
000000b0: df9b b93c 847c 41bd 1a13 babb 8e71 fe3c
000000c0: a33a 3f3d b155 c7bb 1e48 b2bc 0b25 b33b
000000d0: dd5f 06bd 63f1 483c a3b3 3cbd 506e 613c
000000e0: d01f 07bd 9a94 b13c 21c4 0f3c 2d7e 09bc
000000f0: 3e62 f33c 5410 38bd 9bd7 1f3d 5f15 0fbd
00000100: b461 823c 964d 2a3d 4671 413d d2b7 32bd
00000110: 4065 60bb 1516 8b3c 0e3f 9abc 82c3 c5bc
00000120: e1dd 123d be53 25bd 181d 2abd a829 54bd
00000130: 5153 003c 992c d93c 3144 323d 417c 3e3d
00000140: 364e d0bc 4671 19bc 8e81 29bd 958b 943b
00000150: 68af 06bd aaf9 323d 5512 52bd 5292 683d
00000160: b7d6 4fbd 74da 4bbc afbe fbbc 9361 893c
00000170: 8a47 fcbc b725 00bd 0605 d3bc c94b 113d
00000180: 1eef 3e3d d458 21bd 3ddb 4a3c e789 99bc
00000190: 0947 5a3d 3fe5 45bd 5201 593c 3af6 d13c
000001a0: bf8e 40bd 639b e83b fcb7 76bc 9f7d 0cbd
000001b0: ca12 0bbd 9f9c 86bb 263d fdbc 397f b13c
000001c0: 19ec 28bd 9f05 083a f40f a5bc f9fe 2cbc
000001d0: 190a 2b3d 6f57 fabc 65b6 36bd 90bd 2dbd
000001e0: c5ba 1f3d 8331 bb3b 0b54 8abc ce74 9dbc
000001f0: 8e5e 1ebd 4071 99bc cec2 f33b 3f0e 90bc
00000200: 8b0b 4b3d 145d afbc 6b73 d53b d5a5 cf3c
00000210: 8d7a 9f3b 79f5 f0bc 447d a7bc cb8f 11bd
00000220: bff8 c4bc e58b 0a3a e959 05bd 0434 9f3c
00000230: b5bb c63c d937 e63c cb1b 363d 6da5 a7bc
00000240: 6438 90bb 15bf e3bc 9145 2a3d f46b 87bb
00000250: d214 523d 5731 133c a5d3 88bb e3d4 32bd
00000260: 0bbc 5cbd abdb 373c b57e f7bc bdc6 4e3c
00000270: ca2c 15bc da73 fcbc 04cb ee3c 121d 08bd
00000280: 6ea7 003c 10ad 07bd a4b6 4a3d 62dc 09bd
00000290: 4840 3b3c 51fb 233d 222c 04bd 8d09 a73c
000002a0: 4689 2abd 5b8c 2a3d 9fa9 173d 9368 1dbd
000002b0: 432a 28bc b87b 123d 00d7 1c3d c194 08bd
000002c0: f4ad c83c 4a98 4cbc 486a 0fbd 821e f2bc
000002d0: cd8a 583c f45f ba3c 9a78 04bd 4dbf 1f3d
000002e0: 4af7 9c3c fc04 a4bb 3e7d 30bd d2b9 7ebb
000002f0: 1437 8bba 9587 44bb 02c8 23bd f41a a13c
00000300: e418 323d 4024 f6bc 1dc5 12bc 9320 073b
00000310: 6141 c83b c545 683c 6fff 44bb 3680 353d
00000320: f4d8 aa3c 99c1 fc3c ad60 f73c 05d0 123b
00000330: d464 6139 2a9e 09bc 0261 19bd e23f 16bd
00000340: a10f 24bd 0410 36bd 326c 5138 a4ab 78bc
00000350: f74c 1ebd 787b 393d 34ea 8d3b 4303 9a3c
00000360: 497d 143d 737b 00ba 8372 98bb e156 0bbd
00000370: 795c b03c feec 7a3c 77e9 20bb 0782 9a3c
00000380: 4c06 cdbc 5749 3a3d 2378 5fbc 46f8 833c
00000390: 4002 c63c e2e4 3cbc e9de 3dbd f699 a7bc
000003a0: 522a 25bd 27d5 bcbc 24d0 733c d5d1 19bd
000003b0: 33b8 ff3c c2f3 cf3c ff30 cdbc e00b c53c
000003c0: ba12 253d de27 3a3d 836d d9bc fffd 973c
000003d0: ec86 79bc 281a bcbc a0e1 cabc fc10 1b3d
000003e0: 6b5a ad3c ed35 663b 5ce9 a7bc d2e1 e7bb
000003f0: 88e8 933a 0bf7 363d 47f4 e13c 4095 b43c
-0.03000427 -0.0030382099 0.027968269 0.0066098245 0.040563148 -0.040942226 -0.027118344 0.007803166
0.02807186 0.04894929 0.015718652 0.03592194 0.018344397 0.046065647 -0.0033871788 -0.015816478
-0.046823233 0.035586078 0.010342394 0.009864377 0.025309047 0.007108203 0.037810586 -0.034515124
-0.0476355 -0.03750733 -0.00087076286 0.006264784 0.007736445 -0.022551697 -0.04527311 -0.040273763
-0.03396788 0.037905477 -0.005232972 0.0152805885 0.021042014 0.041536365 0.019151036 0.035513394
0.0036008183 -0.04586212 -0.044176478 -0.010045642 0.022657333 -0.047237888 -0.0056785466 0.031060006
0.04668678 -0.0060832133 -0.021762904 0.0054670624 -0.032806266 0.012264582 -0.046069752 0.013759211
-0.032989323 0.021677304 0.008774788 -0.008391899 0.029709931 -0.044937447 0.039023977 -0.03493249
0.01591573 0.041577898 0.047227167 -0.043632336 -0.0034240037 0.016978303 -0.018828895 -0.024141077
0.03585613 -0.040363066 -0.041531652 -0.05179754 0.007832364 0.026510524 0.043522064 0.046505217
-0.025427919 -0.009365385 -0.04138332 0.004533241 -0.032882124 0.04369513 -0.051287014 0.056780167
-0.050741877 -0.01244222 -0.030730573 0.01677016 -0.030795831 -0.031285968 -0.025759231 0.035472665
0.04661476 -0.039391354 0.012381372 -0.018742515 0.0532904 -0.04831433 0.013244944 0.025630105
-0.047011133 0.0070986017 -0.015058514 -0.03429949 -0.033953466 -0.004108026 -0.030912947 0.02166711
-0.041240785 0.0005188826 -0.020149209 -0.010558837 0.041757677 -0.03055927 -0.04460754 -0.04241711
0.038996477 0.0057126894 -0.016885778 -0.019220736 -0.038664393 -0.01873076 0.007438994 -0.017584918
0.049571555 -0.021406688 0.006514003 0.02534763 0.004866904 -0.029413925 -0.020445473 -0.035537522
-0.024044393 0.0005285128 -0.032556448 0.019433983 0.024259428 0.028102802 0.0444601 -0.020464623
-0.0044012535 -0.027801076 0.04157025 -0.004132742 0.051289387 0.0089839315 -0.0041756206 -0.043660056
-0.05389027 0.0112218065 -0.030211786 0.012620625 -0.009104917 -0.030816961 0.02914954 -0.03323085
0.007852418 -0.03312403 0.049490586 -0.03365744 0.0114289 0.040034596 -0.03226865 0.020390296
-0.04163482 0.04163776 0.037026998 -0.038429808 -0.010263982 0.03576252 0.038290977 -0.033344988
0.02449701 -0.01248748 -0.035013467 -0.029555563 0.013216686 0.022750832 -0.032341577 0.039000798
0.019160885 -0.005005477 -0.04308819 -0.0038868082 -0.0010621273 -0.002998804 -0.039985664 0.019666173
0.04348077 -0.030046582 -0.008958128 0.002061878 0.0061113094 0.014176791 -0.0030059477 0.044311725
0.020855404 0.030854033 0.030197466 0.0022401821 0.00021495234 -0.008399526 -0.03744603 -0.036682017
-0.040053967 -0.044448867 4.9930248e-05 -0.015177641 -0.03864762 0.045283765 0.0043308977 0.018800383
0.036252294 -0.0004901208 -0.0046523227 -0.0340184 0.02152847 0.015315292 -0.0024553218 0.01886083
-0.025027417 0.0454801 -0.013639483 0.016109597 0.024170995 -0.011529179 -0.04635516 -0.020459156
-0.040323563 -0.023050858 0.014881168 -0.037553627 0.031215763 0.025384787 -0.025047777 0.024053514
0.040301062 0.045448177 -0.026541477 0.018553732 -0.015229922 -0.022961691 -0.02476579 0.037857994
0.021161279 0.0035127357 -0.020497017 -0.0070764804 0.001128451 0.044669192 0.0275823 0.022043824

conv1.conv_2.bias f4 [128]
00000000: 3dfe 0e3c 7de0 19bd 0c75 d33c 03f6 d0bc
00000010: 9b07 47bd c7d6 02bd 995c 9ebc cc2c 273d
00000020: d521 1abd cc01 253d 195e e83c 0559 d7bc
00000030: 9008 06bd e835 433d 67cc 00bd 12a4 473c
00000040: b11b 44bd d562 35bd ee1c ccbc 37ba 25bd
00000050: f7cd ca3c 174f 78bb 2845 093d b20f 42bd
00000060: 9d5b 83ba 1bf6 203d a234 aa3c ddcd 01bd
00000070: a3d0 abba 324a be39 efef 893c a455 c23b
00000080: eea5 1f3d 3770 80bc b84b e13c b5f6 213d
00000090: 6a4b bfbc 757a ccbc 50e0 c83c e4af 203d
000000a0: 020c 36bd 6f7c 183d 3093 573c 897d 04bc
000000b0: b5ad 98bc baad 46bc bb41 af39 c8d7 cc3c
000000c0: c8b5 32bb 36bc 15bd 669e 9fbc 071e 1bbd
000000d0: 0178 76bc 5636 393d 10ab ee3c cc6e 14bb
000000e0: 88b1 0abd 9b7a 4d3c 2026 20bd 587e 19bd
000000f0: d91f ba3b b994 b43b 0a5f cbbc fdea 303d
00000100: c221 403d ee51 fd3b 2bd8 4b3d 21d6 8dbc
00000110: af0f 9bbc 8de7 02bd c4fe bdbc 2df6 00bb
00000120: 8e37 033d 7d78 80bb f665 673b f5f1 d6bc
00000130: d98f 323d d12e cbbc 294c 2dbc 20f9 efbb
00000140: 525a b7bb cb4e 3cbd 66cc 23bd 5fdd 2fbd
00000150: cdd3 273d ff7c e0bc 3fcf 2f3d 500e ecbb
00000160: 93ad f93b 9341 853c 1cf3 c2bb 78fa 633c
00000170: 0b5e 34ba 461d febc 21e6 14bd ee65 28bc
00000180: e153 303c 64c5 75bc 57d4 08bc b697 f03c
00000190: 3099 b5bc bf69 9b3c 7fc5 cc3c 2c49 4a3d
000001a0: ac81 0b3d ab5d 9bbc e41e 2ebd ae08 c33c
000001b0: 3d0d 3cbd 8adc 713c 9d0c febc 2396 b43b
000001c0: 7647 bfbc 7f77 3fbd 0971 0bbd f687 883c
000001d0: 8924 bebc 4cb4 95bc fd02 f93c 668f a03b
000001e0: 3614 773c 0ad5 19bd d375 873b b70f 1e3d
000001f0: 3343 36ba f496 8bbc df35 f9bb 3139 e53b
0.008727607 -0.037567604 0.025812648 -0.025507933 -0.048591238 -0.03194311 -0.019331263 0.040814206
-0.03762992 0.040284917 0.028365182 -0.026287565 -0.03272301 0.04765883 -0.031444933 0.0121851135
-0.04787797 -0.044283707 -0.024916138 -0.04046079 0.024756415 -0.0037888938 0.03351322 -0.04737825
-0.001002181 0.039297204 0.02077705 -0.031690467 -0.0013108443 0.00036294904 0.016838042 0.0059306193
0.038976602 -0.015678508 0.027501926 0.03954192 -0.02335139 -0.024960736 0.024521023 0.039230242
-0.044445045 0.037228044 0.013157651 -0.008086571 -0.018637517 -0.012126381 0.00033427574 0.025005236
-0.0027268995 -0.036556445 -0.01948471 -0.037870433 -0.01504326 0.045217834 0.029134303 -0.0022649048
-0.033860713 0.012541438 -0.03909886 -0.037474006 0.005680066 0.005510893 -0.024825592 0.043192852
0.046907194 0.007730714 0.0497667 -0.017314019 -0.018928377 -0.031959105 -0.02319277 -0.0019677982
0.032035403 -0.0039206133 0.0035308576 -0.026238421 0.043594215 -0.024802597 -0.01057724 -0.007323399
-0.005595484 -0.04597358 -0.03998985 -0.042935725 0.040973473 -0.027403353 0.042922255 -0.0072038546
0.0076195686 0.01626662 -0.005949391 0.013914697 -0.00068804686 -0.031019818 -0.03635228 -0.010278208
0.010762186 -0.015000675 -0.008351407 0.029369216 -0.022167772 0.018971322 0.024996517 0.04938619
0.03405921 -0.018965563 -0.04250993 0.02380785 -0.045911063 0.014762053 -0.031011874 0.0055110618
-0.023349505 -0.04674482 -0.034043346 0.016666394 -0.02321078 -0.018274449 0.030396933 0.004899907
0.015080502 -0.037556686 0.004133919 0.038589206 -0.00069527625 -0.017039753 -0.007605299 0.006995343

conv1.conv_3.weight f4 [128, 128, 3]
00000000: d1b2 4fbd f008 44bd 08f6 423d 1987 61bc
00000010: 075d 583d 8603 31bc 3150 3bbd f24b 76bc
00000020: 4558 20bd 1cfc 0cba e410 d2ba 8124 343d
00000030: 8d66 9fbb a4bf 2cbc 2ea5 1abd 7444 34bd
00000040: 2662 c13c 1edd 283d 2828 373d d629 a43c
00000050: bb10 f13c 4e8f 163d c0ba 283d d7c9 fd3c
00000060: a077 33bd e4b3 353d 99f2 1c3c 6bc7 c5bc
00000070: 22fc bcbb 4c46 473c daa5 b9bc eb1a 9fbb
00000080: a090 84bb 38bc 8639 3973 a23c f660 1b3d
00000090: a084 0c3d c2f5 1d3d 191f 073d f4f8 a83c
000000a0: d708 fd3b eb86 0dbd 80d7 fdbc 1c71 37bd
000000b0: 1d3d 41bd 0d7d 32bd 7912 873b 2fa4 283c
000000c0: 574c 22bc 479b d33b 28b4 863c ce93 4f3d
000000d0: 630b 1dbc bf66 393d 80ed 17bc 5d04 933c
000000e0: fcfa 1e3d 6179 4abd a715 95ba 4aa4 debc
000000f0: dfd9 313d 8a13 db3c d19c 29bd 0ce9 c1bc
00000100: b4b5 78bc ec4b 1a3d a3d8 fd3c 9023 0f3c
00000110: 30de 7abc b307 8eba e934 7f3b 334f 16bb
00000120: f532 b43c 5ca9 2d3d 14cc b03c 8ccd d4bb
00000130: 4498 17bd b5f8 b23c 4c0e 3abd 9f01 933b
00000140: 7cbf 08bd f9ea 213d 7519 9a3c 253d 0fbc
00000150: c670 673c 2534 533c 371b 37bd 0c31 62bc
00000160: 71b7 22bc 18c8 a6ba bd84 1fbd ac56 a23c
00000170: 80f3 47bd c324 073a 288f f23c 9d1d 21bd
00000180: 9021 fc39 de40 5cbc 1237 e6bb 30c0 b33c
00000190: 3aef ab3c 0333 ffbc d77f c23c 2e96 173c
000001a0: 4ba1 32bb 59e1 283c e416 783c 465a 863b
000001b0: 87ac 2c3d 167d e5bc 37a2 1f3d c2c3 be3c
000001c0: 986a bebc ca49 ac3c 172f afbc b9ac 563c
000001d0: 3ccd 06bd 1424 c3bc 150d e83c b281 21bd
000001e0: 0c24 0cbd eb5e 06bb 0efa 1c3c ca44 dd3a
000001f0: 1ce7 01bd ba8b 12bd 595f 37bd f231 0c3c
00000200: bfc5 a33c 4ec7 3d3d 7f4a 813c 7eae 2c3d
00000210: 6f50 103b 260f 90bb ccd0 16bd 5dde 223d
00000220: 738e 19bd 6984 513d f0e7 d63c e5ec 683c
00000230: ed81 08bd 9648 093c f079 2d3d e6dc 3a3d
00000240: 9c58 fabc fc09 3e3c 1c68 f139 2746 36bd
00000250: 6b09 b5bb e73b 38bc 802c 0dbc 9c56 323d
00000260: e6ed a0bc 9edf 173c f3ce 4f3d dfb1 e1bc
00000270: 2d25 2ebc e0ee cabc 5952 503c 0127 a6bc
00000280: 61ee cc3c 0032 13bc e1d6 443d eba3 803c
00000290: 0ef8 3d3c e7c4 5e3c 0505 1d3c 255f 3dbd
000002a0: 73ba 72bc faef 893c 53d5 c03c 0bf8 133d
000002b0: a430 0ebd 02a6 603d 3a4b 263d 71d0 9abc
000002c0: ed41 2abd df2d c13c a3f0 bfbc d30e 40bd
000002d0: 9e4a 4e3d f35b 163c 60d7 32bd 664b 9ebc
000002e0: d5bb dd3c 0abd b9bc eb92 2cbc b78a 2abd
000002f0: 0fd6 fa3c ece5 913c c09d 01bd b503 7d3c
00000300: f949 4d3d b1fa b4bb ae65 19bd b2e9 2abb
00000310: fa87 223d 1cd9 4b3b 73ea 31bd 301e 0ebd
00000320: f820 a43c e0be 143d cd3f 28bd a5c7 1d3c
00000330: 1cc5 2fbd dae8 7d3c e8d5 0b3d fd3b 1b3d
00000340: a93a a1bc 92a4 bebc a1e0 1d3d cd7c edbc
00000350: f521 233d c565 52bd a8f2 203c 1bd2 1dbd
00000360: 600a 073d bc51 d1bb 934c 6c3c ce76 f3bc
00000370: d149 d03c 7828 16bc 3b47 9dbc 0940 323d
00000380: 5f18 4fbd 532e 293c 10f7 b2bb 3f7c 443d
00000390: a45d 3cbd e236 c7bc 8b45 9fbc 0f46 d13c
000003a0: 14e6 233d 96f3 bd3c e89a 643d 045c 55bc
000003b0: 028e 473d a6c9 0b3d a1d8 eb3c 94d7 283d
000003c0: bf6c 9e3c b3a6 c9bc b93f 2dbd 3697 20bd
000003d0: 778d 41bd 1337 c73c a421 5cbd 481f f0bc
000003e0: 5c33 d13c 13c4 b03c 6bbf 5bbd 538b 27bd
000003f0: f472 e73c c156 54bc 6672 ca3c 8b71 1b3d
-0.050707642 -0.047860086 0.047597915 -0.01376512 0.052823093 -0.010804063 -0.045730773 -0.015032755
-0.03914668 -0.00053781434 -0.0016026762 0.043980125 -0.00486452 -0.010543738 -0.037755184 -0.044010594
0.023606371 0.0412265 0.04471603 0.02003948 0.029426923 0.03675776 0.041193724 0.030980034
-0.043815255 0.04436101 0.009579324 -0.024142941 -0.0057673613 0.012162756 -0.022662092 -0.004855504
-0.004045561 0.00025698706 0.019830333 0.037934266 0.03430617 0.03856445 0.03298864 0.020626523
0.007722001 -0.034552496 -0.030986547 -0.044785604 -0.047177423 -0.04357629 0.004122075 0.010293051
-0.009905896 0.0064577195 0.016443327 0.050678067 -0.009585234 0.045264002 -0.009272933 0.017946417
0.038813576 -0.049432162 -0.0011374251 -0.027177949 0.04342067 0.026742715 -0.041409317 -0.023670696
-0.01518004 0.03767006 0.03098709 0.008736506 -0.015311763 -0.0010836035 0.003894145 -0.002293539
0.021996954 0.04239784 0.021581687 -0.0064942297 -0.037010446 0.021847108 -0.04542379 0.0044862772
-0.03338574 0.039530728 0.018810967 -0.008742605 0.014126008 0.01289085 -0.04470369 -0.013805639
-0.009931431 -0.0012724428 -0.03894495 0.019816719 -0.048816204 0.0005155319 0.029609278 -0.039334882
0.00048090192 -0.0134432 -0.007025608 0.021942228 0.020988096 -0.031152254 0.0237426 0.009252114
-0.0027256783 0.010307633 0.015142176 0.004100117 0.042156722 -0.028013747 0.03897306 0.023286704
-0.023244187 0.02103128 -0.021384759 0.013102704 -0.03291057 -0.023820914 0.02832655 -0.039430328
-0.034214064 -0.0020503353 0.009581102 0.0016881463 -0.031714544 -0.035777785 -0.044768665 0.00855683
0.019991754 0.04633265 0.015782593 0.042158596 0.0022020598 -0.004396337 -0.036820218 0.039762843
-0.037489366 0.051151667 0.026233643 0.014216636 -0.033327032 0.008379122 0.042352617 0.04562082
-0.03055983 0.01159906 0.0004604467 -0.044500496 -0.0055248043 -0.011244751 -0.008616567 0.04353963
-0.019644689 0.009269623 0.05073447 -0.027550636 -0.010628981 -0.024772108 0.012714946 -0.02028227
0.025016012 -0.008984089 0.048056487 0.015703162 0.011594785 0.01359675 0.009583716 -0.046233315
-0.014814961 0.016838063 0.02353922 0.036125224 -0.034714356 0.054845817 0.040599085 -0.01889822
-0.041566778 0.023581443 -0.023430174 -0.046889137 0.05036413 0.009177196 -0.04366243 -0.019323062
0.027067104 -0.022673149 -0.010533075 -0.041636195 0.03061965 0.01780983 -0.031644583 0.015442778
0.050119374 -0.005523049 -0.037450485 -0.0026079235 0.03968046 0.003110475 -0.04343648 -0.034696758
0.020035252 0.036314845 -0.04107647 0.0096301185 -0.042912588 0.015497411 0.034139544 0.037899006
-0.019681292 -0.023271833 0.0385443 -0.028990174 0.039827306 -0.051366586 0.009823479 -0.03853045
0.03296888 -0.0063879173 0.014422554 -0.029719736 0.025425823 -0.009164922 -0.019199004 0.0435181
-0.05056035 0.010325986 -0.005461581 0.047970053 -0.04598774 -0.024318162 -0.01944234 0.025546102
0.04001434 0.02318744 0.055811793 -0.0130224265 0.048719414 0.034127854 0.02878982 0.041221216
0.019338964 -0.024615621 -0.0422971 -0.039206706 -0.047254052 0.024318254 -0.05374302 -0.029311791
0.025537185 0.02157787 -0.053649347 -0.040904354 0.028253056 -0.012960137 0.024712753 0.03795008

conv1.conv_3.bias f4 [128]
00000000: 6dfa 6e3c 5957 063d 4862 44bd 5dee 2a3d
00000010: a12e 14bd 35fc 37bd 92c2 e6bc 67aa 1bbd
00000020: 4de5 24bd 4868 293d 2f25 9c3c 0b0c d93c
00000030: 14a4 4cbc 4937 32bd 41dc a8bc ea6f 303d
00000040: 2ac0 4dbd a8bd 013d a5a6 4abd a317 4ebc
00000050: 6fb7 33bc 0b98 3f3c 99ba e9bc 2ea7 97bc
00000060: 458e d5bc 0fd9 21bd d9d6 733c ad0a 3fbd
00000070: 97da ac3a 7117 f83c 6127 01bc 1cdc 3c3d
00000080: e058 22bb 96f7 dcbc 26cb d33c f205 973b
00000090: 1a28 673c 2971 3bbd e155 443d f5df e9bc
000000a0: 6892 4a3c f9d6 14bc 40a9 bf3b a23c c6bc
000000b0: 2979 cbbc 3b34 90bc 9095 193d 6ffa febc
000000c0: bfa5 55bc 297f 833c ff2d 313d 4fec ea3c
000000d0: ac1b e9bb 814d 833b e05a 113d d2ca cd3c
000000e0: 48f5 53bc 0fc5 df3b b9fe 13ba 1414 81bc
000000f0: d7d7 bbbb 3563 87bc 9151 f6bc cb55 0ebd
00000100: 24ff c73c c42a ffbc b8fa 90bc a4b2 78bc
00000110: dad7 19bc f2e5 ddbc 4965 fc3c 5bd7 a0bc
00000120: cde9 0e3d 80e8 29bc 9787 30bd f775 353d
00000130: 9b8d 253d 193b eeb9 2868 9e3c 52c0 02bc
00000140: 0fba c7bc 35c7 f9bc e6d9 3fbd 3c38 a7bc
00000150: fa01 f53b d920 ab3c 6d43 653b 1ef1 b2bc
00000160: 0a1d b3bb fd28 4a3d d9a3 d73c a3dc b73c
00000170: b2c2 06bd d64c 0bbd ff1c 3f3d 06c3 a4bc
00000180: 8dfa d3bb 2fa9 3a3d c88b 3fbd 0680 32bd
00000190: b452 2bbd c5b1 99bc 462f 4abd f0f4 483c
000001a0: b00c a73c c260 c53c c73a 75bc 6fe9 09bd
000001b0: a257 2e3d 92fe 9ebc 6e61 fdbc a608 cfbc
000001c0: 08fe 08bc 686a 493c 5947 e8bc eef2 b33c
000001d0: 3618 323d 233c 993c d47b 323d 111f 043c
000001e0: 3305 03bd 0361 b53c 7194 dc3a 2f39 a9bc
000001f0: 9e2e 5c3c 9a4f 28bd fced aebc 19b3 dfbb
0.014586073 0.032798145 -0.04794529 0.041731227 -0.03617728 -0.044918258 -0.02816895 -0.038004305
-0.04025774 0.041359216 0.0190607 0.026495 -0.012490291 -0.043509755 -0.020612838 0.04307548
-0.05023209 0.03167501 -0.04947533 -0.012578878 -0.010969027 0.011693965 -0.02853136 -0.018512335
-0.026068816 -0.039513644 0.014882767 -0.04664104 0.0013187703 0.030284615 -0.007882924 0.04610835
-0.0024772212 -0.026973527 0.025853705 0.004608863 0.014108682 -0.045762215 0.047933463 -0.028549174
0.0123640075 -0.009084457 0.0058490336 -0.024198834 -0.024838047 -0.01760303 0.03749615 -0.031125275
-0.013040005 0.016051846 0.043256756 0.028677134 -0.0071138944 0.004007042 0.035487056 0.025121126
-0.012936898 0.006828911 -0.00056455616 -0.015756644 -0.005732517 -0.016526798 -0.03006819 -0.034749787
0.024413653 -0.031148322 -0.017697677 -0.01517931 -0.009389842 -0.027087186 0.030810015 -0.01963394
0.03489094 -0.010370374 -0.04309806 0.044301953 0.04041825 -0.0004543893 0.019336775 -0.007980423
-0.024380712 -0.030490497 -0.046838664 -0.020412557 0.0074770423 0.020889686 0.0034982816 -0.02184349
-0.005466108 0.049355496 0.026323246 0.022444075 -0.03290052 -0.034008823 0.046658512 -0.020112526
-0.006469077 0.045571502 -0.046764165 -0.043579124 -0.04182692 -0.018761525 -0.04936149 0.012265429
0.020391792 0.02409399 -0.014967627 -0.033669885 0.042564042 -0.019408498 -0.030930247 -0.025272679
-0.008361347 0.012293436 -0.028354334 0.021966424 0.04348012 0.018705433 0.043575123 0.008064047
-0.03198738 0.022140985 0.0016828907 -0.02065715 0.013438849 -0.04109154 -0.021353714 -0.00682677

conv1.normalization_1.weight f4 [128]
00000000: 4dd4 803f 22cb 823f aace 7e3f 0885 7f3f
00000010: 980d 803f 4926 7e3f 7c26 7f3f 2f0c 803f
00000020: a7a8 803f ab0d 7f3f 98c7 7f3f ed81 7f3f
00000030: 1295 7c3f 7d3f 803f 4c81 813f 3c84 803f
00000040: 90db 7f3f 31b4 7e3f 6fa2 803f a24d 803f
00000050: e2ab 803f e647 803f df01 803f f1d8 7d3f
00000060: 54f2 7e3f 76fd 813f 8b1f 823f 6649 7f3f
00000070: b91e 7f3f 1bfa 803f 491c 7f3f 622a 7f3f
00000080: 061b 803f 08bd 7f3f 8511 7f3f 148f 7f3f
00000090: 61d9 7d3f 2aa0 7e3f d66e 803f 9eb2 7f3f
000000a0: 8a1e 803f 0ba1 7d3f 343d 803f e67b 823f
000000b0: dd13 7e3f e966 7f3f 744e 803f 465b 7e3f
000000c0: 57b1 7e3f 52ab 7e3f af65 823f cf6d 7e3f
000000d0: c57d 7d3f 6f07 7f3f 19e7 7d3f 3f21 803f
000000e0: f465 7f3f 4703 803f 2f07 7e3f 6358 803f
000000f0: 2df1 7f3f ca7b 823f aef6 813f bffd 7e3f
00000100: c6ad 803f 769b 7e3f 69f2 7d3f 892b 803f
00000110: f148 803f bdda 7f3f bb88 823f c831 7f3f
00000120: f92f 803f d988 803f 896a 7f3f 61a0 7f3f
00000130: 823d 7f3f afb6 7f3f 2ffc 7e3f a6c3 7e3f
00000140: 0bfe 7c3f ea5b 7f3f 5219 803f 2bee 7e3f
00000150: 726d 7e3f 1484 7e3f 836b 7e3f b18d 813f
00000160: 9bd2 7e3f 1822 7e3f 54fb 7f3f fac6 803f
00000170: bf85 7d3f 8c32 7e3f 15df 813f f8fa 7a3f
00000180: ad44 803f 5d38 803f 2965 803f be12 803f
00000190: e3af 7e3f cbd2 7e3f 752f 7e3f aacc 823f
000001a0: 4c91 803f 5e42 803f 7722 7f3f 4825 803f
000001b0: e4ba 803f 3aac 7f3f dd2d 7e3f a4a9 7e3f
000001c0: 42c9 7f3f 4b42 803f 377d 7f3f 74d0 7e3f
000001d0: 797e 803f 438b 813f 4e53 803f 0137 803f
000001e0: d8af 7d3f 8959 7e3f 677c 7e3f 4bca 7f3f
000001f0: 4aed 7e3f 5e3a 803f 9d49 803f cac3 803f
1.0064789 1.0218241 0.99534094 0.99812365 1.0004148 0.9927717 0.996681 1.0003718
1.0051469 0.9963023 0.9991393 0.99807626 0.98664963 1.0019375 1.0117583 1.0040355
0.999444 0.994937 1.0049571 1.0023692 1.0052454 1.0021942 1.0000571 0.9915915
0.99588513 1.0155475 1.0165876 0.9972137 0.99656254 1.0076326 0.99652535 0.99674046
1.0008247 0.99897814 0.9963611 0.99827695 0.9915982 0.9946314 1.0033824 0.99881923
1.000932 0.9907386 1.0018678 1.0194061 0.9924906 0.99766403 1.0023942 0.9935802
0.9948935 0.99480164 1.0187281 0.99386305 0.99020034 0.9962072 0.9918075 1.0010146
0.99764943 1.0001 0.9922971 1.0026973 0.9997738 1.0194027 1.0153406 0.99605936
1.0053031 0.99455965 0.99198014 1.0013286 1.002226 0.99943143 1.0197977 0.99685335
1.001464 1.0041763 0.99771935 0.99854094 0.9970323 0.9988813 0.9960355 0.99517286
0.9882514 0.99749625 1.0007727 0.99582165 0.9938575 0.99420285 0.993828 1.0121366
0.9954011 0.9927077 0.9999287 1.0060723 0.99032205 0.9929588 1.0146204 0.980392
1.0020958 1.0017201 1.0030872 1.000572 0.9948713 0.99540395 0.99291164 1.0218709
1.0044341 1.0020254 0.99661964 1.0011377 1.0057034 0.9987217 0.9928873 0.994776
0.9991647 1.0020231 0.9980044 0.99536824 1.0038596 1.0120624 1.0025423 1.0016786
0.9909644 0.9935537 0.9940857 0.9991805 0.99580824 1.0017812 1.0022465 1.005975

conv1.normalization_1.bias f4 [128]
00000000: 6fad 52ba 921b a93c 8a36 88bb 557f 03bc
00000010: 1ae9 e4ba f9ce bfbb 589b ccbb cf53 a1ba
00000020: 69e1 1eb7 9d79 75bb f569 8138 16f3 baba
00000030: e551 0dbc 0745 6d3a 34f5 833c 4f5c ceba
00000040: 7eda 7dba 16b2 95bb 89ed b1ba acb2 a53b
00000050: 21ea 163b 14a8 daba a54e 65bb 1b99 e3bb
00000060: 40d1 19bb 4356 cd3c 6645 e53c 4e8d abbb
00000070: 2a06 adbb b495 7f3a 847b 06bb 6a3d 41bb
00000080: f212 983a e464 8a39 ece5 99bb b785 90bb
00000090: 7762 72bb 3fc9 05bc 0c9e ccbb e810 cdbb
000000a0: 1368 4a3b 0468 93bc b062 d43a 2e90 173c
000000b0: 8f23 8ebb 9e46 b5bb b691 d1ba 9e23 67bb
000000c0: b902 a0bb f824 91bb ab21 b23c 082d 45bb
000000d0: f76a a7bb fd75 f5bb 7056 e8bb f74c c03a
000000e0: c6eb a9ba 951d b8ba b5fd 05bc 3400 6a3b
000000f0: 7f93 0dbb 0b13 163c 0744 973b db38 0ebc
00000100: 4d46 28ba 2c11 8cba 8161 0fbc db1a 0b3b
00000110: 47ae 9c39 7925 babb e3b0 b83c 7790 10bb
00000120: 5d81 51bb 965e 813b cfb3 b4ba 296f 0abb
00000130: a404 83bb 0e2c b639 7585 babb d1ff d4bb
00000140: 9b74 22bc acf3 70bb cfe9 b339 ae0c 8ebb
00000150: 624f 6cbb 74fa 95bb c92c 95bb 3e19 273b
00000160: d5d7 b7bb 8a26 5dbb 9308 70bb 15f2 6bbb
00000170: 255a 2dbc 176f c1bb 586a d5bb 7194 15bc
00000180: 3122 acb9 8eab 3ab9 cdc4 00bc 2d32 f8ba
00000190: c940 98bb b1e6 ecba b1cd a4bb 46a3 1c3d
000001a0: 3ae7 903b 4294 5a3b 76d1 e6bb 261c 833c
000001b0: 4f94 6abb e38b 85bb 1ff5 e4bb c348 3bbb
000001c0: 1404 adbb 08c0 073b 608b bfbb f29f 75bb
000001d0: 94e9 17bb 551c ea3b 6fc0 59bb 410b 5c3b
000001e0: ea81 d9bb 0e4b 7abb fe5a f9bb ec7b 2b38
000001f0: 2885 acbb d2a4 4cba c094 5a3b 4de7 32b9
-0.0008036708 0.02064303 -0.004156892 -0.008025964 -0.0017464489 -0.0058535305 -0.0062441044 -0.0012308302
-9.470016e-06 -0.003745652 6.1709354e-05 -0.0014263119 -0.008625482 0.00090511184 0.016108133 -0.0015744063
-0.0009683742 -0.0045683486 -0.0013574819 0.0050566997 0.0023027735 -0.0016682171 -0.0034989503 -0.006945742
-0.002347067 0.025065547 0.027987193 -0.0052353507 -0.005280276 0.00097497855 -0.0020520398 -0.0029486069
0.0011602326 0.0002639658 -0.0046965983 -0.0044104713 -0.003698496 -0.008165657 -0.0062444266 -0.006258119
0.0030884787 -0.017993934 0.0016203728 0.009250684 -0.004337735 -0.0055321 -0.001598886 -0.0035269032
-0.004883137 -0.004429456 0.02174457 -0.0030086655 -0.0051091867 -0.007490872 -0.0070903823 0.0014671375
-0.0012963943 -0.0014046902 -0.008178164 0.0035705687 -0.0021602807 0.009159814 0.004616264 -0.008680548
-0.0006419167 -0.001068627 -0.008751274 0.0021225724 0.00029884485 -0.0056807366 0.022545284 -0.0022058764
-0.0031967976 0.003948043 -0.0013786497 -0.0021123386 -0.003998356 0.00034746568 -0.005692179 -0.0065002223
-0.009915496 -0.0036766334 0.00034315742 -0.0043350076 -0.0036058058 -0.0045769755 -0.004552458 0.0025497223
-0.005610446 -0.0033744895 -0.0036626204 -0.0036002446 -0.010580574 -0.0059031355 -0.0065129213 -0.0091296295
-0.0003283187 -0.00017802251 -0.007859421 -0.0018935852 -0.004646395 -0.0018074122 -0.005029403 0.038241647
0.0044220956 0.0033352529 -0.0070440127 0.016004633 -0.0035793965 -0.0040755137 -0.0069872285 -0.0028577305
-0.005280027 0.0020713825 -0.005845472 -0.0037479368 -0.0023179995 0.0071444907 -0.0033226272 0.0033576044
-0.0066378014 -0.0038191709 -0.007609724 4.088499e-05 -0.005264897 -0.00078065426 0.0033352822 -0.00017061569

conv1.normalization_1.running_mean f4 [128]
00000000: 4e64 76be 5827 9b3d 99d4 de3d 510b 50be
00000010: 53cd d63e 97d2 2bbe a804 903d fd7e e9be
00000020: 10ef 21be 9a9f 043f 757e 09bb 70ca 9b3e
00000030: e580 e13d 020d e73e c1b9 aebe d418 1a3e
00000040: f24b 9fbe 306c 81bd d2d8 04bf 8c9d d33e
00000050: 6abb 403e 9ee1 abbd 9c42 57be 26fd fb3e
00000060: 8dec bfbe b022 da3e 4169 89be 2ee3 abbb
00000070: 4d4f 103f 83e0 b73e c6ed d0be d735 bb3e
00000080: c237 d63b ad8e b23e 53c3 a13e a0bb 343d
00000090: 8b5d 443c c7e6 933e 67f6 d1be fe44 c93e
000000a0: a6f4 abbe 4d0e 5b3e b205 f83e f9f0 d53e
000000b0: 1a80 7dbe ab45 033f d118 a3be 804d debd
000000c0: ec1b bdbe dc5a 09bf c902 8d3d 65b9 72be
000000d0: a258 f2be 0c1e df3e 4313 c4be 2f3f ce3d
000000e0: 699e 0c3f a0ec 033f 157f 123e 53e6 a83d
000000f0: a2ad 203e fe72 043f e438 883e 8e61 e33e
00000100: 1b23 bebe 401e 873e 00fb b23e 203e b03e
00000110: 0ea1 96be abf0 d33e 55ef c23c 22f5 06bf
00000120: 1f6a ce3e e09a ea3e cd4c a9be 4b88 c5be
00000130: b792 ae3e 4e6c c03e c147 edbe 1742 0bbf
00000140: e0ed 47be dc9d e1be 31de ffbd 398a 8e3e
00000150: 222a 8dbe 54d7 073f 2301 29be 0ba6 67be
00000160: 3784 0e3f 09b4 53be 5a10 d63e fffb 233e
00000170: 57dc ba3e 2a67 073f 4b5d 03bf f874 fdbe
00000180: 4449 253d 5e96 dfbd 078d 4b3e 8faa d63d
00000190: 6505 9a3e 4a71 623e 7d52 053f 718e b63e
000001a0: eb9a d43e b3e1 4f3e 9290 f43e 09c3 023f
000001b0: 8b2e 85be 4408 49be 6b16 d3be 03a1 fdbe
000001c0: b1fe d73e 0051 a63e 3218 cc3e 53b4 103f
000001d0: 8c89 f1be 2941 11be 7bde 0d3e 1654 bcbe
000001e0: 696d bebe e870 733d 7860 813e 0ae3 cdbe
000001f0: 81ce 003f 70c7 623d 0047 fbbc 62b1 db3d
-0.240617 0.075758636 0.108803935 -0.20316817 0.41953525 -0.16779552 0.07032138 -0.45604697
-0.15813851 0.5180603 -0.0020979915 0.30427885 0.11010913 0.45127112 -0.34126094 0.15048534
-0.3111263 -0.06319463 -0.5189334 0.41331136 0.18821493 -0.083926424 -0.21021503 0.49216574
-0.3748516 0.4260459 -0.26838115 -0.005245588 0.56371003 0.35913476 -0.40806407 0.36564514
0.0065374086 0.34874478 0.31594333 0.044124246 0.011985193 0.28887007 -0.41008303 0.3931045
-0.3358509 0.21392174 0.48441845 0.4178541 -0.24755898 0.5127818 -0.3185487 -0.10854626
-0.36935365 -0.53654265 0.06885297 -0.23703535 -0.47333246 0.4357761 -0.38295946 0.10070645
0.54929215 0.51532936 0.1430629 0.08247056 0.15691236 0.51737964 0.26605904 0.44410366
-0.37136158 0.26390266 0.34957123 0.34422398 -0.2941975 0.41394553 0.023795763 -0.52717793
0.4031534 0.45821285 -0.33066407 -0.38580546 0.3409631 0.3758263 -0.46343806 -0.5439772
-0.19524336 -0.4406575 -0.124935515 0.2783983 -0.27571207 0.5306294 -0.1650434 -0.22621934
0.55670494 -0.20674147 0.4180935 0.16014098 0.3649623 0.5289179 -0.5131423 -0.49503303
0.040353075 -0.10917352 0.19878016 0.1048175 0.3008224 0.22113529 0.5207899 0.3565555
0.41524443 0.20300941 0.47766548 0.5107885 -0.26012072 -0.1963206 -0.4122804 -0.49536905
0.42186502 0.32483673 0.3986221 0.5652515 -0.47175252 -0.14185013 0.13854401 -0.36782902
-0.37192848 0.059433848 0.25268912 -0.4021228 0.503151 0.05536598 -0.030673504 0.107271925

conv1.normalization_1.running_var f4 [128]
00000000: 0e8f 483c 2b46 023c f20d 1d3d a68e 7b3e
00000010: 91a0 053d f21a cb3d 18b2 f23e e675 8c3d
00000020: 24c5 1b3d a72e 1e3f 5423 b43e ff72 7b3e
00000030: 0cd4 a93f 2c9e b13d 784d 003c a3f0 653d
00000040: f2de 683c 0ab1 d43d b30d 113d 0315 153c
00000050: 37c5 263d e6f2 6f3d e9fb ea3e 46ed 8c3e
00000060: e510 383f 40b8 063c 1fea 003c cfc2 b03e
00000070: 7ebf 9c3d 5167 e93c b861 633e 51f0 053d
00000080: 45bd 463d d110 403d f6bd 4f3d 8846 d63c
00000090: 8b4e d13e 48eb 913d 0eab ee3c 07b5 843d
000000a0: 0ff6 123f dd76 f73c 0a3c 1a3e 3639 3a3c
000000b0: 9a1d b03d 252c 553f 7ab9 c33e c6f5 213f
000000c0: 34c4 073e 1ec3 ac3e 14b0 e73b d367 bd3e
000000d0: 433d 253d 1455 ca3e c71f b13e 38b9 bf3e
000000e0: 62db 8f3e 7fba 0b3d 0b91 243c 50ee 773c
000000f0: 6201 c43e 1901 623c dcff 253c a7e5 953d
00000100: a150 103d bc7d dc3c b55a 653e a9ed 823d
00000110: f318 283e ce86 f23c b51f 1a3c c60f 763d
00000120: a460 653f 371b 5c3d 8b0a b83d 4441 403c
00000130: 7b63 9e3e c2ff 8e3e 1461 363d 2970 3f3e
00000140: 6f29 873e 275b 783f 61e5 9e3e 37a6 283d
00000150: 3a51 c13d 9db9 ac3c ec2c 273f e892 e53c
00000160: c38d b03d 99da 5f3f 0517 d33c be5d 933c
00000170: 4479 db3e fdca 643f e42c e33b 60ce c93e
00000180: e8c7 dc3e d577 bc3d 43b1 193c 43b6 173e
00000190: 2d88 0d3e e214 123e 1449 e93c adce 203c
000001a0: cf4d 2b3d ffbf d63e 35fd b03e 9461 043c
000001b0: 8426 db3d c696 c23d 1641 273e 5744 9d3d
000001c0: 129a 003e 7248 b53d 7860 d63c 4f92 153e
000001d0: 1ed1 823c 589b 973c c1b3 c43c 6608 853d
000001e0: edcd 493e 1d50 593c 8df0 3c3e 9f19 203e
000001f0: 4f3d 8d3e 1b40 273e 4694 473e 7f6d 433d
0.012241138 0.0079513 0.038343377 0.24566135 0.03262383 0.09917249 0.474015 0.06858425
0.038029805 0.61789936 0.35183203 0.24555586 1.3267837 0.08672747 0.00783097 0.056137692
0.014213311 0.1038533 0.035413455 0.009099248 0.040715422 0.058581255 0.45895317 0.27524775
0.7190078 0.00822264 0.007868319 0.34523627 0.07653712 0.028491648 0.22205245 0.032699887
0.048520345 0.046891037 0.05071827 0.026156679 0.40880236 0.071249545 0.0291343 0.06479841
0.57406706 0.030208046 0.15061966 0.011366179 0.08599396 0.83270484 0.38227445 0.63265646
0.1325844 0.33742613 0.0070705507 0.36993274 0.040341627 0.39518034 0.34594557 0.37445998
0.28097063 0.034113403 0.010044347 0.015132502 0.38282305 0.013794207 0.010131802 0.07319193
0.035233144 0.026915424 0.22397883 0.06392986 0.16415767 0.029605296 0.009406974 0.060073636
0.89600587 0.05373689 0.08986386 0.011734311 0.30935273 0.27929503 0.044526175 0.1869513
0.263988 0.9701409 0.31034377 0.04117414 0.09439321 0.021084601 0.6530292 0.028024152
0.08620789 0.8744293 0.025767813 0.017989036 0.42865956 0.89372236 0.0069328416 0.39415264
0.43121266 0.09202544 0.009380641 0.14815621 0.13821478 0.14265779 0.02847723 0.0098149
0.04182225 0.41943356 0.34568182 0.008079905 0.10700706 0.09501414 0.16333422 0.076790504
0.12558773 0.088517085 0.026169047 0.14606594 0.015968855 0.01850669 0.024011495 0.064957425
0.1970746 0.013263729 0.18451138 0.15634774 0.27585837 0.16333048 0.19490156 0.047711845

conv1.normalization_2.weight f4 [128]
00000000: 39ce 813f 3951 813f ce09 803f 617e 7e3f
00000010: 1d01 813f f808 7e3f 57ec 803f 29da 803f
00000020: df19 803f 8114 7f3f a95a 813f 79e8 7d3f
00000030: 1637 803f 95c3 7e3f 0545 803f 7bf5 7d3f
00000040: fa7d 7f3f 890d 7e3f 9e0b 7e3f 1088 7d3f
00000050: 14be 7e3f 0db7 7f3f fcfa 7f3f 184f 7d3f
00000060: d4bf 7d3f b6ea 7f3f ecac 803f 7e40 7f3f
00000070: 2d96 813f 3d18 7e3f 5951 7f3f c664 7f3f
00000080: c74b 803f aa60 7f3f e638 803f 6e47 813f
00000090: 703a 803f 5126 813f 644f 803f 41ba 803f
000000a0: bd67 803f a963 803f fa1c 7f3f f77d 7f3f
000000b0: b94f 803f 7ccb 7e3f 84be 7e3f f72c 7f3f
000000c0: 8c2b 7f3f f08b 7f3f 8949 813f 655d 7f3f
000000d0: e2a5 7e3f 6383 7f3f 35bc 813f 3ecf 803f
000000e0: f70e 803f af50 803f 6fa3 803f aa3e 813f
000000f0: cac9 7f3f 75c3 7f3f 8825 803f 7b55 803f
00000100: e99d 803f 9c02 803f d9d8 7f3f 98d0 813f
00000110: 22b5 823f 78c3 803f 61c5 7d3f 92e1 7e3f
00000120: 7915 803f 4d8c 7f3f df86 803f a24c 803f
00000130: 77dd 7c3f 95ae 803f a236 7e3f 2e00 7f3f
00000140: e0c5 803f eaf9 7e3f 9480 7e3f 9c14 7f3f
00000150: 3572 7f3f 0fc4 7e3f c8ec 7f3f e427 803f
00000160: 6b1e 803f e305 7e3f 47fa 803f ae37 813f
00000170: 6bf5 7f3f 1cbf 7f3f 9ae0 813f 931a 7f3f
00000180: 2f81 7f3f de9a 803f 1e73 7f3f 8f07 7e3f
00000190: 8db2 803f cf44 803f f90b 803f 02d1 7e3f
000001a0: 7dc7 803f 7914 803f a0f0 803f f079 7e3f
000001b0: 868f 7d3f 4150 7f3f 44ad 803f aeac 7d3f
000001c0: c094 7d3f 74f8 7e3f 31fc 7e3f 2ca1 7d3f
000001d0: d426 803f 8dd0 7e3f 7d5b 803f 2d4c 803f
000001e0: 5ebc 7f3f 8476 7e3f 7978 7f3f a99e 803f
000001f0: 502b 803f 8aa2 7d3f c065 7f3f 35a3 7d3f
1.0141059 1.0102912 1.0002992 0.9941159 1.0078465 0.99232435 1.0072125 1.0066577
1.0007895 0.9964066 1.0105792 0.9918285 1.0016811 0.99517184 1.0021063 0.992027
0.998016 0.99239403 0.99236476 0.9903574 0.99508786 0.9988869 0.99992347 0.9894881
0.9912083 0.99967515 1.0052772 0.9970778 1.0123955 0.99255735 0.997335 0.99763143
1.0023125 0.9975687 1.0017364 1.0099924 1.0017834 1.0089818 1.0024228 1.005684
1.0031658 1.0030414 0.9965359 0.9980158 1.002433 0.9952924 0.99509454 0.99677986
0.9967582 0.998229 1.0100566 0.99751884 0.9947187 0.99809855 1.0135561 1.0063245
1.0004567 1.0024623 1.0049876 1.0097249 0.9991728 0.9990762 1.0011454 1.0026087
1.004819 1.0000796 0.9994026 1.0141783 1.0211527 1.0059652 0.991293 0.99562943
1.0006553 0.99823457 1.0041159 1.0023386 0.9877543 1.0053278 0.99302113 0.9960965
1.0060387 0.9960009 0.99414945 0.9964082 0.9978364 0.9951791 0.99970675 1.0012174
1.0009283 0.9922773 1.0076379 1.0095117 0.99983853 0.99900985 1.0146668 0.99649924
0.99806494 1.0047262 0.9978503 0.99230283 1.0054489 1.0020999 1.0003654 0.9953767
1.0060879 1.0006248 1.0073433 0.9940481 0.99047124 0.9973183 1.0052876 0.99091613
0.990551 0.9959786 0.99603564 0.99074054 1.0011849 0.99536973 1.002792 1.0023247
0.998968 0.9939959 0.997932 1.0048419 1.0013218 0.9907614 0.99764633 0.9907716

conv1.normalization_2.bias f4 [128]
00000000: 641d 933b 20be 2c3c 1142 143c 0095 47bc
00000010: ab03 c3bb 3b25 1ebc 1711 c23b a020 063b
00000020: fb51 943a c69e 6939 9646 09ba 3cc2 8cbb
00000030: 0b10 21bb b1fb 09bc 7a63 e23b 0d24 31bc
00000040: b5bd d0bb e283 ebbb 7ab1 00bc d084 d7bb
00000050: 5c55 abbb 333e 9abb fe90 a1bb 4473 f6ba
00000060: 81f3 15bb 307f bbba 91ac 1c3c ef1f cbbb
00000070: 1622 bb3b f701 c73a 9813 5bba 3c46 f3ba
00000080: 769c 2fbb ab7a c73a 1169 913b 48de b53b
00000090: fc72 41ba 50b3 fe3b 4419 123b d2e8 ecba
000000a0: e5fb 4d3b 9c6d a2bb 1cc1 86bb 3234 9ebb
000000b0: acd2 16bb dc72 06bb d544 8c38 0a22 19bc
000000c0: 3ffa 86bb 5f5e 27ba 2a11 133c 40d2 e2bb
000000d0: 474a 93bb 6d98 47bb 5120 ba3c 505c 233c
000000e0: 128b 87bb f296 08bb 4166 6a3b 3aaf 513b
000000f0: a649 b0ba 09fe b4ba 339e e6ba a0f3 53bb
00000100: dbf5 573b eb0a 003b 5992 693c 43d9 4f3b
00000110: 6022 bb3c 27d4 8c3b 23f1 d7bb 2e9d 0abb
00000120: 0744 a739 ec3e e93b 4b3f 04bc 48b3 783b
00000130: c22b 63bc e51d ae3b 4ad1 01bb 6c59 60bb
00000140: 81c4 383b 89ea 85bb 94f3 3bbc 4e77 c23b
00000150: f823 2f3c e758 1fbc 2db2 87ba 6836 ebbb
00000160: 006c e23a 55e0 c5bb 36da a93c 31d5 0d3b
00000170: fdaa 2fbb cd6e 9bbb 40f8 723c 9209 21bb
00000180: 15f9 a0ba 48f7 cb3b ea12 b2bb 765b 273b
00000190: decb f939 f82f a43b 3554 2d38 4375 b1bb
000001a0: 9c41 253c a999 043c 0d02 f13b 37e0 46bc
000001b0: 0843 e1ba 4c26 afbb 0c02 a93b 1311 f6bb
000001c0: b0f0 1cbb ec19 fdbb 93b6 57b9 6e53 deba
000001d0: fbf2 983b 82b0 9a38 f073 923b 2db4 f6ba
000001e0: 57f8 063b 8b2d cebb 152c d0bb 2166 67ba
000001f0: 78ee 193a 1650 0cbc 5666 0bbc df51 0cbc
0.0044895876 0.010543376 0.009048955 -0.01218152 -0.005951365 -0.009652431 0.0059224474 0.0020466223
0.0011315936 0.0002227976 -0.00052366534 -0.0042956155 -0.0024576213 -0.008421824 0.006908831 -0.010811818
-0.006370271 -0.0071873525 -0.007854814 -0.006577112 -0.0052286815 -0.0047071218 -0.0049306145 -0.0018802662
-0.0022880735 -0.0014304873 0.009562627 -0.006198875 0.0057108505 0.0015183081 -0.00083571067 -0.001856036
-0.002679614 0.0015219053 0.0044375737 0.0055501796 -0.00073795 0.0077728406 0.0022292892 -0.0018074757
0.0031430658 -0.004956914 -0.004112376 -0.0048279995 -0.0023013754 -0.002051524 6.688541e-05 -0.009346494
-0.004119187 -0.0006384607 0.00897626 -0.0069220364 -0.0044949385 -0.0030455843 0.022720488 0.0099707395
-0.0041364515 -0.0020841924 0.0035766514 0.0031995312 -0.0013449683 -0.0013808619 -0.0017594754 -0.0032341257
0.0032952938 0.0019537758 0.014256083 0.0031715191 0.02284354 0.0042977515 -0.006590025 -0.0021150815
0.00031903406 0.0071180966 -0.008071731 0.0037948657 -0.013865413 0.0053136223 -0.0019808584 -0.0034232987
0.0028193297 -0.0040867967 -0.011471648 0.0059346324 0.010689728 -0.009725786 -0.0010352783 -0.0071781166
0.0017274618 -0.0060387054 0.020733934 0.0021641965 -0.0026804798 -0.004743433 0.014829695 -0.0024572355
-0.0012281263 0.0062245466 -0.0054343836 0.0025536693 0.00047644874 0.005010601 4.1324838e-05 -0.00541559
0.010086443 0.008093276 0.007354981 -0.012138418 -0.0017186115 -0.0053451415 0.0051577147 -0.0075093596
-0.0023947172 -0.0077240374 -0.00020572012 -0.001696212 0.0046676374 7.3761694e-05 0.0044693872 -0.0018822007
0.00205948 -0.0062920502 -0.0063529112 -0.0008827169 0.00058720214 -0.008564016 -0.0085082855 -0.008564441

conv1.normalization_2.running_mean f4 [128]
00000000: 74d0 9cbc 6076 e6bd 30bd 9f3d d4da c4be
00000010: 0881 94be 8ab0 71bd 1f9f 043e 4710 09be
00000020: 76cd 1fbc e7e8 a7bd 0d39 d33d 3eb7 05bd
00000030: 1b3a 84be cec7 733e 4d7d 5cbe 8cca dd3e
00000040: 5e4f 963e 9fa5 dd3d 7e73 f0bd fffd 703d
00000050: ba32 c33d 6ec9 a83c 1d53 463e 94b2 1abd
00000060: 90f4 c0bd 8804 9a3d ece2 063e b731 1ebe
00000070: 4b79 c83e a395 67be 1c2f 68be 49ed 0d3e
00000080: c4f7 58be 4ac4 37be 54ca 753d 7761 c3bd
00000090: 5651 b33d 1a37 82bd 36f6 cc3e 4355 cdbd
000000a0: 3f96 0b3c 9fa4 8b3e 5c9f 97bd ca30 3f3e
000000b0: 75de 5dbc 1e8e bdbe b518 f63d d464 a43d
000000c0: 8679 d73d 8dfe d2be 0a53 793c 4bde 57be
000000d0: 3c77 cfbe 84a6 58be 23e7 28bd 60e3 0bbe
000000e0: 1401 543e 733b 6d3e 9a72 74bc bbab 0b3e
000000f0: 974d 9c3c 7fe9 023e d6c3 d93c 4773 b03e
00000100: d5a9 36bb 5fc5 48be f9be 373d 1d9e a3be
00000110: 210b e6bd 4261 88bd 638a f3bd a43f 503e
00000120: ca37 2f3e b80e 26be c1dd 8dbe e31d f3be
00000130: c498 d5bb 5cf0 943e f91d 503d 6aec 003f
00000140: 901f 643e ecf2 19be bd7a 4c3b 4caf 713d
00000150: e596 0bbd 9610 fa3c 4e7d f4bc 942d a93e
00000160: 3a72 e3be ba71 b7bd f832 afbb 37a6 95ba
00000170: 2f0a 8d3e 2f97 1a3e 680e 7cbc b623 09be
00000180: 4501 dfbd a50b 71be 563f c73e b2e1 47be
00000190: 3c21 e03e 2aa4 e0be 00b9 a83e 257d 12be
000001a0: 6ace c93d ca91 debd c81c 3abe b9f3 8e3e
000001b0: c23a 90be 4676 973e ba9c 1cbe d77e 5bbe
000001c0: ee32 c8be 62e1 5fbd 57f7 0ebe 8d61 29be
000001d0: 5a07 663e ea4d 9fbd 2aeb 54bd cce6 9bbe
000001e0: 4013 be3e b761 1a3e 076c 4c3e 531f ea3d
000001f0: edff 76bd e0ce efbe 2ef7 863b f266 9abe
-0.019142367 -0.11253047 0.077997565 -0.38448203 -0.29004693 -0.05900625 0.12951325 -0.13385116
-0.009753576 -0.081987195 0.10313616 -0.032645456 -0.2582558 0.23806688 -0.21532173 0.43318594
0.29357427 0.10822605 -0.117407784 0.05883598 0.0953116 0.020603862 0.19367643 -0.03776796
-0.094216466 0.075203955 0.13172501 -0.15448652 0.3915504 -0.22615676 -0.22674221 0.13860048
-0.21188265 -0.17945972 0.06000741 -0.09540074 0.08755748 -0.06358166 0.40031594 -0.10026028
0.008519708 0.27274033 -0.07403442 0.18670955 -0.013541807 -0.3702249 0.12016431 0.08027044
0.10521226 -0.41209832 0.015217552 -0.21080892 -0.40520656 -0.2115727 -0.041236054 -0.13660955
0.20703536 0.2316721 -0.014919901 0.13639729 0.019079966 0.12784384 0.02658264 0.3446295
-0.0027872224 -0.19606541 0.04485986 -0.31956568 -0.112325914 -0.066591755 -0.118916295 0.20336777
0.17111126 -0.16216552 -0.27708247 -0.4748374 -0.006518455 0.2908963 0.050809834 0.5036074
0.22277665 -0.15034074 0.0031201087 0.059005067 -0.03407945 0.030525487 -0.029844906 0.33042586
-0.44423085 -0.089572385 -0.005346652 -0.0011417334 0.27546832 0.15096734 -0.015384294 -0.13392529
-0.10888914 -0.23539598 0.3891551 -0.1951969 0.43775356 -0.43875247 0.32953644 -0.14305551
0.098538235 -0.10867651 -0.18175042 0.2792032 -0.2816983 0.29582423 -0.15294161 -0.21435104
-0.39101356 -0.0546583 -0.1396154 -0.16541119 0.22463742 -0.07778533 -0.051982082 -0.30449522
0.37124062 0.15076338 0.19963084 0.11431756 -0.060302664 -0.4683752 0.0041188216 -0.30156666
