classification/Lstm_Cnn/net/best_model_epoc1.pth (torch, 730779 bytes, 43 tensors)

rnn_layer.rnn_layer.weight_ih_l0 f4 [256, 368]
-0.09232031 0.013338519 0.066085406 0.06205228 0.024755977 -0.07372918 -0.10490289 0.11649724
-0.05594968 -0.1044666 0.075365216 -0.12058763 0.07247612 -0.09568398 0.056916136 -0.04082315
-0.0057027144 -0.05920137 0.065369315 0.056652546 0.06724487 -0.054350827 0.11900347 -0.0056053707
-0.037787326 -0.11719669 0.07893339 -0.11446265 -0.08618196 -0.043250408 0.047684405 0.050279655
0.07431418 -0.008949168 0.06002916 0.07924046 -0.12431416 -0.11354683 -0.1231747 -0.086250566
0.061210684 0.10919038 0.055525273 -0.0861224 0.053015567 0.07102111 0.12410977 -0.09912535
-0.004947091 -0.051103767 0.12649602 0.08698414 0.025452409 0.020676143 0.064079344 -0.086462304
-0.00077009544 -0.08321497 0.058630835 0.05496469 -0.09948294 0.007829583 0.069861256 0.07857513
0.127319 -0.10023793 -0.026604775 -0.036061257 -0.0959094 -0.10684077 -0.07894803 0.0730375
-0.096199274 -0.04004796 -0.061796453 -0.07679459 0.12111241 0.003898345 -0.03974428 0.12582499
-0.06990724 -0.044201516 -0.033283126 -0.06913799 -0.051093824 -0.02409122 0.025690284 -0.057422392
0.013978889 0.1378893 0.018086111 0.0020565756 -0.112123094 -0.08096921 0.074732594 0.08708288
-0.105795786 0.041685645 0.037583474 -0.044422407 0.09781936 0.015024362 -0.09667558 0.10982112
0.052357744 -0.06492473 0.0036600735 0.08102792 0.084990256 0.04999287 0.022352144 -0.013163391
0.010821134 -0.09683491 -0.0031853078 -0.12545599 0.06468823 -0.09113615 -0.08678238 0.09618685
-0.04464377 -0.080755085 -0.0957288 0.057316504 -0.12004016 0.08852327 0.03869793 0.11520365
-0.052513786 -0.1209768 -0.011625404 0.101804845 -0.06562535 -0.124915294 0.09487114 0.0901446
0.09858371 0.07732674 0.010221971 -0.09168316 -0.08276326 -0.04584026 -0.067636564 -0.081359535
0.1047849 0.10597143 -0.07033631 0.004338691 0.13195631 0.072061956 -0.013560626 -0.020993978
0.07670315 -0.03551467 -0.08317067 -0.020888818 0.08994991 -0.037685115 -0.07439767 -0.031696934
-0.039060533 -0.07920652 0.011042146 0.07857937 0.12549652 0.047552224 0.114742935 0.06586669
-0.024772676 -0.075750664 -0.02893874 0.07243229 0.02704081 -0.025129883 -0.0031043615 0.053721722
-0.013327702 0.10060671 -0.065855086 0.029443739 0.0812741 0.11598964 0.033608936 0.025503334
0.11802103 -0.07334886 -0.04453036 -0.058268454 0.12981218 0.015753279 -0.0968836 0.0233851
-0.108426645 0.06577142 0.09956497 0.05236026 -0.03266982 -0.07763864 0.10342238 -0.02208847
0.041540023 -0.014296244 0.09619774 -0.028574347 0.06956637 -0.099354476 -0.11052571 0.015896501
0.099243514 -0.08714709 0.07805275 0.008656143 -0.120671935 -0.0770723 -0.01947314 0.013354186
0.042593714 0.11525271 0.11392372 -0.10288601 0.06541996 -0.044721395 -0.017726712 0.11069769
-0.029342704 -0.06453668 0.068032466 0.0066641793 0.03657623 0.010607847 0.11920251 0.11073448
0.033224147 0.022912769 0.042080306 -0.037363417 0.08575603 0.116407126 0.10183781 -0.05351091
-0.047292504 0.11929933 0.11165189 0.089715995 0.11221953 0.1257672 -0.05341719 -0.08257821
0.0016340761 0.086392954 -0.0430608 -0.06080986 -0.11856168 0.029501753 0.028499205 -0.051187932
00000000: 6e12 bdbd ce89 5a3c c957 873d 882a 7e3d
00000010: 0ccd ca3c 53ff 96bd 54d7 d6bd 1b96 ee3d
00000020: 7e2b 65bd 96f2 d5bd 1459 9a3d a6f6 f6bd
00000030: 5c6e 943d f6f5 c3bd e520 693d 2d36 27bd
00000040: d6dd babb 237d 72bd 59e0 853d 800c 683d
00000050: aeb7 893d f99e 5ebd 17b8 f33d 42ad b7bb
00000060: e2c6 1abd d104 f0bd d4a7 a13d 656b eabd
00000070: 2b80 b0bd 5727 31bd b950 433d 0af2 4d3d
00000080: 0832 983d 889f 12bc 23e1 753d d348 a23d
00000090: 6c98 febd 3e8b e8bd 0443 fcbd 23a4 b0bd
000000a0: 0eb8 7a3d 359f df3d 786e 633d f160 b0bd
000000b0: da26 593d 8473 913d 432d fe3d 3b02 cbbd
000000c0: 351b a2bb 2f52 51bd 2c88 013e be24 b23d
000000d0: 9281 d03c 0461 a93c 083c 833d 2613 b1bd
000000e0: 3be0 49ba 9c6c aabd e326 703d a822 613d
000000f0: b6bd cbbd a747 003c 6b13 8f3d ffeb a03d
00000100: e95f 023e 8b49 cdbd 42f2 d9bc f8b4 13bd
00000110: 266c c4bd 55cf dabd 81af a1bd af94 953d
00000120: 2004 c5bd 5409 24bd 471e 7dbd 7b46 9dbd
00000130: c909 f83d 607b 7f3b e6ca 22bd 44d8 003e
00000140: 872b 8fbd a60c 35bd e353 08bd 3898 8dbd
00000150: c247 51bd f35a c5bc 6e74 d23c be33 6bbd
00000160: b607 653c da32 0d3e 5329 943c 9dc7 063b
00000170: cba0 e5bd 2fd3 a5bd 670d 993d 8258 b23d
00000180: 76ab d8bd 91be 2a3d 21f1 193d 45f4 35bd
00000190: 8455 c83d be28 763c d9fd c5bd e5e9 e03d
000001a0: 1375 563d 42f7 84bd d8dd 6f3b f7f1 a53d
000001b0: 5f0f ae3d 53c5 4c3d d81b b73c 43ab 57bc
000001c0: 204b 313c 6251 c6bd 99c0 50bb 8977 00be
000001d0: 437b 843d 97a5 babd f6ba b1bd 9cfd c43d
000001e0: 63dc 36bd ec62 a5bd 760d c4bd b6c4 6a3d
000001f0: 9ed7 f5bd b04b b53d b881 1e3d e4ef eb3d
00000200: b218 57bd afc2 f7bd 7a78 3ebc 0f7f d03d
00000210: 9566 86bd 97d3 ffbd cd4b c23d bb9d b83d
00000220: 42e6 c93d 7b5d 9e3d 0e7a 273c 61c4 bbbd
00000230: c97f a9bd ffc2 3bbd 0a85 8abd d49f a6bd
00000240: 7799 d63d 8d07 d93d 7c0c 90bd 942b 8e3b
00000250: 8e1f 073e 3895 933d 632d 5ebc 90fb abbc
00000260: 8b16 9d3d d577 11bd 6255 aabd 071f abbc
00000270: a937 b83d b55b 1abd ce5d 98bd a5d4 01bd
00000280: f0fd 1fbd 0737 a2bd 1eea 343c 39ee a03d
00000290: 2982 003e 1fc6 423d 58fe ea3d 1de5 863d
000002a0: 11f0 cabc 2a23 9bbd f010 edbc 6157 943d
000002b0: b084 dd3c 2fdd cdbc 8b72 4bbb 4f0b 5c3d
000002c0: 6f5c 5abc e40a ce3d 08df 86bd ff33 f13c
000002d0: 0973 a63d fa8b ed3d 86a9 093d 5eec d03c
000002e0: 03b5 f13d ed37 96bd 7765 36bd e7aa 6ebd
000002f0: 7ced 043e 050d 813c e96a c6bd 1c92 bf3c
00000300: ca0e debd 2bb3 863d b8e8 cb3d b677 563d
00000310: cad0 05bd 0201 9fbd 1dcf d33d e1f2 b4bc
00000320: df25 2a3d cb3a 6abc 5203 c53d c014 eabc
00000330: d078 8e3d 5c7a cbbd 4e5b e2bd 6139 823c
00000340: 2f40 cb3d 2c7a b2bd 1fda 9f3d 7fd2 0d3c
00000350: d922 f7bd 15d8 9dbd 2286 9fbc 84cb 5a3c
00000360: bf76 2e3d 9d09 ec3d d750 e93d e7b5 d2bd
00000370: e6fa 853d c82d 37bd 9c37 91bc 78b5 e23d
00000380: 1c60 f0bc cf2b 84bd 9b54 8b3d 305f da3b
00000390: f5d0 153d 89cc 2d3c 7220 f43d c2c8 e23d
000003a0: 0b16 083d 8fb3 bb3c 665c 2c3d 620a 19bd
000003b0: dca0 af3d dc66 ee3d 5790 d03d 422e 5bbd
000003c0: c9b5 41bd 3553 f43d bfa9 e43d 05bd b73d
000003d0: 5ad3 e53d 1ec9 003e fccb 5abd c41e a9bd
000003e0: 7f2e d63a caee b03d 8560 30bd c213 79bd
000003f0: 77d0 f2bd a9ad f13c 2a77 e93c 70aa 51bd

rnn_layer.rnn_layer.weight_hh_l0 f4 [256, 64]
-0.083701156 0.107997194 0.10362568 0.09876072 -0.10480001 0.010598754 0.016081922 0.08717455
-0.015402078 -0.11203311 -0.12001493 -0.050036926 0.040901925 0.07639828 0.008632908 -0.013882122
0.13722119 0.014959525 0.021566825 -0.05342901 0.07910958 -0.11402085 0.016361337 -0.042222764
0.063675255 0.08751696 -0.050085615 -0.08024421 -0.019954136 0.11156751 -0.07478219 0.029122004
0.087504715 -0.09295198 0.033686876 -0.019407913 0.03489404 -0.106226176 0.09123565 -0.109383285
0.037902627 0.04926034 0.0018446766 0.06872901 0.12541497 -0.060629144 0.018081592 -0.001366382
-0.059417132 0.117413715 -0.05214897 -0.07262993 0.019553017 -0.06575054 -0.03277469 -0.064892404
-0.07725099 -0.009643873 -0.11113132 0.015469195 0.07706806 0.07516794 -0.06844263 7.815747e-05
0.0022331658 0.107922986 -0.07339175 0.047021236 -0.026213823 0.008634352 -0.08132815 0.10104287
0.08669583 0.044749424 0.0075007975 -0.0065066856 0.06611799 -0.028327081 -0.0051912856 0.11469144
0.097284935 -0.019387636 0.1255776 -0.04910601 0.07069678 -0.112524815 0.099792115 0.018534567
0.043317936 -0.009892378 -0.049572606 0.04627338 0.015492306 -0.11083351 0.09547643 -0.01841653
0.048253413 -0.048397195 -0.08352668 -0.08312966 0.10088441 0.024359737 -0.010647963 -0.08155735
-0.021633167 -0.059453737 -0.023377666 0.064622246 -0.012863464 -0.023344988 -0.06838192 0.11461325
-0.014544963 -0.0063342773 -0.014701562 -0.10112266 0.05717929 -0.006507832 0.103436336 -0.045158565
-0.018805634 -0.022246901 -0.0025879336 0.06503483 0.13823383 0.056933265 0.015100039 -0.043863356
0.11356396 0.09613918 -0.041690398 -0.016020842 -0.02122828 -0.02588618 0.017065 0.06606351
0.05382575 0.10942561 -0.023183767 -0.12327124 0.056721956 0.08513124 -0.0066954093 -0.0061834366
-0.014106619 0.12172284 -0.09084993 0.06545351 0.05914903 0.06257504 0.097810015 -0.08450737
0.11737467 0.028900327 -0.09356731 0.032954205 0.048115134 0.077496424 -0.04917839 -0.018146958
0.09424699 0.09763173 -0.044242367 0.06822387 -0.121365264 0.02211508 -0.113991715 -0.088035025
0.0008882271 -0.041427784 0.056649562 0.05301578 0.0034734583 0.10552046 -0.071678534 -0.00712122
-0.07938176 -0.06027934 -0.009887395 0.019938646 0.020862374 0.077392295 -0.09542388 0.041082412
0.021227594 -0.083368555 -0.017153295 0.094474204 0.104361296 -0.011405871 0.051378857 0.07352538
0.008518704 0.124156155 -0.08560034 0.0038040038 0.038058147 -0.012139211 0.08565338 0.026920902
-0.06388207 -0.09694656 -0.0045637335 0.042693254 0.075941056 -0.06435926 0.0051601063 0.1165736
-0.023308843 0.048764896 -0.07989575 0.045536507 -0.08341468 0.09892157 -0.11626462 0.060927458
-0.06905881 -0.124251865 0.024650361 -0.016850827 0.08923449 0.09524756 -0.0652483 0.10109028
0.054368526 0.105771855 0.09842892 -0.11177752 0.1330142 -0.0122663155 0.023095312 0.07300978
-0.02260011 -0.016849099 -0.09883433 -0.018441254 -0.10925085 -0.07484517 -0.09514161 0.09430776
0.07279 -0.09737119 -0.0364159 -0.051906783 0.05815758 -0.068802156 0.09121424 0.0028900164
-0.04987189 0.028434336 0.04111489 -0.006793499 0.07399391 -0.052139454 -0.04865585 0.027656503
00000000: 836b abbd a22d dd3d b339 d43d 0f43 ca3d
00000010: 63a1 d6bd 65a6 2d3c 3cbe 833c 9288 b23d
00000020: ff58 7cbc 9d71 e5bd 63ca f5bd 85f3 4cbd
00000030: c788 273d b476 9c3d 0a71 0d3c d771 63bc
00000040: b683 0c3e cc18 753c e9ac b03c 61d8 5abd
00000050: 3404 a23d c383 e9bd 3608 863c c7f1 2cbd
00000060: 2c68 823d 183c b33d 9326 4dbd 1457 a4bd
00000070: db76 a3bc 827d e43d 6827 99bd 4591 ee3c
00000080: ac35 b33d 9c5d bebd 40fb 093d 58fd 9ebc
00000090: 0eed 0e3d 1c8d d9bd c2d9 ba3d 5804 e0bd
000000a0: c93f 1b3d 36c5 493d 13c9 f13a ccc1 8c3d
000000b0: c86c 003e 4456 78bd d91f 943c 2c18 b3ba
000000c0: 615f 73bd 9a76 f03d 299a 55bd 00bf 94bd
000000d0: a62d a03c 38a8 86bd c13e 06bd 4fe6 84bd
000000e0: c435 9ebd 5601 1ebc d198 e3bd 8272 7d3c
000000f0: dcd5 9d3d a6f1 993d a62b 8cbd 79e8 a338
00000100: 4e5a 123b ba06 dd3d 6a4e 96bd 5799 403d
00000110: 5fbe d6bc 1977 0d3c 608f a6bd 90ef ce3d
00000120: 958d b13d 2c4b 373d 40c9 f53b 0936 d5bb
00000130: de68 873d 320e e8bc a91b aabb 58e3 ea3d
00000140: 533d c73d d2d2 9ebc 6a97 003e 6223 49bd
00000150: 79c9 903d 6973 e6bd cf5f cc3d ced5 973c
00000160: 266e 313d a413 22bc a50c 4bbd 2889 3d3d
00000170: 71d3 7d3c aefc e2bd 2689 c33d 43de 96bc
00000180: 5fa5 453d 233c 46bd 0910 abbd e23f aabd
00000190: 7c9c ce3d 128e c73c cb74 2ebc 8a07 a7bd
000001a0: 0a38 b1bc c385 73bd 8582 bfbc ab58 843d
000001b0: 47c1 52bc fd3d bfbc d20b 8cbd 5aba ea3d
000001c0: ff4d 6ebc c58f cfbb d2de 70bc 6619 cfbd
000001d0: d534 6a3d a73f d5bb 6ed6 d33d 30f8 38bd
000001e0: 460e 9abc 223f b6bc 529a 29bb fb30 853d
000001f0: 2b8d 0d3e db32 693d 2766 773c 10aa 33bd
00000200: 3994 e83d 9ee4 c43d 8dc3 2abd 243e 83bc
00000210: eee6 adbc 410f d4bc e6cb 8b3c 4e4c 873d
00000220: 6478 5c3d 891a e03d e2eb bdbc a275 fcbd
00000230: 4855 683d 4a59 ae3d 2a65 dbbb 6d9e cabb
00000240: 731f 67bc d349 f93d 870f babd 7d0c 863d
00000250: 4146 723d 5827 803d 9e50 c83d 3312 adbd
00000260: 2262 f03d 61c0 ec3c 38a0 bfbd fdfa 063d
00000270: 6014 453d 72b6 9e3d 486f 49bd eea8 94bc
00000280: 9104 c13d 25f3 c73d 7c37 35bd f5b8 8b3d
00000290: 5a8e f8bd af2a b53c 7d74 e9bd b54b b4bd
000002a0: e9d7 683a 2eb0 29bd 5f09 683d 1327 593d
000002b0: f6a2 633b 1c1b d83d 32cc 92bd 2059 e9bb
000002c0: e792 a2bd 78e7 76bd befe 21bc 5f56 a33c
000002d0: 92e7 aa3c da7f 9e3d 986d c3bd 0846 283d
000002e0: 7ee5 ad3c 22bd aabd 1185 8cbc b17b c13d
000002f0: 60bb d53d b1df 3abc a372 523d 7994 963d
00000300: 0992 0b3c 9545 fe3d 3b4f afbd 984c 793b
00000310: dce2 1b3d 8be3 46bc 0a6b af3d 3989 dc3c
00000320: 9ad4 82bd eb8b c6bd 5f8b 95bb 1fdf 2e3d
00000330: fc86 9b3d cace 83bd 1c16 a93b 24be ee3d
00000340: 30f2 bebc b3bd 473d 62a0 a3bd 7d84 3a3d
00000350: 51d5 aabd 6497 ca3d 251c eebd 128f 793d
00000360: b56e 8dbd c377 febd 8eef c93c bf0a 8abc
00000370: 93c0 b63d 2711 c33d e7a0 85bd 6c08 cf3d
00000380: 88b1 5e3d ea9e d83d 1a95 c93d 9deb e4bd
00000390: e034 083e a8f8 48bc 6132 bd3c 2786 953d
000003a0: de23 b9bc 1f07 8abc a769 cabd 1d12 97bc
000003b0: e9be dfbd 6d48 99bd 9bd9 c2bd 6d24 c13d
000003c0: ec12 953d 8c6a c7bd d728 15bd 359c 54bd
000003d0: a536 6e3d 25e8 8cbd 88ce ba3d 6e66 3d3b
000003e0: 7846 4cbd 20ef e83c 1668 283d 009c debb
000003f0: 1e8a 973d 2e90 55bd 5b4b 47bd e48f e23c

rnn_layer.rnn_layer.bias_ih_l0 f4 [256]
0.0055658002 0.10210274 0.12386901 -0.035202127 0.0010700446 -0.00022515912 0.11065635 0.10941134
-0.017221387 0.12317673 -0.090821765 -0.01035732 -0.04851732 -0.04659191 -0.067786194 0.117908895
0.11217041 -0.00431637 0.038837776 -0.01858914 -0.04046111 -0.048135623 -0.003166331 0.003678195
-0.019723944 -0.0315377 0.07000973 -0.11723614 0.039302777 -0.008574653 0.11687965 -0.09605869
-0.016788946 0.1016939 -0.0034783229 0.04942195 0.01871544 0.02443252 0.09811848 -0.064941674
0.10019317 0.097048715 0.008936045 0.13661605 0.014092512 -0.018836465 0.03646803 0.07473017
0.055859018 0.0448923 0.072215155 0.1119163 0.008196205 -0.117869526 -0.10433942 -0.0994718
-0.0014179439 -0.075938284 0.100759834 0.0027823665 0.0726438 -0.11578742 0.01992382 -0.10136328
-0.07752749 -0.10607434 -0.0018305146 0.023584599 -0.026106881 0.045587976 0.09917537 -0.038912464
0.03618991 -0.041035466 -0.07573823 0.10084399 -0.054363858 0.028589543 0.01858277 -0.039155696
-0.05439015 -0.043074463 0.10943284 -0.0018274254 -0.0046795234 -0.09592588 0.07560514 0.039456204
-0.02440624 0.07975782 0.027334156 -0.02184607 -0.0069574793 0.024404861 0.03283955 0.101292275
0.0108977845 -0.058928266 -0.11693202 -0.101219304 -0.09166152 0.07396979 0.04264851 0.11375134
0.036295388 0.09214691 -0.06051388 -0.11161618 -0.010981422 -0.04301225 0.077404335 -0.077042475
0.008586979 0.042092606 -0.0066616135 -0.095975 0.025784155 -0.09481103 0.04574189 -0.0038824298
0.097698346 -0.009312494 -0.104758754 0.013092019 -0.072949186 -0.019792723 -0.06328316 0.021564348
-0.11144832 -0.00012031421 0.02613911 0.07680525 0.013485467 0.05288027 -0.030104538 -0.08127924
-0.09287084 0.022273656 -0.07812396 0.015636006 -0.09555331 -0.015191889 0.050559305 0.11008405
-0.113399275 -0.048028685 -0.07159317 -0.017039027 0.11377499 -0.040960528 0.0053456477 0.111268006
-0.11567864 -0.05192126 -0.11750747 -0.1133767 -0.05333678 0.058150493 0.0148291765 0.0009614183
-0.01704075 0.052739926 0.11080022 0.09431146 -0.08810783 -0.080661505 -0.018720077 -0.09326371
-0.07148388 0.09183399 0.018030008 -0.015718866 -0.117337786 0.10378297 -0.114665814 -0.01188333
0.024915602 0.12169333 0.08089552 0.04188292 -0.043683674 0.09242577 0.12265926 -0.05216925
0.08952844 0.047977407 -0.02342166 0.063702375 0.042554975 0.03731709 0.08799054 -0.026379157
0.026104823 -0.082141966 0.12763077 -0.010246323 0.025356231 -0.11617907 -0.012971483 -0.0012481295
0.06467083 0.04808016 0.0968872 -0.08566596 -0.0036631003 0.09593102 0.06213048 -0.026000867
0.06327006 0.08076619 0.12358789 -0.10783004 0.0017704017 0.0125732 0.004048394 -0.06682431
-0.043788806 0.074597605 0.096250504 0.11936298 0.06700431 -0.023730159 0.10130398 0.03328098
-0.097962 0.13651064 -0.032572992 -0.04331525 -0.03451981 0.08534064 -0.071371906 -0.06139276
-0.011065931 -0.0057330094 0.07776934 -0.07071615 0.03373742 0.08533077 0.014122076 0.051468346
0.08834732 0.017070452 -0.03519854 -0.068100296 -0.055133026 0.015475705 -0.11025543 0.011054091
0.053557374 0.030680666 0.06979274 -0.066511475 0.023015121 -0.026681025 0.036690872 0.0017154058
00000000: 5161 b63b 3e1b d13d 09af fd3d 1b30 10bd
00000010: bd40 8c3a b118 6cb9 cc9f e23d 0d13 e03d
00000020: de13 8dbc 1544 fc3d c300 babd c0b1 29bc
00000030: 19ba 46bd 29d7 3ebd 7dd3 8abd 387a f13d
00000040: 9ab9 e53d 5670 8dbb 5c14 1f3d 4148 98bc
00000050: 8dba 25bd dc29 45bd 3882 4fbb df0d 713b
00000060: 1c94 a1bc ad2d 01bd 4361 8f3d 8019 f0bd
00000070: f3fb 203d b47c 0cbc 995e ef3d 6bba c4bd
00000080: f988 89bc e444 d03d 93f4 63bb ac6e 4a3d
00000090: 1f51 993c b526 c83c 57f2 c83d 2400 85bd
000000a0: 1432 cd3d 7ac1 c63d 7d68 123c 14e5 0b3e
000000b0: 48e4 663c ee4e 9abc 805f 153d 220c 993d
000000c0: 6dcc 643d fde0 373d 8ae5 933d 6034 e53d
000000d0: 6049 063c 9465 f1bd e8af d5bd dfb7 cbbd
000000e0: 4dda b9ba 8885 9bbd 2c5b ce3d 5d58 363b
000000f0: 46c6 943d f421 edbd 4737 a33c 8d97 cfbd
00000100: bcc6 9ebd 813d d9bd e1ed efba 7d34 c13c
00000110: 19de d5bc 75ba 3a3d 751c cb3d ad62 1fbd
00000120: df3b 143d ce14 28bd a51c 9bbd 4b87 ce3d
00000130: a3ac 5ebd 9e34 ea3c e53a 983c b961 20bd
00000140: 35c8 5ebd d96e 30bd 531e e03d 3986 efba
00000150: b056 99bb ca74 c4bd ded6 9a3d d49c 213d
00000160: 98ef c7bc 1158 a33d e1eb df3c 88f6 b2bc
00000170: 91fb e3bb b4ec c73c c482 063d 5372 cf3d
00000180: 9f8c 323c c45e 71bd 0e7a efbd 114c cfbd
00000190: 09b9 bbbd 797d 973d 34b0 2e3d 76f6 e83d
000001a0: 79aa 143d 85b7 bc3d 67dd 77bd 0697 e4bd
000001b0: 6ceb 33bc 9d2d 30bd 2a86 9e3d 72c8 9dbd
000001c0: 66b0 0c3c 4c69 2c3d aa49 dabb 8a8e c4bd
000001d0: 4b39 d33c 492c c2bd d95b 3b3d 5d70 7ebb
000001e0: 1216 c83d 6e93 18bc c28b d6bd e87f 563c
000001f0: 6266 95bd 5924 a2bc 9a9a 81bd b7a7 b03c
00000200: 043f e4bd 3351 fcb8 b021 d63c 124c 9d3d
00000210: 26f2 5c3c fb98 583d cb9d f6bc bb75 a6bd
00000220: 1133 bebd 3e77 b63c 74ff 9fbd 1517 803c
00000230: 74b1 c3bd 67e7 78bc 4617 4f3d bf73 e13d
00000240: e13d e8bd bab9 44bd 719f 92bd 6e95 8bbc
00000250: dd02 e93d 3ac6 27bd 8b2a af3b 7be0 e33d
00000260: ece8 ecbd 63ab 54bd c2a7 f0bd 0b32 e8bd
00000270: ab77 5abd 362f 6e3d 13f6 723c b107 7c3a
00000280: 0b99 8bbc d205 583d 3aeb e23d 5e26 c13d
00000290: e171 b4bd dc31 a5bd d95a 99bc 0b01 bfbd
000002a0: 2466 92bd 7513 bc3d abb3 933c dac4 80bc
000002b0: cb4e f0bd 2a8c d43d e9d5 eabd 4cb2 42bc
000002c0: ce1b cc3c 5a3a f93d 8dac a53d 6d8d 2b3d
000002d0: a7ed 32bd b949 bd3d c734 fb3d 6caf 55bd
000002e0: b05a b73d f583 443d c8de bfbc 6476 823d
000002f0: 204e 2e3d ced9 183d 6234 b43d 1a19 d8bc
00000300: c8d9 d53c 0c3a a8bd a4b1 023e 32e0 27bc
00000310: dfb7 cf3c 4bef edbd 5886 54bc 4798 a3ba
00000320: 2472 843d b4ef 443d cc6c c63d a371 afbd
00000330: a010 70bb 7c77 c43d 887c 7e3d c5ff d4bc
00000340: bc93 813d bf68 a53d a61b fd3d ffd5 dcbd
00000350: d30c e83a d3ff 4d3c 64a8 843b 2fdb 88bd
00000360: e45b 33bd a1c6 983d fc1e c53d 9474 f43d
00000370: 8e39 893d c065 c2bc 7678 cf3d a351 083d
00000380: 4da0 c8bd 72c9 0b3e 426b 05bd 556b 31bd
00000390: a564 0dbd 13c7 ae3d 6f2b 92bd fa76 7bbd
000003a0: e14d 35bc f8db bbbb 8845 9f3d a1d3 90bd
000003b0: 4030 0a3d e6c1 ae3d 4860 673c 79d0 523d
000003c0: 71ef b43d 55d7 8b3c 582c 10bd 2b78 8bbd
000003d0: 2bd3 61bd d08d 7d3c 99cd e1bd 381c 353c
000003e0: fa5e 5b3d 0556 fb3c 7fef 8e3d 2b37 88bd
000003f0: 358a bc3c 2a92 dabc 2b49 163d 78d7 e03a

rnn_layer.rnn_layer.bias_hh_l0 f4 [256]
-0.07053779 0.033007342 0.06539597 0.040824022 -0.027050734 0.06022459 -0.11695575 0.08063066
0.027256042 0.100225076 0.12201755 -0.08281557 0.027547952 -0.057287987 -0.11874133 -0.033107374
-0.001983619 -0.086104594 -0.08613748 0.010376108 0.014906372 0.1171113 -0.1016943 0.07642863
-0.005907659 0.1203145 -0.04568717 -0.09278466 -0.121155545 -0.06384317 0.038515136 0.07570033
0.0035764538 0.070356004 -0.08623896 0.06404824 0.101276904 -0.012723831 0.10868805 -0.011671861
0.024376163 0.09983882 -0.013513397 -0.012308568 -0.08657936 0.010231081 0.0061127436 0.12640828
0.0021226322 -0.06977248 -0.029818816 0.05160092 -0.0883415 -0.08806471 -0.10176564 0.07411114
-0.02704908 0.0798472 0.041190166 0.13104282 0.0022136664 0.11112361 -0.11250862 -0.10872064
-0.100924894 -0.060624026 0.10070567 0.02095262 0.07516431 0.076355964 0.050959405 0.08631729
0.11361283 0.0025819167 -0.034728445 -0.070380874 0.08536436 -0.023550253 0.012482929 0.037301585
-0.039540503 -0.11992156 0.10733399 0.06591109 -0.10942107 0.006895565 -0.09967378 0.005479819
0.010886912 0.0059314664 0.11637883 -0.018796999 0.12602276 -0.037687503 -0.033247977 0.031361703
-0.04460441 0.046639293 0.01576958 -0.12005377 -0.04837513 0.07758046 -0.10775566 0.09328979
0.0792683 0.08466603 -0.062355712 0.07341604 -0.09548133 -0.021316307 -0.039653476 -0.02189786
-0.061547145 -0.12046446 -0.12012306 -0.0556549 -0.06298465 -0.037639234 -0.06882086 -0.010773696
-0.09311013 0.09017325 0.046460032 0.11015444 0.03231777 0.04783113 -0.108300835 0.044130996
0.0046045464 0.024718087 0.06659323 -0.041557368 -0.039926093 -0.056157123 0.08073563 0.08823419
-0.010035853 0.08676397 -0.08996176 0.11335304 0.021821477 -0.07628804 0.002264053 0.043523002
-0.07373867 -0.096803606 0.016926697 0.011652508 -0.03808 -0.03926946 -0.023960149 -0.06690221
-0.089422576 0.121333934 -0.02746165 0.0767859 -0.09341428 -0.041166652 -0.032657754 0.11643235
0.10057614 -0.012422026 0.11738524 -0.03610809 0.04573731 -0.08322801 -0.08539453 0.011531273
0.08080974 -0.0057588834 -0.002454491 0.090220205 -0.09299373 0.030282317 -0.02825689 -0.00058211916
-0.009341632 0.09905613 -0.05705865 0.010531309 0.06329524 -0.112254255 0.004029535 0.017171457
-0.008836209 0.0381065 -0.03147843 0.08635251 -0.06649322 0.047915835 0.02899205 -0.07559201
0.078686 -0.076553784 -0.044226617 -0.025173897 -0.033534635 -0.06132151 0.10975507 -0.095456555
0.096355386 -0.07915804 0.10408335 0.06565651 -0.08392782 0.06223585 -0.10956239 0.1348823
-0.06706169 0.100552484 0.09153831 0.06447711 -0.101475336 0.060653605 0.011824567 0.01461282
0.03214275 0.04544253 0.0694169 -0.062002424 0.02951256 -0.107713655 -0.016183827 -0.0983508
-0.013286717 0.09519051 -0.025977682 0.041447356 0.04301937 -0.03411001 0.08939491 -0.10727131
0.0118480995 0.031234376 0.054487098 -0.01499955 0.055149604 -0.03447689 0.052029602 -0.011962004
0.06960604 0.10455383 -0.03490778 -0.06820909 -0.07888083 -0.11538676 -0.083176255 -0.08763052
0.084111184 -0.0076775798 0.091610596 0.10775302 0.037605662 0.10258047 0.030392747 0.075143166
00000000: 1e76 90bd b532 073d 53ee 853d 1737 273d
00000010: 8099 ddbc 0fae 763d 7f86 efbd b021 a53d
00000020: 1048 df3c ce42 cd3d 56e4 f93d 369b a9bd
00000030: 3eac e13c cfa6 6abd a82e f3bd 999b 07bd
00000040: 9bff 01bb 9b57 b0bd d968 b0bd 8d00 2a3c
00000050: db39 743c 0dd8 ef3d 1a45 d0bd 9d86 9c3d
00000060: 0995 c1bb 7367 f63d 7822 3bbd e205 bebd
00000070: 6620 f8bd 35c0 82bd 0cc2 1d3d c608 9b3d
00000080: f062 6a3b cf16 903d 0d9e b0bd b92b 833d
00000090: 446a cf3d 9e77 50bc d797 de3d 553b 3fbc
000000a0: 85b0 c73c 4c78 cc3d 4c67 5dbc e0a9 49bc
000000b0: 8550 b1bd 44a0 273c 694d c83b 2c71 013e
000000c0: dc1b 0b3b e0e4 8ebd 9746 f4bc 7c5b 533d
000000d0: 63ec b4bd 455b b4bd 816a d0bd 95c7 973d
000000e0: 0896 ddbc ee86 a33d 05b7 283d 1730 063e
000000f0: 2913 113b c694 e33d eb6a e6bd eda8 debd
00000100: b6b1 cebd e650 78bd c63e ce3d d4a4 ab3c
00000110: bfef 993d 8460 9c3d cfba 503d 1fc7 b03d
00000120: d8ad e83d 6035 293b 6a3f 0ebd d923 90bd
00000130: 82d3 ae3d 76ec c0bc 3385 4c3c 8cc9 183d
00000140: 39f5 21bd 6f99 f5bd ecd1 db3d 65fc 863d
00000150: 2718 e0bd 31f4 e13b c421 ccbd 0e90 b33b
00000160: 055f 323c bf5c c23b 0658 ee3d 2afc 99bc
00000170: 1c0c 013e 365e 1abd 082f 08bd 2175 003d
00000180: 1db3 36bd d808 3f3d 352f 813c c0de f5bd
00000190: 0025 46bd 81e2 9e3d 00af dcbd b80e bf3d
000001a0: 6b57 a23d 6265 ad3d b468 7fbd 265b 963d
000001b0: b78b c3bd 899f aebc af6b 22bd 2463 b3bc
000001c0: dc18 7cbd 12b6 f6bd 1403 f6bd 64f6 63bd
000001d0: 19fe 80bd 992b 1abd f3f1 8cbd 2884 30bc
000001e0: 86b0 bebd c1ac b83d e04c 3e3d a798 e13d
000001f0: a35f 043d 93ea 433d d4cc ddbd b4c2 343d
00000200: bce1 963b 967d ca3c 0862 883d 0f38 2abd
00000210: 8b89 23bd 0305 66bd b958 a53d 21b4 b43d
00000220: 6b6d 24bc 4fb1 b13d df3d b8bd a325 e83d
00000230: f4c2 b23c e73c 9cbd 8260 143b 2d45 323d
00000240: 4d04 97bd f840 c6bd dba9 8a3c 29ea 3e3c
00000250: c6f9 1bbd 03d9 20bd 1348 c4bc 0704 89bd
00000260: 2f23 b7bd ed7d f83d 41f7 e0bc ed41 9d3d
00000270: fc4f bfbd 5d9e 28bd 23c4 05bd 1574 ee3d
00000280: ddfa cd3d c185 4bbc ac67 f03d 14e6 13bd
00000290: 0c57 3b3d 7273 aabd 54e3 aebd aaed 3c3c
000002a0: 947f a53d 04b5 bcbb 87db 20bb 5fc5 b83d
000002b0: 7f73 bebd 9f12 f83c fe7a e7bc 5b99 18ba
000002c0: a50d 19bc f1dd ca3d 55b6 69bd 838b 2c3c
000002d0: efa0 813d 8fe5 e5bd 310a 843b 28ab 8c3c
000002e0: bfc5 10bc 9015 1c3d 87ef 00bd 96d9 b03d
000002f0: 992d 88bd 6543 443d bc80 ed3c fccf 9abd
00000300: 2026 a13d 3bc8 9cbd f826 35bd 7d39 cebc
00000310: 9d5b 09bd 432c 7bbd 44c7 e03d ba7e c3bd
00000320: f955 c53d 9c1d a2bd a729 d53d ec76 863d
00000330: 59e2 abbd 05eb 7e3d 3f62 e0bd 961e 0a3e
00000340: a457 89bd 76ee cd3d 7078 bb3d 930c 843d
00000350: 4dd2 cfbd ea6f 783d d4bb 413c 9c6a 6f3c
00000360: 1ea8 033d f221 3a3d 732a 8e3d 41f6 7dbd
00000370: 53c4 f13c fa98 dcbd f293 84bc 256c c9bd
00000380: 88b0 59bc 3ef3 c23d 26cf d4bc b4c4 293d
00000390: 1435 303d f0b6 0bbd ae14 b73d 10b1 dbbd
000003a0: 881e 423c 3cdf ff3c dd2d 5f3d acc0 75bc
000003b0: 8de4 613d a437 0dbd fe1c 553d 48fc 43bc
000003c0: 9d8d 8e3d 5220 d63d 76fb 0ebd 35b1 8bbd
000003d0: 468c a1bd e54f ecbd 5058 aabd a177 b3bd
000003e0: 7c42 ac3d 3594 fbbb 569e bb3d 9ead dc3d
000003f0: 6508 1a3d b615 d23d 36fa f83c a9e4 993d

conv1.conv_1.weight f4 [64, 1, 3]
0.23181802 0.22511673 -0.4760172 -0.537028 -0.24858889 -0.34364495 -0.3281823 -0.044372506
-0.5661034 0.37821585 -0.092148125 -0.49623674 -0.48262346 -0.4047605 0.34412426 -0.26243925
0.20271984 0.056241512 0.1557044 0.05633334 -0.3213275 0.25677183 -0.33302546 -0.0031390216
-0.45706442 -0.07422698 0.36103305 0.05519853 -0.18330593 0.31362927 -0.037329372 -0.26741958
-0.12707622 0.015948778 0.24174479 -0.4891285 -0.27967358 0.5364509 0.45766258 -0.48767442
-0.51181144 0.11885333 0.45157337 0.36726746 0.007340466 -0.40421802 0.01292526 -0.48779055
-0.42518696 0.21935867 -0.09124155 -0.17917314 -0.35865784 -0.4959832 -0.24966839 0.24048516
0.1790007 -0.33958298 0.4533437 -0.2097528 0.53055114 0.4434488 -0.32986376 0.42141387
0.20429105 -0.025875075 0.084641516 0.57102877 -0.28011 -0.22700675 0.38645732 -0.35485756
0.10718001 0.43917134 0.47535262 0.33589047 -0.024817485 -0.4601573 0.49310198 -0.06481508
-0.33053237 0.078324474 0.07890331 0.10454928 -0.30865553 0.11642643 -0.39148685 0.30510435
-0.38242874 0.06096748 0.56074834 -0.55464435 -0.092742965 -0.10581581 -0.36717272 -0.31246316
-0.50466037 -0.38616118 -0.18905722 0.21288204 -0.5236089 0.0058706896 -0.033338465 0.43444186
0.4708588 -0.10758535 0.1915365 -0.40534848 0.38241336 -0.5503757 0.35481185 -0.46621737
0.34435934 -0.15134428 -0.26086232 -0.14417651 -0.44699118 -0.048109733 -0.27411288 -0.41339988
-0.16745341 0.0353778 0.24100572 0.09796493 -0.5182174 -0.5174637 0.5367359 0.18995187
-0.30356702 0.2003443 0.3628185 -0.4530278 -0.1837253 0.29527628 0.376925 -0.40753067
0.31189963 -0.5023778 -0.37629166 0.21402122 0.1527079 -0.49455234 -0.4989088 0.27493894
0.11268112 0.51079583 -0.5116583 -0.007212992 0.26628834 0.515575 -0.5455524 -0.5142215
0.09123827 0.15699995 -0.41676638 0.25631037 -0.24979545 0.39781842 -0.1161314 -0.32134455
-0.4638672 -0.43123326 -0.5702336 -0.10879516 -0.38724422 -0.061426647 0.09319198 0.0031415445
0.41659185 -0.5260566 0.4533455 0.038305406 -0.40799472 -0.27925998 -0.42720705 0.34295362
-0.55616254 -0.099882394 0.47693384 0.4727061 0.47826472 -0.1250964 0.55507904 0.19729336
-0.0424954 -0.5331257 0.022287173 0.22413114 0.5347775 0.46772906 -0.48517734 -0.1165038
00000000: b461 6d3e 0085 663e 87b8 f3be ab7a 09bf
00000010: 168e 7ebe 3bf2 afbe 8307 a8be f2bf 35bd
00000020: 27ec 10bf 82a5 c13e 28b8 bcbd be12 febe
00000030: 6c1a f7be c53c cfbe 0e31 b03e 705e 86be
00000040: ca95 4f3e 805d 663d f970 1f3e cabd 663d
00000050: 0a85 a4be 9977 833e 5082 aabe 0bb8 4dbb
00000060: 5904 eabe 5104 98bd 53d9 b83e db17 623d
00000070: 8db4 3bbe 0494 a03e afe6 18bd 38eb 88be
00000080: 4520 02be 03a7 823c f28b 773e 0d6f fabe
00000090: 6031 8fbe d954 093f c052 ea3e 76b0 f9be
000000a0: 1306 03bf 6069 f33d a034 e73e 7b0a bc3e
000000b0: 4b88 f03b aaf5 cebe 78c4 533c afbf f9be
000000c0: 1bb2 d9be 8f9f 603e dadc babd 2a79 37be
000000d0: 00a2 b7be 83f1 fdbe 12a9 7fbe be41 763e
000000e0: f64b 373e d2dd adbe aa1c e83e 70c9 56be
000000f0: 33d2 073f b90b e33e e7e3 a8be 8fc3 d73e
00000100: ac31 513e f7f7 d3bc 8858 ad3d f12e 123f
00000110: 946a 8fbe 7574 68be bcdd c53e e4af b5be
00000120: 3181 db3d 11db e03e 6b61 f33e d6f9 ab3e
00000130: 0a4e cbbc bd99 ebbe dd77 fc3e c5bd 84bd
00000140: 8a3b a9be 9568 a03d 0f98 a13d ef1d d63d
00000150: 1908 9ebe fb70 ee3d f770 c8be a336 9c3e
00000160: b3cd c3be 09b9 793d 348d 0f3f 2cfd 0dbf
00000170: 06f0 bdbd f6b5 d8bd 10fe bbbe 2cfb 9fbe
00000180: 6c31 01bf ebb6 c5be 3798 41be c0fd 593e
00000190: 3c0b 06bf ea5e c03b ea8d 08bd 2a6f de3e
000001a0: 6814 f13e b555 dcbd 2522 443e d689 cfbe
000001b0: afcb c33e 6ce5 0cbf e6a9 b53e 0bb4 eebe
000001c0: de4f b03e fff9 1abe bf8f 85be 02a3 13be
000001d0: 07dc e4be b60e 45bd 8658 8cbe 26a9 d3be
000001e0: e878 2bbe 50e8 103d 34ca 763e d6a1 c83d
000001f0: e5a9 04bf 8078 04bf 8667 093f be82 423e
00000200: 236d 9bbe 0e27 4d3e 59c3 b93e 43f3 e7be
00000210: 7c22 3cbe 742e 973e 50fc c03e dca7 d0be
00000220: 4fb1 9f3e d59b 00bf 4da9 c0be 6128 5b3e
00000230: 765f 1c3e f735 fdbe f970 ffbe ccc4 8c3e
00000240: 5cc5 e63d 84c3 023f 0afc 02bf f65a ecbb
00000250: f256 883e b9fc 033f 52a9 0bbf 05a4 03bf
00000260: 21db ba3d 98c4 203e 6762 d5be 1d3b 833e
00000270: 61ca 7fbe dbae cb3e 4dd6 edbd 4687 a4be
00000280: 0080 edbe 9bca dcbe d4fa 11bf ffcf debd
00000290: e044 c6be 829a 7bbd 70db be3d 5fe2 4d3b
000002a0: 874b d53e a5ab 06bf e71c e83e 21e6 1c3d
000002b0: afe4 d0be 2afb 8ebe e2ba dabe 9e97 af3e
000002c0: ab60 0ebf 248f ccbd ac30 f43e 8906 f23e
000002d0: 1ddf f43e 4519 00be a919 0e3f 4507 4a3e
000002e0: a80f 2ebd ed7a 08bf 9793 b63c a282 653e
000002f0: 2ee7 083f 2f7a ef3e 2a69 f8be 8b99 eebd

conv1.conv_1.bias f4 [64]
-0.056895528 -0.085775554 0.47214228 -0.15109013 0.37841687 -0.2260906 -0.028724486 0.17735073
0.44622636 -0.2747031 0.39930233 -0.036968514 -0.4857356 -0.46494004 0.20368728 0.38175598
-0.21322753 0.19175133 -0.5675473 -0.1300701 -0.54731214 -0.20338129 -0.32494536 0.32143977
0.072588846 -0.28876978 -0.4548091 -0.5195066 0.29630074 0.30637044 -0.39289826 0.017765561
-0.5506025 0.19209477 -0.31877857 -0.397021 0.5218239 -0.4268233 -0.4147378 0.2523984
0.32672763 -0.026161518 0.40897673 0.29526213 -0.43635875 0.16220908 -0.16152988 0.56754255
-0.13446504 0.017287869 0.2261856 -0.124781586 -0.4402487 -0.38480085 0.069122694 -0.21320337
0.1830912 -0.5147487 -0.17521289 -0.48796067 -0.315771 -0.36071482 0.46134564 0.23156135
00000000: 490b 69bd 18ab afbd a2bc f13e 5fb7 1abe
00000010: dbbf c13e 4b84 67be 9d4f ebbc 6e9b 353e
00000020: c877 e43e e2a5 8cbe 5b71 cc3e 4c6c 17bd
00000030: 56b2 f8be 9f0c eebe 6693 503e 8575 c33e
00000040: 5158 5abe 765a 443e c84a 11bf 1931 05be
00000050: a61c 0cbf 2f43 50be 3d5f a6be c193 a43e
00000060: 76a9 943d a2d9 93be bddc e8be 62fe 04bf
00000070: bbb4 973e 96dc 9c3e f629 c9be 1589 913c
00000080: 49f4 0cbf 7eb4 443e f236 a3be 5646 cbbe
00000090: 4096 053f 9588 dabe 8358 d4be 5d3a 813e
000000a0: d848 a73e ae50 d6bc 6665 d13e 992c 973e
000000b0: 6a6a dfbe 231a 263e 1768 25be 784a 113f
000000c0: 34b1 09be 4a9f 8d3c 339d 673e 7d8d ffbd
000000d0: 4768 e1be 9e04 c5be 3390 8d3d fc51 5abe
000000e0: 427c 3b3e 92c6 03bf 026b 33be fbd5 f9be
000000f0: bdac a1be 9daf b8be 7f35 ec3e 6b1e 6d3e

conv1.conv_2.weight f4 [64, 64, 3]
0.06738914 0.04443386 -0.024960332 -0.06187272 -0.036319256 0.017200947 -0.03916441 0.012386002
-0.022510095 -0.06129737 -0.039915144 0.009183858 0.034275375 0.018721826 -0.041109018 -0.061365075
0.03132425 0.042611003 0.029756416 -0.015946845 -0.017727952 0.06459666 0.064510144 0.036118556
-0.008864394 -0.018962618 -0.0005521333 -0.008129193 -0.050042503 -0.026844978 0.010025011 -0.025060393
-0.054645732 -0.054437317 -0.04238441 0.00663475 -0.012353451 0.047810886 -0.012380729 0.045624238
-0.044487514 0.05189747 -0.054553635 0.06845871 -0.06177314 -0.042833954 -0.040331844 0.05073999
0.06251138 0.05475769 0.04369017 0.06068553 0.049429867 0.06759157 -0.03702539 0.0041913157
-0.051128395 0.025761757 0.052144498 0.005160703 -0.007331746 -0.052392945 0.011394379 -0.032794412
0.048364487 -0.014530164 -0.055479717 -0.019551003 0.02782524 -0.072842084 0.068837896 -0.02211806
-0.023345487 -0.009314356 -0.003917793 -0.06678552 0.0071069747 -0.039705835 0.013502676 0.0025437484
-0.06713325 0.018782381 0.05263748 -0.06764152 -0.02753284 -0.009557621 -0.03349129 -0.07209039
-0.06268948 -0.037620716 -0.063397564 0.02165657 -0.008491583 -0.06856201 0.057943694 0.026179539
0.07032849 0.048229817 0.0010414915 0.0010728777 0.07000364 0.057671264 -0.03332053 -0.009107155
0.032870315 -0.0037172418 0.05644151 -0.011166687 -0.026901497 -0.025755854 0.033187695 -0.0028623666
-0.0070356056 -0.05888186 0.0025226518 -0.046077654 -0.07127106 -0.033384446 -0.04925696 -0.04011148
-0.03778164 0.054613374 -0.013598218 -0.035287183 0.01830329 -0.047964405 -0.037878968 0.04470087
-0.060833376 0.055460166 0.04366629 -0.02744976 -0.060248546 -0.039124995 0.0036075786 0.04400898
-0.05153307 0.01832137 -0.03780521 0.0021030027 0.025243398 -0.055001363 -0.044035226 0.008475369
0.027478611 -0.03409522 -0.049664445 0.06057438 -0.025266105 -0.042315546 -0.014624183 0.0051836395
-0.065013394 0.057268318 -0.047945283 0.03964675 0.044713657 -0.014790711 0.059275925 -0.06823115
-0.034970473 -0.02621012 0.036949884 0.0024252797 0.00067713845 0.04650621 -0.027473375 -0.052738246
-0.032863047 0.05805582 0.03496932 -0.049551856 -0.06238407 -0.00016365833 0.06611187 -0.032139163
0.0015052859 -0.01988032 0.023486733 -0.012865196 -0.06535582 -0.046211418 0.040258575 0.03954299
-0.056965083 0.045429662 0.0346395 0.015396732 -0.05695371 -0.03314031 -0.053308114 -0.0054814126
-0.0023263965 0.034054495 -0.007868041 -0.047230724 -0.062273785 -0.022913221 0.054019753 -0.00097115175
-0.045551956 0.0076847803 0.03626013 0.019590618 -0.039817527 0.048262715 -0.051434986 -0.068207934
-0.05391601 -0.070551135 0.05206974 0.076311596 -0.056329884 0.010620416 -0.031969756 0.03538367
0.037200883 -0.051956166 0.06045716 0.053033885 0.056764316 0.003966332 0.062282607 0.023384219
0.07094805 -0.0133666815 -0.04887439 0.037304007 0.022212064 -0.00020238424 -0.059063792 -0.050872605
0.026695266 -0.046507906 -0.069707535 -0.045037244 0.0117825605 -0.011238296 0.03591979 -0.013836305
0.04157274 0.06553775 -0.0433063 0.013551266 -0.0041532423 -0.022614617 -0.020380316 0.039029066
0.0057189437 -0.067720324 -0.041566014 -0.06783955 0.0399617 -0.056472253 0.02893598 0.0008529252
00000000: 5103 8a3d 4700 363d 9c79 ccbc 406e 7dbd
00000010: 80c3 14bd 00e9 8c3c dc6a 20bd a8ee 4a3c
00000020: 1767 b8bc f312 7bbd 107e 23bd e477 163c
00000030: 5664 0c3d 845e 993c ee61 28bd f259 7bbd
00000040: db4d 003d e088 2e3d bac3 f33c f5a2 82bc
00000050: 363a 91bc 414b 843d e51d 843d 0df1 133d
00000060: f73b 11bc 7e57 9bbc 0abd 10ba 4f30 05bc
00000070: 5ef9 4cbd 00ea dbbc f23f 243c 744b cdbc
00000080: 34d4 5fbd aaf9 5ebd 469b 2dbd 5168 d93b
00000090: 2166 4abc 59d5 433d 8bd8 4abc 7be0 3a3d
000000a0: 8a38 36bd 7192 543d a273 5fbd 1534 8c3d
000000b0: d505 7dbd a872 2fbd 0133 25bd bcd4 4f3d
000000c0: f705 803d 9949 603d 77f4 323d 6491 783d
000000d0: f976 4a3d 736d 8a3d efa7 17bd 4e57 893b
000000e0: 026c 51bd 520a d33c 7895 553d 1d1b a93b
000000f0: 253f f0bb fc99 56bd 7daf 3a3c 6f53 06bd
00000100: d719 463d ed0f 6ebc b33e 63bd 6d29 a0bc
00000110: c2f1 e33c 3b2e 95bd e2fa 8c3d ef30 b5bc
00000120: 093f bfbc 3e9b 18bc d460 80bb d9c6 88bd
00000130: a0e1 e83b 96a2 22bd 543a 5d3c 04b5 263b
00000140: 287d 89bd 82dd 993c 669a 573d a387 8abd
00000150: 8d8c e1bc 9197 1cbc 2a2e 09bd 20a4 93bd
00000160: 5863 80bd 2e18 1abd 95d6 81bd 1e69 b13c
00000170: 4820 0bbc 3d6a 8cbd 5e56 6d3d 7976 d63c
00000180: 6208 903d a18c 453d a882 883a cd9f 8c3a
00000190: 125e 8f3d b438 6c3d 1c7b 08bd 2d36 15bc
000001a0: 06a3 063d f89c 73bb 362f 673d 7bf4 36bc
000001b0: 8760 dcbc f1fd d2bc d2ef 073d 8b96 3bbb
000001c0: f08a e6bb 1b2e 71bd 1353 253b ecbb 3cbd
000001d0: 90f6 91bd 21be 08bd abc1 49bd ef4b 24bd
000001e0: ecc0 1abd 46b2 5f3d 0fcb 5ebc 4b89 10bd
000001f0: c8f0 953c 5376 44bd fa26 1bbd 4218 373d
00000200: 6b2c 79bd 332a 633d 6cdb 323d 52de e0bc
00000210: 2ec7 76bd 8841 20bd 206d 6c3b c342 343d
00000220: 5714 53bd b316 963c a3d9 1abd 88d2 093b
00000230: 3ecb ce3c 1c49 61bd 485e 34bd 46dc 0a3c
00000240: d31a e13c 6ea7 0bbd f26c 4bbd d71c 783d
00000250: ddfa cebc 1153 2dbd 459a 6fbc 85db a93b
00000260: be25 85bd 2f92 6a3d 4662 44bd a164 223d
00000270: ab25 373d bd54 72bc 50cb 723d c6bc 8bbd
00000280: 333d 0fbd 9bb6 d6bc c358 173d 71f1 1e3b
00000290: fe81 313a 4c7d 3e3d d80f e1bc 0f04 58bd
000002a0: 679b 06bd f1cb 6d3d fd3b 0f3d e3f6 4abd
000002b0: 7086 7fbd b39b 2bb9 a965 873d 5ba4 03bd
000002c0: 034d c53a 0edc a2bc 4067 c03c 8bc8 52bc
000002d0: 46d9 85bd 2f48 3dbd 2de6 243d d5f7 213d
000002e0: 3854 69bd 7414 3a3d 26e2 0d3d 9342 7c3c
000002f0: 4b48 69bd 22be 07bd 9c59 5abd 6c9d b3bb
00000300: 7576 18bb ba7c 0b3d f5e8 00bc 0175 41bd
00000310: cc12 7fbd 82b4 bbbc d143 5d3d e494 7eba
00000320: b094 3abd 9cd0 fb3b 8185 143d 817c a03c
00000330: b417 23bd 20af 453d 7ead 52bd 9ab0 8bbd
00000340: 09d7 5cbd 1d7d 90bd 1447 553d 4149 9c3d
00000350: 2aba 66bd 4101 2e3c b8f2 02bd 78ee 103d
00000360: f45f 183d fdcf 54bd eda1 773d 0f3a 593d
00000370: b381 683d 01f8 813b 0c1c 7f3d 4390 bf3c
00000380: 364d 913d edff 5abc 8330 48bd 16cc 183d
00000390: 13f6 b53c 1b37 54b9 e0ec 71bd cb5f 50bd
000003a0: 08b0 da3c 137f 3ebd d3c2 8ebd f978 38bd
000003b0: a40b 413c d420 38bc a120 133d abb1 62bc
000003c0: 2d48 2a3d a838 863d f261 31bd 2106 5e3c
000003d0: ec17 88bb 4a42 b9bc 9ff4 a6bc f1dc 1f3d
000003e0: fa65 bb3b f4b0 8abd 2041 2abd 76ef 8abd
000003f0: e1ae 233d 734f 67bd 260b ed3c d796 5f3a

conv1.conv_2.bias f4 [64]
-0.0024141825 0.06272677 -0.04166753 0.0015904498 0.029465789 -0.04737433 -0.030329235 -0.063234895
0.0030349067 -0.06350109 0.06917841 0.03148066 -0.007626613 0.039208878 0.06225845 -0.053289894
0.06707502 0.029968165 0.0705024 0.019345626 -0.07025613 -0.0068327817 -0.020092204 -0.003108735
-0.034838926 0.041174937 -0.013757802 -0.06386547 -0.066776745 0.012823431 0.029715348 -0.0053729773
-0.02553538 -0.030541224 0.05999502 0.0024154224 -0.014744318 0.057747334 0.03896925 0.026790207
-0.022219718 -0.03766034 0.0053673796 -0.0596227 0.0019215234 0.06460075 0.0673592 -0.0639575
-0.06464035 -0.009721171 0.029086564 0.03845018 0.008318431 -0.020053837 -0.050773438 -0.014248745
0.046365567 0.051294982 -0.03518349 -0.06755242 -0.015106752 -0.013786088 0.07288528 -0.024093462
00000000: 4337 1ebb e576 803d 92ab 2abd a476 d03a
00000010: 3d62 f13c 960b 42bd 0475 f8bc 4c81 81bd
00000020: 49e5 463b dc0c 82bd 69ad 8d3d ddf1 003d
00000030: abe8 f9bb 7d99 203d b702 7f3d 8146 5abd
00000040: a15e 893d cc7f f53c 9063 903d b87a 9e3c
00000050: 72e2 8fbd 87e5 dfbb 6898 a4bc ebbb 4bbb
00000060: 43b3 0ebd 0da7 283d 6768 61bc e6cb 82bd
00000070: 3fc2 88bd 5e19 523c 9a6d f33c cd0f b0bb
00000080: 932f d1bc 9731 fabc 57bd 753d 104c 1e3b
00000090: 2792 71bc 7888 6c3d 389e 1f3d 2377 db3c
000000a0: 2006 b6bc bb41 1abd d8e0 af3b ef36 74bd
000000b0: a0db fb3a 664d 843d 9ff3 893d 26fc 82bd
000000c0: 2962 84bd 8c45 1fbc f246 ee3c f07d 1d3d
000000d0: 074a 083c f247 a4bc cff7 4fbd 9173 69bc
000000e0: d2e9 3d3d b01a 523d 901c 10bd ec58 8abd
000000f0: 4f82 77bc 0bdf 61bc e144 953d a75f c5bc

conv1.conv_3.weight f4 [64, 64, 3]
-0.038381297 0.0071513527 -0.012491592 0.04085548 0.058820207 -0.06639226 0.02112292 -0.032725897
-0.06483664 -0.012269032 -0.05717142 0.045130003 -0.038913794 0.061938014 -0.014385348 0.0512697
-0.024229772 0.052156802 -0.052433215 -0.03448966 -0.007748399 -0.031232724 -0.02487138 0.042280197
-0.012252372 0.058539648 -0.04506314 0.008841617 0.031771425 0.044094566 0.07609843 -0.03491577
-0.034270167 0.028341273 0.006576683 0.020544263 -0.0687696 0.052831434 0.002359369 -0.07206137
-0.00017888672 -0.01995408 -0.03134382 0.011093872 0.034216285 -0.049350932 0.053711586 0.019230727
0.056694105 0.040335998 0.070302494 -0.0021897939 0.07031792 0.06036091 -0.06372777 -0.023447331
-0.044039782 -0.044055704 0.049788546 -0.015012753 -0.051374987 -0.029352218 0.048965614 0.023951437
0.065571226 -0.0033968661 -0.056052934 0.0152697945 0.05150314 0.023488615 -0.055643465 -0.0552735
-0.016184444 0.05554533 -0.034884844 0.04902586 0.06746377 0.0028373138 0.07023561 -0.019182324
-0.008815106 0.034788042 0.008175167 -0.02664474 -0.029224852 0.02018149 -0.046884168 0.048677392
-0.039840404 0.02918711 0.07194164 0.041961934 -0.05708319 0.06899804 -0.069106355 0.0050204843
-0.012055929 -0.005847409 0.056288347 0.07695998 -0.06777414 -0.044608634 0.033700675 0.06579292
0.035372175 0.004452204 0.033963464 -0.05328285 -0.027392847 -0.010309772 -0.021779384 -0.004016752
-0.044388037 0.013329991 -0.023480283 -0.030820467 -0.016937828 -0.03332014 0.02824472 0.008058443
0.05520328 0.023672443 0.026360277 0.052954108 -0.051312968 -0.037685852 0.0104388995 0.06934012
-0.01405836 -0.038905144 -0.028979938 -0.045347687 0.035500478 -0.050811525 -0.073397085 -0.047592226
-0.0022669197 -0.066153705 0.013380875 0.06754351 0.062183503 -0.043101627 -0.060690586 0.06274304
-0.049273957 0.048801024 -0.039072238 -0.04288619 -0.040780697 0.034722917 0.011233929 0.033826265
-0.058304716 0.060820375 0.010515198 -0.018851265 0.016013404 -0.011527735 0.047043826 0.015663814
0.064175844 -0.040412996 0.039363407 0.054255996 0.06795563 0.058681462 -0.057923038 0.012342492
0.06345331 -0.0067620203 0.04025923 0.011136682 0.062954046 0.018476961 -0.051224176 -0.062772445
-0.028118027 -0.026738826 -0.06856404 -0.063082635 -0.02108481 -0.012235169 -0.018814439 -0.024916293
0.059795845 -0.07670768 0.06857806 -0.028219128 -0.06936934 0.048690915 0.014165117 -0.040576756
-0.0072881957 0.001424246 -0.051174648 -0.011230527 -0.035923727 0.06691854 -0.07035354 -0.008224414
0.03668367 -0.04981272 0.026046129 0.035930213 0.0584633 -0.06603104 -0.0037071668 0.03608906
-0.0018312174 0.06508339 0.033653356 -0.018666 -0.047729474 -0.070306025 -0.043143716 -0.042818554
0.057652544 -0.056693487 0.06973511 0.05108358 0.06309059 0.056235854 0.06114794 -0.041532904
0.07193739 -0.019453093 0.041375924 0.0048808088 -0.002430078 0.014560056 0.038584124 -0.046834245
-0.05959689 0.054251377 0.021746306 0.056456607 -0.017306544 0.031122787 0.025372604 -0.024309127
-0.0035379457 0.000120528755 0.05230855 -0.004338005 -0.012980162 0.060107682 0.015075847 -0.058703043
-0.0005392255 0.055052347 -0.0395166 -0.021011585 -0.023501394 0.05545185 0.065323345 -0.017676162
00000000: b535 1dbd e555 ea3b 89a9 4cbc 1358 273d
00000010: 75ed 703d aaf8 87bd f909 ad3c 970b 06bd
00000020: 13c9 84bd 0d04 49bc 942c 6abd 3dda 383d
00000030: 1264 1fbd b7b2 7d3d 86b0 6bbc 2d00 523d
00000040: 847d c6bc 5fa2 553d 36c4 56bd 0845 0dbd
00000050: 48e6 fdbb c5db ffbc 10bf cbbc 002e 2d3d
00000060: 2cbe 48bc 45c7 6f3d 2194 38bd 6edc 103c
00000070: c122 023d 819c 343d 7ed9 9b3d d703 0fbd
00000080: e05e 0cbd f52b e83c 3781 d73b 714c a83c
00000090: 13d7 8cbd c665 583d a59f 1a3b e994 93bd
000000a0: 8a93 3bb9 bd76 a3bc 6162 00bd 12c3 353c
000000b0: 6026 0c3d 3424 4abd ae00 5c3d c289 9d3c
000000c0: 1438 683d 5c37 253d c1fa 8f3d a582 0fbb
000000d0: d702 903d 003d 773d b483 82bd 9e14 c0bc
000000e0: 0f63 34bd c173 34bd 13ef 4b3d 0df8 75bc
000000f0: 946e 52bd 1074 f0bc 2b90 483d ce35 c43c
00000100: 354a 863d f59d 5ebb c397 65bd 292e 7a3c
00000110: f5f4 523d 326b c03c 67ea 63bd 7766 62bd
00000120: 3d95 84bc 8083 633d 69e3 0ebd 57cf 483d
00000130: 722a 8a3d 3af2 393b b0d7 8f3d 4024 9dbc
00000140: 3c6d 10bc e87d 0e3d 23f1 053c 1246 dabc
00000150: f568 efbc a753 a53c 9d09 40bd f261 473d
00000160: b12f 23bd ce19 ef3c 2356 933d 47e0 2b3d
00000170: 10d0 69bd d84e 8d3d a287 8dbd e082 a43b
00000180: 3b86 45bc 9f9b bfbb 9c8e 663d 329d 9d3d
00000190: 2bcd 8abd 8bb7 36bd b809 0a3d 70be 863d
000001a0: 6ae2 103d cbe3 913b 461d 0b3d 1e3f 5abd
000001b0: f766 e0bc 51ea 28bc ae6a b2bc f59e 83bb
000001c0: 3bd0 35bd 0966 5a3c b959 c0bc 347b fcbc
000001d0: 33c1 8abc b37a 08bd 7961 e73c 8f07 043c
000001e0: d61c 623d b6ec c13c 82f1 d73c 68e6 583d
000001f0: 8c2d 52bd 7b5c 1abd eb07 2b3c 3102 8e3d
00000200: 0955 66bc 005b 1fbd 5667 edbc 7fbe 39bd
00000210: f368 113d bf1f 50bd 3651 96bd 11f0 42bd
00000220: 9a90 14bb 987b 87bd 753b 5b3c 4054 8a3d
00000230: 21b4 7e3d 558b 30bd b196 78bd 6c7f 803d
00000240: 7dd3 49bd 95e3 473d 360a 20bd 6ea9 2fbd
00000250: a909 27bd 9e39 0e3d 830e 383c 698d 0a3d
00000260: edd0 6ebd c91e 793d f047 2c3c f86d 9abc
00000270: 8b2e 833c d3de 3cbc 07b1 403d 6651 803c
00000280: a06e 833d 1988 25bd 863b 213d 893b 5e3d
00000290: 522c 8b3d f95b 703d b540 6dbd 2a38 4a3c
000002a0: cff3 813d f093 ddbb dde6 243d a176 363c
000002b0: 0dee 803d ff5c 973c 71d0 51bd d78e 80bd
000002c0: c757 e6bc 620b dbbc 4e6b 8cbd 7831 81bd
000002d0: 0dba acbc 0576 48bc bd20 9abc 411d ccbc
000002e0: 7dec 743d eb18 9dbd a772 8c3d cd2b e7bc
000002f0: 8311 8ebd 2070 473d cf14 683c d033 26bd
00000300: d1d1 eebb c4ad ba3a 829c 51bd 3f00 38bc
00000310: c224 13bd 960c 893d 8415 90bd b1bf 06bc
00000320: 9e41 163d 6c08 4cbd b15e d53c 8f2b 133d
00000330: 3777 6f3d 483b 87bd f0f3 72bb 1fd2 133d
00000340: 7605 f0ba 714a 853d 1ad8 093d 70e9 98bc
00000350: fb7f 43bd 9bfc 8fbd 77b7 30bd 8262 2fbd
00000360: 1325 6c3d 6e37 68bd 48d1 8e3d 043d 513d
00000370: a435 813d 9157 663d 4376 7a3d 681e 2abd
00000380: e953 933d 185c 9fbc cd79 293d 31ef 9f3b
00000390: f241 1fbb 4d8d 6e3c 630a 1e3d 44d5 3fbd
000003a0: de1b 74bd b136 5e3d 4f25 b23c 0b3f 673d
000003b0: 74c6 8dbc 37f5 fe3c 35da cf3c ef23 c7bc
000003c0: e1dc 67bb 62c4 fc38 7d41 563d d325 8ebb
000003d0: bfaa 54bc 7933 763d af00 773c 9a72 70bd
000003e0: d05a 0dba 927e 613d 29dc 21bd 7d20 acbc
000003f0: ff85 c0bc 7b21 633d 3fc8 853d 99cd 90bc

conv1.conv_3.bias f4 [64]
-0.045134556 -0.030157946 -0.039622143 -6.3222855e-05 0.043479983 -0.049305756 -0.06349755 0.045039292
-0.0101494985 0.018481852 -0.009231332 0.0125028435 -0.026666036 -0.0126301795 0.044639125 0.06424223
-0.07541383 0.031236637 -0.022323953 -0.026338303 0.044006635 0.031216742 -0.056778558 0.060228232
0.004030185 0.018952632 0.050933585 -0.04283568 0.020774683 0.017629953 0.0023258007 -0.039089303
0.059854116 -0.048956484 0.06517501 0.07498747 -0.0700749 0.03655903 0.017119817 0.049565125
0.010366783 -0.006626003 -0.040066782 -0.057033 0.0598309 0.016368993 -0.03283537 -0.050864946
-0.0369427 0.02750492 0.015851106 -0.032276295 -0.04821124 -0.044862054 0.0033280468 0.009459515
0.055222455 0.067428336 -0.006720689 -0.0063329195 -0.033251327 -0.010425125 -0.014915863 -0.009571622
00000000: 03df 38bd cc0d f7bc d44a 22bd 8396 84b8
00000010: 1118 323d d5f4 49bd 010b 82bd 1f7b 383d
00000020: 154a 26bc 4167 973c 033f 17bc bad8 4c3c
00000030: bb72 dabc d0ee 4ebc 84d7 363d 6e91 833d
00000040: 9172 9abd fae3 ff3c b9e0 b6bc 6dc3 d7bc
00000050: 4d40 343d 41ba ff3c a290 68bd e1b1 763d
00000060: a40f 843b 8d42 9b3c bc9f 503d 7774 2fbd
00000070: ab2f aa3c b16c 903c 766c 183b 1b1c 20bd
00000080: 9729 753d 9886 48bd 7a7a 853d 0893 993d
00000090: 6e83 8fbd ecbe 153d dc3e 8c3c cd04 4b3d
000000a0: 70d9 293c f11e d9bb 111d 24bd 6f9b 69bd
000000b0: 3f11 753d 4418 863c 627e 06bd c357 50bd
000000c0: 3b51 17bd ff51 e13c 2eda 813c 2634 04bd
000000d0: 2679 45bd 46c1 37bd 5c1b 5a3b 15fc 1a3c
000000e0: f130 623d de17 8a3d 3a39 dcbb 6184 cfbb
000000f0: 8b32 08bd 25ce 2abc aa61 74bc 4bd2 1cbc

conv1.normalization_1.weight f4 [64]
1.0086125 0.9897275 0.99753386 1.0012335 0.9944331 1.0003725 1.0086694 0.9907792
1.0077345 1.0013837 1.0009184 0.9926071 1.0038786 1.0012137 0.995149 1.0009115
1.0082803 0.9873008 1.002796 0.9990661 0.9966088 0.99732226 1.0034971 1.0081962
0.99919575 1.0013696 0.99238616 0.99674064 0.9967078 1.0052392 1.0011536 0.9986034
0.9949389 0.9947693 1.001418 1.0015842 1.0005352 0.99549776 0.9980932 0.9998979
0.99804425 0.9937255 0.99864066 1.0063844 0.99750406 0.9976852 1.0070671 1.001674
0.9990652 1.0051954 0.9956432 0.99794436 0.99879915 0.9985925 0.9966156 0.9982798
0.9992753 1.0005876 0.99892235 0.9953432 1.0010092 0.99893284 1.0051116 1.0024785
00000000: 371a 813f c85e 7d3f 615e 7f3f 6b28 803f
00000010: 2b93 7e3f 350c 803f 141c 813f b5a3 7d3f
00000020: 72fd 803f 572d 803f 181e 803f 801b 7e3f
00000030: 187f 803f c527 803f 16c2 7e3f de1d 803f
00000040: 540f 813f bfbf 7c3f 9f5b 803f ccc2 7f3f
00000050: c121 7f3f 8350 7f3f 9872 803f 930c 813f
00000060: 4bcb 7f3f e12c 803f 050d 7e3f 652a 7f3f
00000070: 3e28 7f3f aeab 803f cd25 803f 79a4 7f3f
00000080: 51b4 7e3f 33a9 7e3f 772e 803f e933 803f
00000090: 8a11 803f f1d8 7e3f 0983 7f3f 4ff9 7f3f
000000a0: d47f 7f3f cb64 7e3f eaa6 7f3f 34d1 803f
000000b0: 6d5c 7f3f 4c68 7f3f 93e7 803f db36 803f
000000c0: bdc2 7f3f 3eaa 803f 79e2 7e3f 4879 7f3f
000000d0: 4db1 7f3f c2a3 7f3f 3322 7f3f 448f 7f3f
000000e0: 82d0 7f3f 4113 803f 60b9 7f3f d0ce 7e3f
000000f0: 1221 803f 10ba 7f3f 7fa7 803f 3751 803f
