classification/Lstm_Cnn/net/best_model_epoc5.pth (torch, 675170 bytes, 56 tensors)

conv1.conv_1.weight f4 [128, 1, 3]
000000 37 d4 cd be 62 e7 15 3d 03 18 9c 3e ca b5 85 3e
       -0.4020097 0.036597617 0.3048707 0.26115257
000010 9a 75 c3 3d 63 3f bf be 92 eb 07 bf 8d ab 07 3f
       0.09543915 -0.37353048 -0.53093827 0.5299614
000020 fe 5e 79 be 73 85 ed be 0d d7 b6 3e e0 38 10 bf
       -0.24352643 -0.46390876 0.35710946 -0.56336784
000030 e9 3d bb 3e 72 26 e1 be 8d 67 91 3e 72 5b 31 be
       0.3657067 -0.43974644 0.28399315 -0.1732004
000040 7d aa a8 3b a1 36 80 be 23 80 a4 3e 88 9e 8b 3e
       0.005147277 -0.2504168 0.3212901 0.27269387
000050 42 19 b1 3e 36 a0 68 be b3 d9 10 3f 26 42 38 bb
       0.34589583 -0.22717366 0.5658218 -0.00281156
000060 d1 7d 03 be 35 b3 02 bf cb df d0 3e b5 3c fc be
       -0.12840964 -0.510547 0.4079574 -0.49265066
000070 8e a3 bf be 96 a3 4f be dc 71 59 3e b7 f9 66 3e
       -0.3742947 -0.20277247 0.2123484 0.22556196
000080 27 c2 bf 3e 9e a7 a1 3c 67 28 8e 3e 1f 77 bf 3e
       0.37452814 0.019733246 0.277652 0.3739557
000090 fd d8 0c bf e8 30 f9 be 61 69 0d bf 19 dc d2 be
       -0.550186 -0.48670125 -0.5523892 -0.41183546
0000a0 91 da 91 3e 1a 92 02 3f ab ff 47 3e aa 6a e6 be
       0.28487065 0.51004183 0.19531123 -0.45003253
0000b0 04 62 8d 3e db b3 a2 3e 36 b2 01 3f 6e bd 08 bf
       0.27613842 0.31777844 0.50662553 -0.53414047
0000c0 66 97 c1 bd 15 8a 9d be 17 64 fc 3e e6 37 a1 3e
       -0.09452705 -0.3076941 0.49295112 0.3148796
0000d0 3b f6 93 3d b3 54 38 3d 30 b0 86 3e 97 f7 e1 be
       0.07224699 0.04500265 0.26306295 -0.4413421
0000e0 c2 22 28 bd 57 ad db be d0 e1 54 3e 5d 91 3b 3e
       -0.041048773 -0.42905685 0.20789266 0.1831717
0000f0 36 b6 fd be 9d 49 a6 bc 6d f0 8c 3e 31 45 93 3e
       -0.49553078 -0.020298773 0.2752718 0.28763726
000100 2c ea 09 3f ae 21 07 bf c9 80 45 be f6 bf 7b be
       0.5387294 -0.52785766 -0.19287409 -0.24584946
000110 54 da fd be 51 ea 0c bf c2 68 d9 be a8 fd 8a 3e
       -0.49580634 -0.5504504 -0.42462736 0.2714665
000120 5c 5b 01 bf f5 d7 8b be c1 a3 c7 be 0c 0f e6 be
       -0.5053003 -0.273132 -0.38992122 -0.44933355
000130 67 f4 03 3f ff dc 8b bd 67 e4 45 be b1 5f 06 3f
       0.51544803 -0.06829261 -0.1932541 0.52489763
000140 82 4d ab be 60 06 70 be 25 47 36 be f4 a3 c6 be
       -0.3345757 -0.23439932 -0.17800577 -0.3879696
000150 8e 61 8d be 0d be 09 be 91 90 41 3d 5d ca b1 be
       -0.2761349 -0.13451405 0.04725701 -0.34724703
000160 0e 6f 04 bd 56 b7 0f 3f 46 cf a1 3b 52 32 9c bd
       -0.032332473 0.56139123 0.004938039 -0.07626785
000170 f4 c6 11 bf 74 e5 db be 81 89 92 3e a7 59 ad 3e
       -0.56944203 -0.42948496 0.28620532 0.33857462
000180 3a 6d 0a bf d9 dc 06 3e 0c d4 0d 3e d9 e8 75 be
       -0.54072917 0.13170184 0.1385042 -0.24014606
000190 53 8a e0 3e fe ed 96 3d ec 3b e9 be 31 06 ef 3e
       0.43855533 0.07369612 -0.4555353 0.4668441
0001a0 9a 9a 82 3e 5f 7c 8f be ee 98 25 3d c0 52 d4 3e
       0.25508577 -0.28024575 0.04042905 0.41469383
0001b0 78 96 e4 3e 08 ef 8c 3e d4 a3 24 3e 83 02 f2 bc
       0.4464605 0.27526116 0.1607812 -0.029542213
0001c0 3a 33 c8 3d 6e 71 d6 be 43 93 9f 3c da da 0e bf
       0.09775396 -0.41883415 0.0194794 -0.5580269
0001d0 d7 c8 b0 3e 53 af c9 be cc 60 c4 be 25 e3 f0 3e
       0.3452823 -0.39391574 -0.383551 0.47048298
0001e0 c6 50 3d be 1b 99 c8 be 4b 26 ef be 74 76 86 3e
       -0.18487844 -0.3917931 -0.46708903 0.26262248
0001f0 11 eb 01 bf e1 25 e5 3e f7 9c 43 3e aa 28 0c 3f
       -0.5074931 0.44755462 0.19102846 0.5474955
000200 e5 c4 5b be 88 dc f9 be f6 2b 2d bd de 0e f2 3e
       -0.21461828 -0.48801064 -0.042278253 0.47276968
000210 b9 7f 8f be f8 0d 0a bf 99 dc e1 3e c2 98 cd 3e
       -0.28027132 -0.53927565 0.44113615 0.40155607
000220 ae 81 f4 3e 71 01 c1 3e 46 3d c0 3c 76 64 f0 be
       0.47755188 0.37696412 0.023466717 -0.46951646
000230 df 2d cc be 38 79 87 be 13 91 bc be 9c fa e8 be
       -0.39878747 -0.2645967 -0.36829433 -0.455037
000240 08 8b dd 3e 25 4a db 3e 1c cd c0 be 28 c9 2a bd
       0.43270135 0.42830005 -0.37656486 -0.041695744
000250 02 83 0c 3f 12 06 91 3e 62 cb ef bd a7 e8 27 be
       0.548874 0.28324944 -0.11708714 -0.16397344
000260 15 95 95 3e 6b 58 74 be fb a1 e1 be 70 ab 1d be
       0.29215303 -0.23861854 -0.44068894 -0.1539743
000270 7d 2d c1 3e 27 af 64 be 31 68 ca be 33 8e 63 be
       0.37730017 -0.2233244 -0.39532617 -0.22222213
000280 42 19 60 be 9b 1b d8 be 67 81 ab bc 5c 99 96 3e
       -0.21884635 -0.4220856 -0.020935727 0.2941388
000290 66 c0 06 3f bd b5 22 3e 73 fb e8 3e ee 00 69 3e
       0.52637327 0.1588964 0.4550434 0.22754261
0002a0 59 fc 15 be 6f 8c de be 47 dc 0f be 0f 2e 88 3e
       -0.14647044 -0.43466517 -0.14048873 0.2659764
0002b0 f2 34 e6 3d a3 33 2f be 59 88 d3 bc 12 06 43 3e
       0.11240567 -0.17109542 -0.025821852 0.19045284
0002c0 89 9e af bd 73 f0 d7 3e 8d 52 bd be 17 90 8e 3d
       -0.0857516 0.42175636 -0.36977044 0.06961077
0002d0 98 d5 9a 3e e0 98 ef 3e 97 16 a1 3d 1a 0c dc 3c
       0.30241084 0.46796322 0.07865637 0.02686124
0002e0 0a 6c fa 3e 14 b2 d8 be 4f a3 86 be 51 9a aa be
       0.48910552 -0.42323363 -0.2629647 -0.3332086
0002f0 77 cc 0e 3f e4 3f 11 3d 1f 8c ea be 06 b2 8a 3d
       0.5578074 0.03546132 -0.4581003 0.067722365
000300 7f 2d 0d bf 09 ee 9e 3e d8 16 e5 3e 2b 7c 7c 3e
       -0.55147547 0.3104098 0.4474399 0.24656741
000310 4f 7d e5 bd c7 f7 a3 be 12 d8 01 3f 37 67 c2 bd
       -0.11205541 -0.32024977 0.5072032 -0.09492343
000320 5e 50 6e 3e 70 a9 29 bd 1a f3 f0 3e bb c0 d6 bd
       0.23272845 -0.041421354 0.47060472 -0.10485979
000330 49 0b bd 3e 6b cb d8 be 50 b4 f8 be 2f 0c c2 3d
       0.36922672 -0.42342696 -0.48575068 0.0947498
000340 ea 04 f7 3e 02 d4 c1 be 31 2d ca 3e 69 64 a8 3d
       0.48245937 -0.37857062 0.39487603 0.08222277
000350 3a 59 ff be 2f 25 b0 be 58 0d 97 bd 23 c4 cd 3d
       -0.49872762 -0.3440337 -0.07375592 0.10047176
000360 b6 88 80 3e 88 68 04 3f 90 48 08 3f f8 55 f3 be
       0.25104302 0.51722 0.5323572 -0.47526526
000370 0a b5 a6 3e b4 44 19 be 84 55 12 bd 02 ec 0a 3f
       0.32559997 -0.14967614 -0.035726085 0.5426637
000380 64 c6 d6 bd 47 d1 74 be 8d 67 a3 3e 00 98 02 3c
       -0.10487059 -0.23907958 0.3191494 0.00797081
000390 bd 83 28 3e ca 4e 5e 3d bc 88 09 3f 45 41 ee 3e
       0.16456504 0.054274358 0.53724265 0.46534172
0003a0 a4 b0 4a 3e c4 16 89 3d fc fd 2e 3e 0b 48 6d be
       0.19793946 0.06693795 0.17089075 -0.23172013
0003b0 5e 1d a7 3e dc a8 ec 3e ad 5e e4 3e dd 36 a9 be
       0.32639593 0.4622258 0.44603482 -0.3304967
0003c0 51 4f 87 be f5 7f ff 3e 9e 71 eb 3e ed a1 b4 3e
       -0.264277 0.4990231 0.4598512 0.3527979
0003d0 0c 94 f0 3e 11 e6 06 3f 12 9b 9a be cd 9b e7 be
       0.4698795 0.52694803 -0.30196434 -0.45236054
0003e0 6a 21 7a bb 47 c1 b5 3e 64 0d 83 be 90 8d b2 be
       -0.003816689 0.3549902 -0.25596154 -0.3487363
0003f0 fe 90 10 bf 74 6e b3 3d ea 61 9b 3d 32 5f a0 be
       -0.5647124 0.08761302 0.07587035 -0.31322628

conv1.conv_1.bias f4 [128]
000000 0d 87 77 be 75 86 98 3d 5a 07 d7 3d 02 c2 5d be
       -0.24172612 0.07447521 0.10499449 -0.2165604
000010 25 5d da 3e 99 e6 34 be c0 5e b4 3d a8 19 e8 be
       0.4264919 -0.17666091 0.08807135 -0.45332074
000020 b7 ab 27 be 8c 74 00 3f 72 00 56 3c b8 4e a3 3e
       -0.16374098 0.50177836 0.01306163 0.31895995
000030 fb 31 a7 3d 4c ae ec 3e 83 c6 af be 7a 42 1f 3e
       0.0816383 0.46226728 -0.3433114 0.15552703
000040 a7 cf 9e be 28 6a 64 bd f4 c6 06 bf a3 52 d4 3e
       -0.310178 -0.0557653 -0.5264733 0.41469297
000050 4c 6c 3c 3e 4a d0 a0 bd 8f 58 6a be 27 12 f7 3e
       0.18400687 -0.07852228 -0.22885345 0.48256037
000060 06 04 cc be ef e0 d8 3e 18 9b 88 be 74 47 a3 bc
       -0.3984682 0.4235911 -0.26680827 -0.019931532
000070 c5 63 0f 3f dd 76 bb 3e 11 ad d8 be b5 c1 be 3e
       0.5601161 0.36614123 -0.4231954 0.37257162
000080 10 f4 d5 3a cb 80 b6 3e 39 e0 a5 3e d5 3d 4a 3d
       0.0016323347 0.35645136 0.3239763 0.049375374
000090 93 64 e6 3c 33 55 91 3e 24 9f d5 be 42 dc c7 3e
       0.02812413 0.28385314 -0.41722977 0.3903523
0000a0 e1 e9 b6 be 5f 3e 60 3e 35 32 fe 3e 40 01 d6 3e
       -0.3572531 0.21898793 0.4964768 0.4179783
0000b0 0c e3 82 be 2f fb 09 3f ef 25 ac be 29 95 04 be
       -0.25563848 0.538989 -0.3362269 -0.12947525
0000c0 21 e4 b9 be bc 69 06 bf d6 49 99 3d 8d 03 82 be
       -0.3630686 -0.5250509 0.07484786 -0.25393334
0000d0 17 a9 f6 be 90 5a d8 3e da 74 bd be b5 ff ef 3d
       -0.4817588 0.42256594 -0.37003213 0.11718694
0000e0 7f 06 0a 3f 72 84 05 3f 0a 5d 15 3e 9c c9 ad 3d
       0.5391616 0.5215522 0.14586273 0.084857196
0000f0 8e 9a 31 3e 18 ca 05 3f 5b 22 88 3e 37 79 e1 3e
       0.17344114 0.52261496 0.2658871 0.44037792
000100 c5 db bc be 4d f5 85 3e 74 08 ba 3e 93 96 b4 3e
       -0.3688642 0.26163712 0.36334574 0.3527113
000110 8e 8a 9c be 69 54 d6 3e b7 b5 c4 3c 75 6c 09 bf
       -0.3057446 0.41861275 0.02401243 -0.5368112
000120 e4 0b dc 3e ca 7b e9 3e e4 9e a6 be ae 85 c5 be
       0.42977822 0.45602256 -0.325431 -0.38578552
000130 15 f8 b6 3e f7 2d c8 3e 4c 42 ec be 72 8f 09 bf
       0.35736147 0.39097568 -0.4614433 -0.53734505
000140 98 6b 3b be 19 ff d5 be 4a 86 0e be e4 4b 8d 3e
       -0.18302763 -0.41796187 -0.13918415 0.27596962
000150 f1 83 91 be 98 c3 07 3f 9e 18 3f be 78 57 66 be
       -0.28420976 0.5303283 -0.18661734 -0.22494304
000160 c8 a7 0d 3f cc 93 3c be 10 81 d6 3e 19 98 20 3e
       0.5533414 -0.18415755 0.41895342 0.1568302
000170 b9 6d c4 3e 1b 15 02 3f 63 a3 01 bf 9a c8 f6 be
       0.38364962 0.50813454 -0.50639933 -0.48199922
000180 9e 41 6a 3d ae f0 d0 bd d9 63 4e 3e d6 95 c3 3d
       0.057191484 -0.10202156 0.20155276 0.09550063
000190 f0 33 a0 3e 78 df 5a 3e 3e 80 05 3f 06 46 b5 3e
       0.31289625 0.21374309 0.5214881 0.35404986
0001a0 6d f1 d8 3e fd 3b 40 3e 0e c9 fd 3e f6 cb 03 3f
       0.42371693 0.18772884 0.49567455 0.51483095
0001b0 95 30 82 be 20 04 52 be 4f 50 cf be c1 42 01 bf
       -0.2542769 -0.20509386 -0.40490958 -0.50492483
0001c0 a3 ad d4 3e 49 95 a3 3e 32 2d cf 3e f3 55 0f 3f
       0.41538724 0.31949833 0.4046417 0.55990523
0001d0 2e 0d f1 be 35 e3 14 be 5d a2 11 3e 51 f0 c0 be
       -0.47080368 -0.14539798 0.14222093 -0.37683347
0001e0 24 23 ba be bf 6d 73 3d e4 9a 87 3e b5 71 ca be
       -0.36354935 0.059430834 0.2648536 -0.39539877
0001f0 43 8c fc 3e 91 70 3a 3d 76 8d a4 bc 5f bd d2 3d
       0.4932576 0.045517508 -0.020086985 0.10290026

conv1.conv_2.weight f4 [128, 128, 3]
000000 e4 d9 02 bd 0d 99 cb bb d7 40 d2 3c 3b 13 86 3b
       -0.031946078 -0.0062133134 0.025665684 0.004091648
000010 b1 c6 36 3d a5 73 18 bd 0f cf ea bc 61 96 c3 3b
       0.04462308 -0.037219662 -0.028663186 0.0059688543
000020 2a 5f d5 3c da 41 41 3d 62 36 66 3c be c0 0b 3d
       0.026046354 0.04718194 0.014051052 0.03411936
000030 a6 88 9a 3c 8a 98 3f 3d ef dc 1f bb b3 3b 90 bc
       0.018863987 0.046776332 -0.0024393161 -0.017606592
000040 1b c7 46 bd 7e ad 0a 3d 28 b7 3b 3c 6f 73 34 3c
       -0.048529726 0.03385686 0.011457242 0.01101385
000050 43 a6 d6 3c 20 e6 0b 3c d2 f6 1f 3d 75 11 0a bd
       0.026202327 0.008538753 0.039053746 -0.033708055
000060 c4 e5 4b bd 87 42 22 bd c7 4d 23 bb 1f 13 92 3b
       -0.04977967 -0.039614227 -0.0024918185 0.004457846
000070 69 b1 c1 3b 12 dd c6 bc 67 aa 34 bd fe 49 20 bd
       0.0059110415 -0.024275336 -0.04410782 -0.039133064
000080 ba a4 07 bd 22 4c 20 3d a2 48 87 bb 39 38 83 3c
       -0.03311608 0.039135106 -0.0041285316 0.01601802
000090 de 90 9d 3c e6 d4 22 3d 94 fe 8e 3c 7f 0c 18 3d
       0.019234117 0.039753817 0.017455377 0.037121292
0000a0 e7 70 92 3b af 02 3b bd 29 a0 37 bd 65 e5 3b bc
       0.0044690254 -0.045656856 -0.044830475 -0.011468266
0000b0 34 02 c5 3c 7b 0f 3f bd 2f 39 76 bb 74 39 08 3d
       0.024048902 -0.046645623 -0.0037570705 0.033257917
0000c0 b7 11 44 3d 97 6f bf bb 38 69 b6 bc af e6 d2 3b
       0.047868457 -0.00584216 -0.02226697 0.006436191
0000d0 d4 4c 01 bd f6 90 5b 3c 57 0d 45 bd c2 13 43 3c
       -0.03156741 0.013401261 -0.048108425 0.011906566
0000e0 17 e3 0b bd d8 e6 a9 3c b0 41 98 3b 3f 42 32 bc
       -0.034152117 0.020739958 0.0046465024 -0.010880052
0000f0 1f 20 e4 3c d9 1c 41 bd 6f a0 17 3d e1 69 0c bd
       0.027847348 -0.047146652 0.037018236 -0.03428066
000100 38 f4 91 3c cc f2 32 3d c9 ed 39 3d 72 c2 39 bd
       0.017816648 0.04368858 0.045392785 -0.045351453
000110 b4 90 a6 bb f2 55 78 3c 64 31 aa bc 32 58 d4 bc
       -0.005083168 0.01515721 -0.020775504 -0.025920961
000120 ca 78 0b 3d d8 97 2c bd 99 1e 31 bd f0 85 51 bd
       0.03405074 -0.042136997 -0.04324207 -0.051153123
000130 11 69 d2 3b 35 4c da 3c 1a 74 2e 3d 44 d1 46 3d
       0.0064212163 0.026647666 0.04259119 0.048539415
000140 6c 31 bf bc 21 2a 37 bc 0e 9f 30 bd 95 65 3a 3b
       -0.023338996 -0.011179478 -0.043120436 0.0028441895
000150 85 fc 0d bd 6a 24 2b 3d 91 5d 59 bd e2 1e 70 3d
       -0.03466465 0.041782774 -0.053067748 0.058623202
000160 09 a7 4d bd 18 b6 52 bc db 68 05 bd f4 24 78 3c
       -0.050208125 -0.012860797 -0.0325707 0.015145529
000170 38 a0 04 bd d1 73 f0 bc 8f c0 cc bc ee d6 10 3d
       -0.03237936 -0.0293521 -0.024994163 0.035361223
000180 1c d3 37 3d 36 f6 29 bd 2a d3 29 3c 21 16 8d bc
       0.044879064 -0.04149457 0.010365287 -0.017222466
000190 58 ef 5e 3d 74 3f 43 bd ff b8 75 3c 84 8d d9 3c
       0.054427475 -0.047667935 0.01499772 0.026556738
0001a0 ac 9d 3f bd 6b 35 11 3c bf e3 6b bc 39 3c 0d bd
       -0.046781227 0.0088628335 -0.014397561 -0.03448126
0001b0 52 b5 06 bd e2 b5 3d bb 51 b5 f4 bc 8b 68 a2 3c
       -0.032887764 -0.0028947522 -0.029871615 0.01982524
0001c0 a2 20 2f bd 99 1b 8f ba 11 63 b7 bc 0a 93 4f bc
       -0.04275573 -0.0010918259 -0.022386106 -0.012669334
0001d0 af 20 25 3d 64 4a 05 bd 2d 63 3f bd 96 20 35 bd
       0.040314373 -0.032541648 -0.04672544 -0.04422053
0001e0 82 2e 18 3d c0 ae 81 3b b5 d5 97 bc 87 87 98 bc
       0.03715373 0.0039575994 -0.01853452 -0.018619312
0001f0 24 28 1c bd 6a c3 94 bc e5 6d 0b 3c 3f 65 84 bc
       -0.03812422 -0.018159587 0.008510088 -0.01616156
000200 10 2d 50 3d d8 e7 bd bc 8f f6 31 3b e5 32 b7 3c
       0.050824225 -0.02318184 0.0027155017 0.022363136
000210 06 04 3e 3b 0c e4 00 bd 67 83 b5 bc 84 e6 0c bd
       0.0028994097 -0.031467482 -0.022157384 -0.034399524
000220 84 43 bb bc 08 d9 be 3a 7c ef 0c bd 1f e4 90 3c
       -0.022859342 0.001456053 -0.034408078 0.017686902
000230 5e b1 b9 3c 54 38 d7 3c 8f d9 2e 3d 9f 4c b5 bc
       0.022667583 0.026271977 0.04268795 -0.022131262
000240 bd 08 69 bb 98 17 d7 bc 04 e0 30 3d cf e2 3b bb
       -0.0035558187 -0.026256368 0.043182388 -0.0028669124
000250 ac cb 56 3d ba 46 20 3c 57 f6 7c bb 7d cc 34 bd
       0.05244033 0.0097824875 -0.0038598978 -0.044140328
000260 f1 79 69 bd 9c e3 19 3c 94 29 03 bd e1 47 33 3c
       -0.057001058 0.009392645 -0.032022074 0.01094243
000270 c3 66 36 bc 9f e1 03 bd 5d 91 e6 3c 84 87 0f bd
       -0.011132899 -0.03219759 0.028145486 -0.035041347
000280 e6 2a c8 3b cf 81 0e bd d6 cb 4f 3d 5a 76 05 bd
       0.0061086295 -0.034791764 0.050731502 -0.032583572
000290 b9 56 46 3c 65 c7 28 3d 8f 85 fe bc 89 68 ae 3c
       0.012105637 0.041205782 -0.031069545 0.02129008
0002a0 a3 03 32 bd a3 16 23 3d 18 e0 10 3d fc 68 1a bd
       -0.0434605 0.03981651 0.035369962 -0.037697777
0002b0 80 ab 0f bc 71 7a 19 3d 40 9e 21 3d aa e1 01 bd
       -0.008768916 0.037470285 0.03945756 -0.03170935
0002c0 38 c3 d3 3c 68 43 4e bc ac 45 0d bd 27 46 e2 bc
       0.025849923 -0.012589313 -0.034490272 -0.027621342
0002d0 e0 b1 6a 3c c6 85 c4 3c b9 3a 00 bd 0a e9 1f 3d
       0.014324635 0.02398957 -0.031306002 0.039040603
0002e0 15 26 b4 3c ff aa 11 bb da 9a 3c bd ee 46 c1 bb
       0.021990815 -0.0022227166 -0.046046115 -0.005898348
0002f0 29 e2 89 bb 33 01 a1 bb c6 86 2b bd 28 76 94 3c
       -0.0042078686 -0.004913473 -0.041876577 0.018122748
000300 67 89 3a 3d 61 e3 f0 bc 19 2f 18 bc ec 5e 4f 38
       0.045541193 -0.029405298 -0.009288573 4.944105e-05
000310 b1 93 9b 3b 71 0c 56 3c 9f 2a 07 bb da 18 3a 3d
       0.004747831 0.01306449 -0.002062477 0.045433857
000320 c2 42 b3 3c 95 71 03 3d a4 4d 01 3d 1f 9c 59 3b
       0.021882419 0.032090742 0.031568184 0.0033204628
000330 76 b0 e2 ba 3f 36 24 bc 77 ec 1e bd 41 14 13 bd
       -0.0017295021 -0.010022699 -0.03879973 -0.035907988
000340 1a f8 1b bd ba cf 2d bd d3 70 1d bb cc e0 3f bc
       -0.038078405 -0.04243443 -0.0024023547 -0.011711311
000350 a9 7b 0e bd 98 2d 32 3d 3f 6d 1b 3b 26 c4 8a 3c
       -0.0347859 0.043500513 0.0023716239 0.016939234
000360 61 44 19 3d 1b 8d 2b 3a 89 91 79 bb cb 0d 12 bd
       0.037418727 0.00065441587 -0.003808113 -0.035657685
000370 1c 30 a1 3c 45 7c 5a 3c 71 78 9f ba c0 a9 a5 3c
       0.01967626 0.013335292 -0.0012166632 0.020222545
000380 ae 46 c4 bc 2b 9d 41 3d 43 b5 4e bc 31 e4 86 3c
       -0.023959484 0.047269028 -0.012616458 0.016466232
000390 df 76 cf 3c 29 a9 2b bc 87 db 3a bd 74 4a 9f bc
       0.025325237 -0.010477343 -0.045619514 -0.019444682
0003a0 61 09 20 bd 91 9d b3 bc 39 bc 81 3c d7 2d 16 bd
       -0.039071444 -0.02192572 0.015836822 -0.03666481
0003b0 9f 7f 02 3d 1e 4e d7 3c 1e 27 c1 bc ff 22 d1 3c
       0.03185999 0.026282366 -0.023578223 0.025529383
0003c0 2b ac 2a 3d 71 75 3e 3d 89 8c d4 bc 5c 65 a1 3c
       0.0416681 0.04649872 -0.025945919 0.019701652
0003d0 47 9c 66 bc 07 eb b4 bc 6b c9 d9 bc a3 67 13 3d
       -0.014075345 -0.022084726 -0.026585301 0.035987508
0003e0 20 5d 9f 3c c9 ea c1 3a bc e9 b3 bc e3 61 05 bc
       0.019453585 0.0014794703 -0.02196204 -0.008141014
0003f0 a0 43 1c ba 2d df 2e 3d 5b 1d d2 3c ab 36 a7 3c
       -0.00059610046 0.042693306 0.025648763 0.02041181

conv1.conv_2.bias f4 [128]
000000 62 76 08 3c 7a c1 1a bd c7 73 d3 3c 7a 56 d1 bc
       0.008329006 -0.03778217 0.025812043 -0.02555393
000010 d2 d1 47 bd 2a 8d 02 bd 68 25 9c bc fc db 27 3d
       -0.048784085 -0.031872906 -0.019060805 0.040981278
000020 88 3b 1b bd 83 e4 24 3d bc 2a e8 3c ab 39 d7 bc
       -0.03789857 0.04025699 0.02834069 -0.026272615
000030 e4 c9 05 bd 92 53 42 3d 1b cd 00 bd 98 66 48 3c
       -0.03266324 0.04744298 -0.031445604 0.0122314915
000040 e1 08 44 bd 85 95 35 bd 13 f3 cb bc 5b 71 25 bd
       -0.04786003 -0.044332046 -0.02489618 -0.040391307
000050 44 58 cb 3c 4d 1d 7b bb 01 1d 09 3d fd 10 45 bd
       0.024822362 -0.0038317025 0.033474926 -0.048111904
000060 14 44 82 ba 3e 07 21 3d d0 38 aa 3c 60 b4 00 bd
       -0.0009938502 0.039313547 0.020779043 -0.03142202
000070 4f 0d 8a ba ed fd bd 39 7f 08 8a 3c f3 af c6 3b
       -0.0010532531 0.0003623808 0.016849754 0.0060634553
000080 69 a3 1e 3d e3 2c 81 bc 23 2e e3 3c 2f cf 20 3d
       0.03873006 -0.015768474 0.02773196 0.039260086
000090 7b 93 bd bc 68 59 cb bc 7c 34 c9 3c f5 35 21 3d
       -0.023141613 -0.024822906 0.02456116 0.039358098
0000a0 34 2d 35 bd 24 34 19 3d a0 50 58 3c 2b 5e 04 bc
       -0.044232562 0.03740324 0.013202816 -0.008079092
0000b0 8f 42 96 bc 60 41 47 bc 24 04 93 39 ca 50 cb 3c
       -0.018342284 -0.012161583 0.0002804111 0.024818797
0000c0 43 7b 31 bb 33 d7 15 bd 6b 05 a2 bc d1 b9 1c bd
       -0.0027081526 -0.036582183 -0.019777974 -0.038263146
0000d0 eb e2 75 bc d1 62 38 3d a8 de f1 3c 6e 14 1e bb
       -0.015007715 0.045016114 0.029525116 -0.0024121064
0000e0 6a e7 09 bd 0c b4 4c 3c 6c a4 20 bd 72 8e 19 bd
       -0.03366796 0.012494098 -0.039219305 -0.037489362
0000f0 65 af c2 3b 95 ee b3 3b a5 5d cc bc 50 17 31 3d
       0.005941319 0.0054910877 -0.024946997 0.043235123
000100 c6 a6 3d 3d d0 83 fd 3b 87 e7 4a 3d 9a c7 8b bc
       0.046301626 0.0077366605 0.049537208 -0.01706295
000110 64 6c 9d bc 6a 9c 02 bd 72 89 bb bc 77 d4 ff ba
       -0.019216724 -0.03188745 -0.022892687 -0.0019518276
000120 6b b2 03 3d 1c 70 88 bb 71 a6 66 3b 87 ea d5 bc
       0.032152575 -0.004163755 0.0035194422 -0.026112808
000130 8a 3a 32 3d 50 8f cb bc 7d 71 2d bc 42 95 ef bb
       0.04351286 -0.02484861 -0.01058614 -0.007311494
000140 09 48 b8 bb c0 c5 3b bd 81 1e 24 bd f6 56 2f bd
       -0.0056238216 -0.045842886 -0.040068153 -0.04280754
000150 ef f0 27 3d 4b 4c e2 bc 2f 61 2f 3d e8 e5 eb bb
       0.041001257 -0.02762427 0.04281729 -0.007199038
000160 6d 31 00 3c f7 a0 84 3c 9d a6 bb bb 67 bc 66 3c
       0.007824284 0.016190035 -0.005726649 0.014083005
000170 f9 af 0c ba fe ab fa bc f5 0d 14 bd 97 02 28 bc
       -0.0005366798 -0.03059959 -0.036146123 -0.010254524
000180 d5 ba 2f 3c 14 a1 7e bc fc 0e 09 bc 80 1e f0 3c
       0.010725697 -0.015541334 -0.008365389 0.029311419
000190 13 05 b5 bc ca 77 9b 3c 23 fd cc 3c 1f cf 49 3d
       -0.022097146 0.018978018 0.025023049 0.04926979
0001a0 13 ab 0b 3d 9d 0d 9c bc d1 19 2e bd 74 09 c2 3c
       0.034098696 -0.01904946 -0.04250509 0.023686148
0001b0 f1 23 3c bd 48 7f 74 3c d4 39 fc bc f0 8f b3 3b
       -0.045932714 0.014922924 -0.030789293 0.005479805
0001c0 ad a9 bf bc 30 a2 3f bd dd fd 0a bd 27 77 87 3c
       -0.023396337 -0.046785533 -0.03393351 0.016536308
0001d0 95 7b bd bc ea e9 95 bc 3a 26 fb 3c aa 47 a7 3b
       -0.023130218 -0.018300015 0.030657876 0.0051049786
0001e0 50 e9 6e 3c cd bb 19 bd df 8f 86 3b 13 b1 1d 3d
       0.014581993 -0.037532616 0.0041065062 0.03849895
0001f0 71 ae 1b ba 06 aa 8b bc 4a 59 f6 bb 2d 45 ea 3b
       -0.00059387746 -0.017048847 -0.0075179683 0.0071493597

conv1.conv_3.weight f4 [128, 128, 3]
000000 71 2a 54 bd 97 30 49 bd bf 8a 45 3d f3 31 69 bc
       -0.051798288 -0.049118605 0.04822802 -0.0142331
000010 bd 36 59 3d b7 3c 29 bc bd 38 39 bd 31 71 7a bc
       0.053030718 -0.010329417 -0.045220125 -0.015285776
000020 cb 69 21 bd d3 f2 09 bb 0a c7 3e bb c4 dd 34 3d
       -0.039407533 -0.0021049276 -0.0029110336 0.044156805
000030 d9 f4 96 bb 92 26 25 bc 90 4b 17 bd 7b d5 35 bd
       -0.004606825 -0.010079997 -0.036937296 -0.044393044
000040 4b 45 c2 3c 98 87 29 3d cb 23 30 3d b7 52 9c 3c
       0.023714682 0.041389078 0.043002885 0.01908241
000050 3b 3b f9 3c 79 0f 16 3d c9 9a 23 3d 19 b7 f7 3c
       0.030423751 0.03663585 0.039942537 0.030238675
000060 65 1c 36 bd 63 c7 37 3d 04 e3 13 3c 4d c5 c3 bc
       -0.044460673 0.044867884 0.009026293 -0.023897791
000070 f6 56 b9 bb 9d 1d 50 3c c5 15 c2 bc 64 b6 a4 bb
       -0.0056561185 0.012702373 -0.023692021 -0.0050266255
000080 28 b7 8d bb a0 d9 34 3a 8f 16 a3 3c 95 d6 1a 3d
       -0.0043248124 0.0006898884 0.019908218 0.037802298
000090 14 70 12 3d f6 0f 1e 3d ce ea 08 3d f1 71 ac 3c
       0.035751417 0.03858944 0.033427052 0.021050425
0000a0 a1 f1 c0 3b 3a e0 08 bd b8 0e fd bc 8d 70 34 bd
       0.0058881794 -0.033416964 -0.030890808 -0.04405265
0000b0 ee b9 41 bd 24 9a 30 bd 04 f0 8e 3b 1c 2f 2d 3c
       -0.047296457 -0.04311575 0.004362108 0.010570314
0000c0 2f 04 1d bc 80 e8 d2 3b 0b 57 8c 3c 75 66 51 3d
       -0.009583517 0.0064364076 0.01713135 0.0511231
0000d0 6e 2a 1b bc 1d 99 3a 3d 22 40 0c bc b6 d7 8f 3c
       -0.009470565 0.045556176 -0.008560212 0.017558914
0000e0 c5 08 1f 3d 87 78 49 bd 3a c0 80 ba 5e ac dd bc
       0.038826723 -0.04918721 -0.0009822913 -0.02705973
0000f0 35 e9 30 3d aa 01 dd 3c fa de 29 bd fe 19 ba bc
       0.043191154 0.026978333 -0.041472413 -0.022717472
000100 cf f6 82 bc d9 8b 1a 3d e6 f0 ff 3c af 4b 08 3c
       -0.015986828 0.037731025 0.031242799 0.008318826
000110 c0 21 6c bc 9b 78 b0 ba 38 df b2 3b ad c3 6d bb
       -0.0144123435 -0.0013463678 0.0054587387 -0.0036279962
000120 15 68 b2 3c 86 fa 2d 3d 18 66 af 3c d5 bc eb bb
       0.021778146 0.042475246 0.021410987 -0.0071941414
000130 36 b6 1a bd 38 88 af 3c a6 93 3d bd c7 48 92 3b
       -0.037771426 0.021427259 -0.046283387 0.004464242
000140 08 f9 03 bd ff 9d 21 3d 35 48 8e 3c 54 2e 14 bc
       -0.032219917 0.039457317 0.017368415 -0.009044249
000150 26 60 74 3c 4b 1f 5b 3c f4 0e 35 bd 89 50 68 bc
       0.014915502 0.01337416 -0.044203714 -0.014179357
000160 00 a7 2b bc 2c 46 a2 ba 0c b1 20 bd bf cc a1 3c
       -0.010476828 -0.0012380532 -0.039231345 0.01975095
000170 71 14 47 bd 56 dc 81 3a cd d4 f3 3c de 3a 1f bd
       -0.04860348 0.0009907584 0.029764557 -0.0388745
000180 94 f8 7e 3a b7 7f 57 bc 67 a7 ce bb 39 d3 bd 3c
       0.0009726372 -0.013153008 -0.006306577 0.023172008
000190 f8 6f b2 3c 39 bb 04 bd 11 be d3 3c f7 88 1c 3c
       0.021781906 -0.032405112 0.025847467 0.009554139
0001a0 3a 36 a7 bb e7 bc 45 3c d1 19 6a 3c 56 91 39 3b
       -0.0051029 0.012068964 0.014288382 0.0028315387
0001b0 2f f5 2c 3d 0f 1a e6 bc ee ed 1b 3d 35 5b c3 3c
       0.042226013 -0.028088598 0.038068704 0.023847202
0001c0 1d 43 c4 bc c1 83 a2 3c 12 cf ae bc 7c 2b 5e 3c
       -0.023957783 0.019838216 -0.021338973 0.013560172
0001d0 fa bd 05 bd 21 7e b9 bc fe 0f e6 3c d2 2d 22 bd
       -0.03265188 -0.02264315 0.028083798 -0.03959448
0001e0 0d 33 0e bd f5 f0 3e bb 11 bb 34 3c 0b 9f 0d 39
       -0.034716655 -0.002913532 0.011030928 0.00013506056
0001f0 8b cb 01 bd bb 82 15 bd d5 c6 37 bd 02 f3 0b 3c
       -0.031688254 -0.036501627 -0.044867355 0.008541824
000200 c3 b5 a3 3c 83 8c 3e 3d 11 b6 7f 3c 1f 0b 2e 3d
       0.019984132 0.04652072 0.015607373 0.042491075
000210 fd 18 60 39 d2 5f 95 bb b0 9a 13 bd 37 24 26 3d
       0.00021371614 -0.004558542 -0.036036193 0.04056188
000220 1b bc 17 bd b0 27 52 3d e1 b5 d5 3c 27 a4 6b 3c
       -0.037044626 0.05130738 0.026087703 0.014382399
000230 fd f1 08 bd 05 2c 17 3c f1 42 24 3d e3 d9 3a 3d
       -0.033433903 0.009226804 0.040102903 0.04561795
000240 57 02 fe bc 02 ca 45 3c a9 6d 2c 3a 0b 08 32 bd
       -0.031006975 0.012072088 0.000657762 -0.0434647
000250 b6 eb ae bb 1f 74 31 bc 1e be c9 bb ff fb 28 3d
       -0.0053381575 -0.010830908 -0.006156697 0.041255947
000260 3a 3d ab bc 76 57 07 3c 35 25 4d 3d 15 6a db bc
       -0.020903219 0.008260598 0.05008431 -0.026783982
000270 2e 72 30 bc 13 7c ca bc 5b 0d 51 3c 8a 8a a5 bc
       -0.01076941 -0.024717366 0.012759532 -0.020207662
000280 08 c1 cb 3c f3 dc 23 bc 8b 64 4d 3d 6e 3a 60 3c
       0.024872318 -0.010001409 0.050144713 0.013685806
000290 ee 15 25 3c 51 42 71 3c 04 0c 24 3c 11 48 40 bd
       0.010076029 0.014725284 0.01001263 -0.046943728
0002a0 36 e8 5b bc 1a 42 82 3c 0b 14 be 3c e4 a3 12 3d
       -0.013422063 0.01590066 0.023202917 0.03580083
0002b0 b2 dc 0e bd 2f 85 60 3d a9 94 24 3d d8 60 9f bc
       -0.03487844 0.054814514 0.040180836 -0.019455358
0002c0 30 c4 28 bd 1f 29 be 3c 26 09 be bc c0 65 3f bd
       -0.041202724 0.023212967 -0.023197722 -0.046727896
0002d0 c6 03 51 3d 6d 32 15 3c 70 c5 39 bd 3b 70 9b bc
       0.05102899 0.009106261 -0.045354307 -0.018974414
0002e0 0e 88 e0 3c 11 d4 b7 bc 18 5a 31 bc bb 7c 28 bd
       0.027408626 -0.022439988 -0.010824703 -0.041134577
0002f0 05 3a fa 3c e6 b0 94 3c 55 ae 00 bd cf 85 82 3c
       0.030545244 0.018150758 -0.031416256 0.015932946
000300 11 4c 4c 3d 38 c9 af bb c6 22 1b bd 68 fa 91 bb
       0.04987723 -0.0053645633 -0.03787496 -0.0044548996
000310 8e 9f 1d 3d 0e 31 3c 3b e4 2a 3a bd 63 df 12 bd
       0.03848224 0.0028715762 -0.04545106 -0.03585757
000320 88 53 b2 3c 34 5d 0f 3d 02 d4 2f bd e2 1f 0b 3c
       0.021768346 0.035000995 -0.042926796 0.008491488
000330 44 e7 38 bd 1c 9d 46 3c c5 27 10 3d 2b 46 17 3d
       -0.045142427 0.012122419 0.035194177 0.03693215
000340 2f 4f ae bc c4 6e bf bc b9 96 20 3d 54 35 eb bc
       -0.021277992 -0.023368247 0.03920624 -0.028711952
000350 29 2e 21 3d 76 e1 5d bd be 6e 26 3c 80 91 16 bd
       0.039350662 -0.054170094 0.010158239 -0.036759853
000360 d8 37 05 3d 04 06 d8 bb 92 08 75 3c cf 82 f9 bc
       0.03252396 -0.006592514 0.014955657 -0.030457882
000370 f0 88 cf 3c a8 b5 1a bc dd 96 9c bc 03 27 2e 3d
       0.025333852 -0.009442724 -0.019114906 0.042517673
000380 30 c2 4f bd ee 26 31 3c be 1a a2 bb b9 fd 43 3d
       -0.0507223 0.010812504 -0.0049470356 0.04784939
000390 1f 0b 3c bd ad e3 c4 bc f8 05 9b bc 5a fb d4 3c
       -0.045909043 -0.024034346 -0.018923745 0.02599876
0003a0 5a 3a 25 3d af 3f c3 3c b9 2f 66 3d f1 a3 52 bc
       0.04033885 0.023834078 0.056197856 -0.0128564695
0003b0 4c 90 48 3d fa b4 0a 3d 01 b8 ec 3c 43 6e 29 3d
       0.048965737 0.033864 0.028896334 0.04136492
0003c0 dd 0a a3 3c 06 df c5 bc 9a d3 2b bd 6c 8a 1b bd
       0.019902641 -0.024154197 -0.041949846 -0.037973806
0003d0 83 a3 3d bd 27 e5 c2 3c 31 e6 5e bd e7 6c ec bc
       -0.046298515 0.023790909 -0.054418746 -0.028860522
0003e0 5f 17 d2 3c 2c 84 a4 3c 00 28 59 bd fa 0f 25 bd
       0.02564591 0.020082556 -0.053016663 -0.04029844
0003f0 f8 9b e1 3c 80 88 4e bc 2f 09 cc 3c f7 0d 1b 3d
       0.027540192 -0.012605786 0.024906723 0.037855115

conv1.conv_3.bias f4 [128]
000000 ca d7 67 3c 02 b3 06 3d a5 73 43 bd f6 21 2b 3d
       0.014150569 0.03288556 -0.04771771 0.041780435
000010 4c a5 13 bd 75 f7 37 bd b9 b6 e7 bc f6 aa 1d bd
       -0.03604631 -0.044913728 -0.028285371 -0.03849312
000020 4a e2 24 bd 09 f5 28 3d a5 d1 9b 3c c9 8a d8 3c
       -0.04025487 0.04124931 0.019020865 0.026433365
000030 64 09 4d bc 4d 03 31 bd 2b 92 ab bc 2f ae 2f 3d
       -0.012514446 -0.04321604 -0.020943722 0.042890724
000040 d2 ae 4e bd 0b 9d 01 3d 3b ea 49 bd 89 9d 47 bc
       -0.05045969 0.03164391 -0.049295645 -0.012183555
000050 5b ab 35 bc f7 a9 40 3c 9c 91 e9 bc 65 b3 97 bc
       -0.011088218 0.011759273 -0.028511815 -0.01851816
000060 d7 cc d5 bc 12 a5 22 bd 6d 59 76 3c 2e 38 3e bd
       -0.026098652 -0.039708205 0.015035969 -0.046440296
000070 70 91 be 3a ea 22 f8 3c 8c 74 04 bc 8c 97 3c 3d
       0.0014539193 0.030290086 -0.008084428 0.046042964
000080 f5 bd 23 bb 0f a4 dc bc 43 85 d4 3c 77 a4 96 3b
       -0.002498505 -0.026933698 0.02594245 0.0045972425
000090 92 5d 67 3c cf 8d 3c bd 79 31 43 3d 4a fb e8 bc
       0.01412143 -0.046033677 0.047654603 -0.028440136
0000a0 a9 9d 4a 3c dc 73 14 bc 0e c9 ba 3b c1 f4 c5 bc
       0.012366691 -0.009060826 0.005700237 -0.02416456
0000b0 97 f5 cb bc a7 12 90 bc 7a 69 19 3d 59 12 ff bc
       -0.02489738 -0.01758702 0.037454106 -0.031136679
0000c0 08 77 53 bc bb cf 83 3c db e3 30 3d 35 bb ea 3c
       -0.012906797 0.016090265 0.04318605 0.02865372
0000d0 24 d7 ed bb 9f 4b 80 3b 09 81 11 3d 19 df cd 3c
       -0.007258313 0.0039152647 0.03552345 0.025130795
0000e0 a0 97 57 bc a9 68 de 3b 84 6a c4 b9 4d 4a 7e bc
       -0.013158709 0.006787379 -0.00037463394 -0.015520644
0000f0 a9 17 bf bb 0e 9a 86 bc c9 cb f5 bc dd da 0e bd
       -0.005831678 -0.01643088 -0.030004399 -0.034876693
000100 00 58 c7 3c 0d 2f ff bc 8e 5c 90 bc 75 7b 74 bc
       0.024333954 -0.031150365 -0.017622259 -0.014922013
000110 44 4c 16 bc 58 d5 e1 bc 06 d7 fb 3c 08 f8 a4 bc
       -0.009173457 -0.02756755 0.03074218 -0.020137802
000120 1c 10 0f 3d 25 67 2f bc 2c b2 30 bd 3a f0 37 3d
       0.034927472 -0.010705744 -0.043138668 0.044906832
000130 6e f2 25 3d 23 15 f7 b9 97 20 9e 3c b8 49 02 bc
       0.040514402 -0.0004712726 0.01930265 -0.007952146
000140 2e 3b c8 bc 30 d4 f7 bc f6 6a 41 bd 2d aa a8 bc
       -0.024442282 -0.030252546 -0.047221147 -0.020588959
000150 b0 bd f3 3b b6 4d ab 3c 86 af 6b 3b c3 28 b2 bc
       0.007438384 0.020911079 0.0035962774 -0.021747952
000160 86 c8 bb bb 1b 15 4a 3d ca 01 d7 3c 21 c4 b3 3c
       -0.0057306914 0.049336534 0.02624597 0.021944107
000170 33 85 06 bd 9c 7e 0b bd e5 a6 3e 3d 39 9f a4 bc
       -0.032841872 -0.03405629 0.04654588 -0.020095455
000180 58 0f d5 bb 24 a3 3a 3d 32 7a 3f bd b3 c6 32 bd
       -0.0065020733 0.04556574 -0.046747394 -0.043646526
000190 30 58 2b bd 47 a6 98 bc 48 81 4a bd a8 33 46 3c
       -0.04183215 -0.018633975 -0.0494397 0.012097277
0001a0 8b 48 a6 3c b3 57 c5 3c 27 b9 72 bc 85 fb 09 bd
       0.020298263 0.02408967 -0.014814652 -0.033687133
0001b0 d9 19 2e 3d 46 ad 9d bc 6e f6 fc bc 1d cb ce bc
       0.04250512 -0.019247662 -0.030879226 -0.025243336
0001c0 ce ac 03 bc fe b0 4a 3c f4 06 e9 bc 8a 25 b6 3c
       -0.008036805 0.0123713 -0.028445698 0.022234697
0001d0 2e 7a 31 3d b3 a8 9a 3c 0a 56 32 3d 23 c5 f2 3b
       0.04332941 0.01887927 0.043539084 0.0074087544
0001e0 e5 5b 04 bd 9e 2f b4 3c 18 fc e7 3a d9 57 aa bc
       -0.0323142 0.021995362 0.0017699031 -0.020793842
0001f0 2b bf 5e 3c ea f2 28 bd 22 e4 af bc 33 3a df bb
       0.013595383 -0.041247286 -0.021471087 -0.006812358

conv1.normalization_1.weight f4 [128]
000000 f8 13 81 3f f8 18 83 3f f9 9a 7e 3f 0e 30 7f 3f
       1.0084219 1.0241995 0.9945522 0.996827
000010 17 11 80 3f be c8 7d 3f b1 a5 7e 3f 7b 16 80 3f
       1.0005215 0.99134433 0.99471575 1.000686
000020 e8 77 80 3f 03 ca 7e 3f c2 6d 7f 3f 9a 03 7f 3f
       1.0036592 0.99526995 0.9977685 0.9961487
000030 d1 f9 7b 3f 17 2c 80 3f 13 d9 81 3f bd 8f 80 3f
       0.98428065 1.0013455 1.0144371 1.0043865
000040 92 13 80 3f 18 9c 7e 3f 02 b8 80 3f 74 b9 80 3f
       1.0005972 0.9945693 1.0056155 1.0056596
000050 d4 e1 80 3f 3d 4c 80 3f 73 f8 7f 3f ac 7c 7d 3f
       1.0068917 1.0023266 0.9998848 0.9901836
000060 04 a4 7e 3f 96 76 82 3f 2b df 82 3f b1 f3 7e 3f
       0.9946902 1.019244 1.0224355 0.99590594
000070 8f e3 7e 3f 9d 24 81 3f 60 1f 7f 3f 96 3c 7f 3f
       0.99565977 1.0089298 0.9965725 0.9970182
000080 ba b1 7f 3f ff 2c 7f 3f 34 42 7f 3f 23 80 7f 3f
       0.99880564 0.99678034 0.9971039 0.99804896
000090 f3 5f 7d 3f d8 39 7e 3f 21 57 80 3f 49 df 7f 3f
       0.9897453 0.9930701 1.002659 0.9995008
0000a0 c1 8b 7f 3f df 3f 7d 3f 4c 42 80 3f c8 00 83 3f
       0.9982262 0.98925585 1.0020232 1.0234613
0000b0 51 2a 7e 3f fe 08 7f 3f 79 42 80 3f dc de 7d 3f
       0.9928332 0.99623096 1.0020286 0.9916818
0000c0 b7 6b 7e 3f df 4d 7e 3f 1a 9b 83 3f 9c 23 7e 3f
       0.9938311 0.9933757 1.0281708 0.99273086
0000d0 bc 38 7d 3f 06 ef 7e 3f 1c 9d 7d 3f 93 ea 7f 3f
       0.98914695 0.9958347 0.99067855 0.99967307
0000e0 53 2e 7f 3f 19 0b 80 3f cf c2 7d 3f d8 2b 80 3f
       0.9968006 1.0003387 0.9912538 1.001338
0000f0 13 8b 7f 3f bb ad 82 3f 4b dd 82 3f 00 de 7e 3f
       0.99821585 1.0209268 1.0223783 0.99557495
000100 8f f4 80 3f 9a 36 7e 3f 37 05 7e 3f d7 27 80 3f
       1.0074633 0.99302065 0.9922671 1.0012158
000110 2a 44 80 3f de ec 7f 3f 75 64 83 3f 33 b7 7e 3f
       1.0020802 0.99970806 1.0265032 0.9949829
000120 42 ec 7f 3f 78 55 80 3f 3c 49 7f 3f bf 62 7f 3f
       0.99969876 1.0026083 0.9972112 0.9976005
000130 97 a8 7e 3f 32 11 7f 3f 29 50 7e 3f 1f a5 7e 3f
       0.99476 0.9963561 0.99341065 0.99470705
000140 f5 0b 7d 3f cd 14 7f 3f ec fc 7f 3f f0 ad 7e 3f
       0.9884637 0.99641114 0.99995303 0.9948416
000150 4f 3e 7e 3f 4f f0 7d 3f b5 69 7e 3f 2e 80 81 3f
       0.99313825 0.99194807 0.99380046 1.0117242
000160 7e 00 7f 3f a6 41 7e 3f 1f 82 7f 3f 7e e9 80 3f
       0.99610126 0.9931892 0.99807924 1.0071256
000170 a3 0e 7d 3f 40 25 7e 3f d4 bb 82 3f 38 82 7a 3f
       0.9885046 0.9927559 1.021357 0.9785495
000180 5a 23 80 3f 58 21 80 3f 7d 93 80 3f 74 c7 7f 3f
       1.0010788 1.0010176 1.004501 0.99913716
000190 c3 83 7e 3f 3e 34 7e 3f 7d 3b 7e 3f 85 2f 84 3f
       0.994198 0.99298465 0.9930952 1.0327002
0001a0 29 5b 80 3f 8a 1f 80 3f 54 cf 7e 3f a4 86 80 3f
       1.002782 1.0009625 0.9953511 1.0041089
0001b0 02 b1 80 3f e2 c8 7f 3f f6 23 7e 3f fe 99 7e 3f
       1.0054018 0.999159 0.9927362 0.99453723
0001c0 a6 97 7f 3f 44 f0 7f 3f 69 58 7f 3f 71 5b 7e 3f
       0.9984077 0.9997599 0.9974428 0.9935828
0001d0 58 9d 80 3f ac a8 81 3f bc 79 80 3f 9f fb 7f 3f
       1.0048018 1.01296 1.003715 0.9999332
0001e0 e7 4e 7d 3f 7b ee 7d 3f 48 1e 7e 3f 1b ce 7f 3f
       0.9894852 0.9919202 0.99264956 0.99923867
0001f0 43 7f 7e 3f c5 29 80 3f a8 0a 80 3f f4 af 80 3f
       0.99412936 1.0012747 1.0003252 1.0053697

conv1.normalization_1.bias f4 [128]
000000 35 57 14 3a 88 fa e5 3c 5b a8 a2 bb 70 79 19 bc
       0.0005658747 0.028073564 -0.004963917 -0.009367332
000010 21 86 af ba aa 82 02 bc 2b 14 0f bc 56 18 00 bb
       -0.0013391414 -0.007965723 -0.008732836 -0.0019545755
000020 69 38 55 ba ca bb ac bb 60 96 af ba 1a 72 35 bb
       -0.0008133711 -0.0052714096 -0.0013396256 -0.0027686418
000030 4c ee 2e bc ac 67 13 b9 1d f9 9e 3c 49 fa 1f bb
       -0.010676932 -0.00014057633 0.019405896 -0.0024410656
000040 20 d9 3e ba 63 94 a2 bb 41 3a c5 ba 7c 78 e8 3b
       -0.0007280279 -0.0049615367 -0.0015047268 0.007094441
000050 c1 f5 65 3b e4 97 3f bb 7b 48 9a bb 67 b1 04 bc
       0.0035089108 -0.002923482 -0.0047083474 -0.008098937
000060 73 dc 5b bb 99 78 fe 3c 55 f9 12 3d 51 52 d2 bb
       -0.0033548146 0.031063365 0.035882313 -0.0064185043
000070 39 c6 dd bb 1b fb 4a 3a bb 07 27 bb e4 f8 65 bb
       -0.0067680147 0.0007743106 -0.0025486785 -0.0035090977
000080 88 1d 7e ba 86 6a c7 ba 44 7a 9a bb 99 4a ab bb
       -0.00096937316 -0.0015214242 -0.004714282 -0.0052273986
000090 db 25 8e bb 90 a2 1b bc b5 43 f0 bb 5b f7 d6 bb
       -0.004338009 -0.009499207 -0.00733229 -0.006560249
0000a0 11 21 ac 38 f2 94 9f bc cd c2 f8 3a c1 88 28 3c
       8.207758e-05 -0.019480202 0.0018978954 0.010286511
0000b0 58 a1 89 bb 67 a4 05 bc 4d 4e f2 ba 33 cb 9c bb
       -0.004200142 -0.008156872 -0.001848647 -0.0047849654
0000c0 ce a6 b4 bb c1 ab b2 bb cb d2 ef 3c 04 4a 91 bb
       -0.0055130487 -0.0054526036 0.029275319 -0.004433872
0000d0 c6 54 c8 bb 2b a0 1b bc 14 c8 02 bc 08 9e 8f b7
       -0.0061136214 -0.009498636 -0.007982273 -1.7120517e-05
0000e0 20 ef 04 bb 0e 9a 32 bb 93 4f 16 bc d1 67 c9 3a
       -0.0020284131 -0.0027252468 -0.009174245 0.0015366023
0000f0 47 22 88 bb ff 72 19 3c ab d2 27 3c 0e 74 18 bc
       -0.004154477 0.009365796 0.010243098 -0.009305013
000100 5a e0 e3 b9 47 a3 cd ba c7 d6 18 bc 28 75 1a 3b
       -0.0004346397 -0.0015688919 -0.009328551 0.0023568366
000110 a5 06 21 ba ce 51 cf bb 77 84 f8 3c 61 08 6a bb
       -0.0006142653 -0.0063268906 0.030336602 -0.003571056
000120 90 6b 8e bb f9 d8 38 3b bd 1c a6 ba db c6 42 bb
       -0.0043463185 0.0028205498 -0.001267336 -0.0029720578
000130 4b 98 d9 bb 76 23 d5 ba 04 39 f3 bb 14 b0 fe bb
       -0.006640469 -0.0016261179 -0.0074225683 -0.007772455
000140 75 5b 37 bc c8 d5 93 bb e2 6e 04 ba 0e 48 b4 bb
       -0.011191239 -0.0045115687 -0.0005051923 -0.0055017537
000150 76 0c c5 bb 50 6f e3 bb 87 e9 99 bb b4 4d d2 3a
       -0.0060134484 -0.0069407597 -0.004697028 0.0016044886
000160 91 00 b6 bb 83 c3 2c bb bf a9 ca bb e8 4b 6a bb
       -0.0055542667 -0.0026361651 -0.006184786 -0.003575081
000170 6c f8 50 bc 00 e6 d4 bb b3 29 81 bb 19 fb 1e bc
       -0.012754541 -0.0064971447 -0.0039417385 -0.009703421
000180 3c f5 df ba d5 88 b2 ba d0 37 ee bb 3c 3a 64 bb
       -0.0017086635 -0.0013621101 -0.007269837 -0.003482475
000190 1b bf ae bb ff 24 43 bb e0 31 a6 bb 09 3e 46 3d
       -0.00533284 -0.002977669 -0.0050718635 0.048399005
0001a0 2b bf 3f 3b 2f 86 24 3b 17 af 0e bc 53 71 c4 3c
       0.0029258232 0.0025104394 -0.008708737 0.023979818
0001b0 3e 09 c4 bb 47 87 9a bb e6 63 08 bc cb da 64 bb
       -0.005982547 -0.0047158333 -0.008324599 -0.003492045
0001c0 2b 7a ca bb 5f 16 4a 3a 1e 23 04 bc 0c f4 a8 bb
       -0.0061791143 0.0007709022 -0.008065013 -0.005156046
0001d0 d8 ad 65 bb cb 14 ec 3b 79 35 88 bb d8 3b 05 3b
       -0.0035046246 0.007204627 -0.004156765 0.002032986
0001e0 fe ec 00 bc f1 7c a5 bb b2 53 1b bc af cc 57 b9
       -0.007869003 -0.0050502946 -0.009480404 -0.00020580248
0001f0 76 89 fa bb be 55 8e ba db 69 0c 3b a2 42 dd ba
       -0.007645781 -0.0010859293 0.00214254 -0.001688082

conv1.normalization_1.running_mean f4 [128]
000000 1b fb 76 be 70 87 9a 3d 23 e5 df 3d 20 00 51 be
       -0.24119227 0.07545364 0.10932376 -0.20410204
000010 b7 28 d8 3e 7c da 2c be 5f df 90 3d 87 1f eb be
       0.42218563 -0.1688022 0.07073855 -0.4592249
000020 2a 66 23 be a6 68 05 3f b0 68 06 bb 96 be 9c 3e
       -0.15956941 0.52112806 -0.0020509176 0.30614156
000030 a1 f0 e2 3d 22 ad e8 3e f7 1e b0 be 45 8a 1a 3e
       0.110810526 0.4544459 -0.34398624 0.15091808
000040 a0 c8 9f be 7c 41 82 bd 9e 9e 05 bf fe b9 d4 3e
       -0.31207752 -0.063601464 -0.52195156 0.4154815
000050 95 c9 40 3e 20 58 ab bd 26 75 58 be 3d 5d fd 3e
       0.18826897 -0.08366418 -0.21138439 0.49485198
000060 e4 f6 c0 be e6 39 d9 3e 2a f5 88 be 9c 2c a8 bb
       -0.37688363 0.42426986 -0.26749545 -0.005132271
000070 63 00 11 3f 32 44 b9 3e 42 44 d2 be ca 81 bc 3e
       0.56641215 0.3618484 -0.41067702 0.3681777
000080 dd 31 cf 3b 74 af b3 3e b1 03 a3 3e cb 33 3a 3d
       0.006323083 0.35094798 0.31838754 0.04545955
000090 8a 2d 45 3c 26 ba 94 3e e1 a3 d3 be 30 6d ca 3e
       0.012034783 0.2904827 -0.41335967 0.39536428
0000a0 7e ed ac be 8b 1e 5c 3e 85 54 f9 3e 1f 42 d6 3e
       -0.33774942 0.21496026 0.48697296 0.4184732
0000b0 d7 ee 7e be a0 03 04 3f 20 f8 a3 be cd ae df bd
       -0.24895798 0.5156803 -0.32025242 -0.109220125
0000c0 be 27 be be 7f 20 0a bf 21 99 95 3d 9c 2a 74 be
       -0.37139696 -0.53955835 0.07304598 -0.23844379
0000d0 90 03 f4 be ea 71 e0 3e 91 19 c5 be 75 ff cf 3d
       -0.47658968 0.4383691 -0.38496068 0.101561464
0000e0 c9 62 0d 3f 18 96 04 3f 46 86 13 3e 76 a9 a9 3d
       0.5522886 0.51791525 0.1440669 0.08284275
0000f0 e0 ad 21 3e b8 39 05 3f 3a 46 88 3e b7 bb e4 3e
       0.15788984 0.52041197 0.2661608 0.44674465
000100 73 06 bf be d3 e3 87 3e 4d f6 b3 3e 2f 6f b1 3e
       -0.37309608 0.26541004 0.3514885 0.3465514
000110 15 3f 97 be 39 b2 d4 3e 0a cf c7 3c fb e6 07 bf
       -0.29540315 0.41542223 0.024390716 -0.53086823
000120 1a 98 cf 3e cd 1b ec 3e 9b 4d aa be 48 5f c6 be
       0.40545732 0.4611496 -0.33262333 -0.3874457
000130 9c 98 af 3e fa 63 c1 3e ed ad ee be b0 19 0c bf
       0.3429612 0.3777159 -0.4661707 -0.54726696
000140 a0 f0 48 be cc bd e2 be fd 5d 00 be 4d cc 8f 3e
       -0.19623041 -0.4428543 -0.12535854 0.28085557
000150 d4 de 8d be 90 7d 08 3f de 17 2a be b2 38 69 be
       -0.27709067 0.53316593 -0.16610667 -0.22775534
000160 02 53 0f 3f 2f ec 54 be 60 eb d7 3e 9f ab 23 3e
       0.55986035 -0.20793222 0.42171764 0.15983437
000170 2d fc bb 3e 80 26 08 3f d9 39 02 bf dc cd fe be
       0.36715832 0.53183746 -0.5086952 -0.49766433
000180 62 42 27 3d 84 fa e0 bd 11 55 4d 3e e3 dc d7 3d
       0.040834792 -0.10985282 0.20051982 0.10540178
000190 76 50 9b 3e e7 35 64 3e 18 2f 06 3f b7 81 b5 3e
       0.30334824 0.22286187 0.5241561 0.35450527
0001a0 0e 2e d6 3e 71 bb 50 3e f8 1d f6 3e 49 6a 03 3f
       0.41832012 0.20384003 0.4806974 0.51334053
0001b0 63 b6 85 be 7a f4 49 be 76 3d d4 be db 1c ff be
       -0.26115713 -0.19722167 -0.4145314 -0.49826702
0001c0 b9 2a d9 3e 6b 2c a7 3e 8c 31 cd 3e b2 a7 11 3f
       0.42415407 0.32651076 0.40076864 0.5689651
0001d0 1b 5f f2 be 6f a2 12 be 05 cd 0e 3e 67 af bd be
       -0.47338185 -0.14319776 0.13945396 -0.37047884
0001e0 dd 8c bf be f3 63 7a 3d 24 08 82 3e ee 19 cf be
       -0.37412158 0.061130475 0.25396836 -0.4044947
0001f0 94 82 01 3f 71 3f 64 3d 30 93 ff bc d7 61 dc 3d
       0.5058987 0.055724565 -0.031198114 0.10760849

conv1.normalization_1.running_var f4 [128]
000000 a7 26 97 3b 2f be 02 3b 5e 39 0a 3d cf 97 75 3e
       0.004612762 0.0019949784 0.033746116 0.23983692
000010 79 98 d0 3c 5d f6 bf 3d 5b f0 ef 3e 40 1e 7e 3d
       0.02546333 0.09373162 0.46863064 0.062040567
000020 9b 08 ff 3c 78 ab 1c 3f 08 60 b2 3e 9a 09 75 3e
       0.031132033 0.6119914 0.3483889 0.23929444
000030 2f 6b aa 3f de e0 a6 3d 91 4c f8 3a 92 1b 48 3d
       1.331396 0.08148359 0.0018943717 0.048854418
000040 14 db df 3b 10 c7 cb 3d ea 0f e3 3c ac 72 37 3b
       0.006831536 0.099500775 0.02771755 0.0027991934
000050 87 e3 09 3d 4e 87 52 3d 83 80 ec 3e 81 d6 88 3e
       0.033664253 0.051398568 0.46191797 0.26726153
000060 7b 95 38 3f ee 60 1b 3b d7 9c 03 3b 22 a4 ad 3e
       0.7210309 0.0023708898 0.0020082498 0.33914286
000070 a3 0a 91 3d 1e ee ab 3c 4a fd 60 3e bf ab c0 3c
       0.07082107 0.020987567 0.21971622 0.023519395
000080 49 a8 29 3d a5 68 27 3d 3c b4 2a 3d a7 8b 99 3c
       0.041420255 0.04087128 0.04167579 0.01874335
000090 1b d0 d2 3e 2d 0b 87 3d 0a fd b6 3c 0b 4d 62 3d
       0.41174397 0.065939285 0.022337455 0.055249255
0000a0 9f a5 13 3f 95 a3 c4 3c 37 9f 16 3e a4 ed a9 3b
       0.5767459 0.024003783 0.14709173 0.0051857997
0000b0 9a 44 a3 3d 2f d2 55 3f d3 19 c2 3e c2 0a 21 3f
       0.07972069 0.8352384 0.37910327 0.6290704
0000c0 22 29 02 3e df 20 aa 3e 0b 1e a4 3a 1e 3e bd 3e
       0.12711003 0.33228204 0.001252116 0.36961454
0000d0 74 6d 0a 3d 79 66 c9 3e f4 fa ad 3e c5 b8 bf 3e
       0.03379579 0.39335993 0.33980525 0.37445655
0000e0 f1 56 8d 3e 7e a4 cd 3c e2 46 84 3b ad 99 1a 3c
       0.27605394 0.02510285 0.00403677 0.009436053
0000f0 d2 a6 c3 3e 28 49 e7 3b bb b5 82 3b 15 25 8b 3d
       0.3821321 0.0070582815 0.003988949 0.06794182
000100 f3 45 e0 3c 3a 4f a5 3c 02 30 62 3e 0f c1 6a 3d
       0.027377104 0.02017938 0.22088626 0.05731302
000110 b4 21 22 3e 67 e7 bf 3c 4d ac 5e 3b 9e 0e 60 3d
       0.15833169 0.02342577 0.003397721 0.05470144
000120 17 4b 65 3f 21 88 46 3d a8 eb b1 3d fe 78 af 3b
       0.89567703 0.048469666 0.08687526 0.0053549996
000130 0b ae 9b 3e b8 a8 8f 3e 1c 4b 1d 3d 9b cb 38 3e
       0.30406222 0.2805841 0.038401708 0.1804642
000140 d2 53 84 3e eb 44 77 3f 59 64 9c 3e b7 fb 10 3d
       0.258452 0.96589535 0.3054531 0.035396304
000150 c9 e3 b3 3d dd 3c 7c 3c 71 cb 25 3f 75 4b a1 3c
       0.08783681 0.01539537 0.6476355 0.019689301
000160 6a 57 a2 3d 31 9c 61 3f 43 24 9c 3c 1e 5f 3a 3c
       0.07926829 0.88128954 0.01906026 0.011375217
000170 22 98 d9 3e 38 25 63 3f 38 c6 7a 3a 8d 68 c5 3e
       0.4249888 0.88728666 0.000956628 0.38556328
000180 26 19 d7 3e 95 4c b1 3d 74 1c 50 3b 72 a2 11 3e
       0.42011374 0.08657185 0.003175524 0.14222124
000190 ff 56 08 3e 5e 0c 0d 3e 5a 82 b1 3c 16 73 80 3b
       0.13314436 0.13774249 0.021668602 0.0039199693
0001a0 32 68 11 3d 29 a3 d0 3e 25 39 ad 3e 15 29 0b 3b
       0.03549976 0.4074948 0.3383266 0.0021234204
0001b0 fe d1 c5 3d 9a 61 b1 3d 21 0a 24 3e 97 0f 90 3d
       0.096591935 0.08661194 0.16019489 0.070342235
0001c0 d7 f1 f2 3d 69 a9 aa 3d aa fe a0 3c c7 47 12 3e
       0.118625335 0.08333094 0.019652683 0.14285193
0001d0 6d ee f9 3b 2a 7c 40 3c 13 ed 8d 3c 78 95 72 3d
       0.0076272995 0.011748353 0.01732496 0.059224576
0001e0 e0 1c 47 3e a4 f0 fc 3b 97 16 38 3e 18 9a 19 3e
       0.19444609 0.0077191163 0.17977367 0.15000188
0001f0 a8 02 8c 3e 3e d5 1f 3e 48 55 46 3e 85 27 24 3d
       0.27345777 0.15608689 0.1936847 0.04007675

conv1.normalization_2.weight f4 [128]
000000 6b 08 82 3f 1f 39 81 3f b9 52 80 3f be 8f 7f 3f
       1.0158819 1.0095557 1.0025245 0.9982871
000010 2b 0a 81 3f 26 a0 7d 3f 24 35 81 3f 36 e6 80 3f
       1.0081228 0.9907249 1.0094342 1.0070255
000020 cd 17 80 3f 9a cb 7e 3f e4 7a 81 3f 04 70 7d 3f
       1.0007263 0.9952942 1.0115628 0.9899905
000030 85 55 80 3f 83 49 7e 3f 3f 38 80 3f a3 14 7e 3f
       1.0026098 0.9933092 1.0017165 0.9925024
000040 a7 58 7f 3f 37 18 7e 3f 75 8b 7d 3f 74 df 7c 3f
       0.9974465 0.992557 0.9904092 0.9877846
000050 d8 52 7e 3f 5d dc 7f 3f 83 0b 80 3f bf 03 7d 3f
       0.9934516 0.9994562 1.0003513 0.9883384
000060 c6 7d 7d 3f f6 de 7f 3f d3 c6 80 3f 0b 32 7f 3f
       0.9902004 0.99949586 1.0060676 0.99685735
000070 a3 9a 81 3f 7a 6b 7d 3f 3a dd 7e 3f 77 a5 7e 3f
       1.0125316 0.9899212 0.99556315 0.9947123
000080 bd 26 80 3f b1 f5 7f 3f 1d 23 80 3f 41 bf 81 3f
       1.0011822 0.9998427 1.0010716 1.0136491
000090 8d ea 7f 3f ba 46 81 3f 0e 2b 80 3f 18 f6 80 3f
       0.9996727 1.0099709 1.0013139 1.0075102
0000a0 35 74 80 3f ea e9 80 3f 20 96 7e 3f b9 22 7f 3f
       1.0035464 1.0071385 0.9944782 0.9966236
0000b0 2d 55 80 3f 56 77 7e 3f 2d cc 7e 3f 66 00 7f 3f
       1.0025994 0.9940084 0.995303 0.9960998
0000c0 ce 56 7f 3f 63 64 7f 3f 11 60 81 3f bc 65 7f 3f
       0.9974183 0.9976255 1.0107442 0.9976461
0000d0 3f 56 7e 3f 45 58 7f 3f 2f 66 82 3f c5 e0 80 3f
       0.9935035 0.99744064 1.0187434 1.0068594
0000e0 15 2f 80 3f 04 61 80 3f b1 5f 80 3f ad 5c 81 3f
       1.0014368 1.0029607 1.0029203 1.0106407
0000f0 2c c8 7f 3f a7 da 7f 3f 77 41 80 3f c3 75 80 3f
       0.99914813 0.9994301 1.0019978 1.0035938
000100 69 af 80 3f 36 cd 7f 3f c5 03 80 3f 33 39 82 3f
       1.0053531 0.999225 1.000115 1.0173706
000110 2c 43 83 3f ad fb 80 3f a0 32 7e 3f 10 10 7f 3f
       1.0254874 1.0076805 0.99296 0.99633884
000120 f0 03 80 3f 15 09 7f 3f 2f 89 80 3f 0c 42 80 3f
       1.0001202 0.99623233 1.0041865 1.0020156
000130 22 75 7c 3f e1 5a 80 3f 26 08 7e 3f 4f 30 7f 3f
       0.9861623 1.0027734 0.99231184 0.9968309
000140 df c0 80 3f 14 2c 7f 3f d4 ef 7d 3f d2 09 7f 3f
       1.005886 0.9967663 0.99194074 0.9962436
000150 92 a7 7e 3f 14 05 80 3f 3b 71 7f 3f d9 0b 80 3f
       0.9947444 1.000155 0.9978215 1.0003616
000160 32 0c 80 3f 7d 85 7d 3f 24 80 80 3f e5 65 81 3f
       1.0003722 0.9903181 1.0039105 1.0109221
000170 e3 99 7f 3f 80 e5 7f 3f 8a 66 82 3f fb c1 7e 3f
       0.9984419 0.99959564 1.0187542 0.9951474
000180 61 01 7f 3f 0f 8f 80 3f a4 34 7f 3f 65 fb 7d 3f
       0.9961148 1.0043658 0.996897 0.9921172
000190 c8 c2 80 3f 99 05 80 3f 1c c5 7f 3f f4 9c 7e 3f
       1.0059443 1.0001708 0.9991014 0.9945824
0001a0 f4 d9 80 3f 25 b2 7f 3f 24 cd 80 3f 8e 6d 7e 3f
       1.0066514 0.998812 1.0062604 0.9938592
0001b0 4f 86 7d 3f a6 42 7f 3f d3 c8 80 3f 09 d4 7c 3f
       0.99033064 0.9971107 1.0061287 0.9876104
0001c0 2f 98 7d 3f 2c 85 7e 3f 6d b8 7e 3f 7a f6 7d 3f
       0.9906034 0.99421954 0.9950016 0.9920422
0001d0 d7 32 80 3f fb a8 7e 3f a9 23 80 3f 84 a0 80 3f
       1.0015515 0.99476594 1.0010883 1.0048985
0001e0 bb 62 80 3f ee 01 7e 3f 33 2d 7f 3f 78 67 80 3f
       1.003013 0.99221694 0.99678344 1.0031576
0001f0 63 01 80 3f b9 99 7d 3f 0f 2c 7f 3f 20 f3 7c 3f
       1.0000423 0.9906269 0.99676603 0.9880848
